…
I1014 17:06:46.884048  1250 upgrade_proto.cpp:77] Attempting to upgrade batch norm layers using deprecated params: models/vg/ResNet-101/faster_rcnn_end2end_final/test.prototxt
I1014 17:06:46.884078  1250 upgrade_proto.cpp:80] Successfully upgraded batch norm layers using deprecated params.
I1014 17:06:46.889892  1250 net.cpp:53] Initializing net from parameters: 
name: "ResNet-101"
state {
  phase: TEST
  level: 0
}
layer {
  name: "input"
  type: "Input"
  top: "data"
  top: "im_info"
  input_param {
    shape {
      dim: 1
      dim: 3
      dim: 224
      dim: 224
    }
    shape {
      dim: 1
      dim: 3
    }
  }
}
layer {
  name: "conv1"
  type: "Convolution"
  bottom: "data"
  top: "conv1"
  param {
    lr_mult: 0
    decay_mult: 0
  }
  convolution_param {
    num_output: 64
    bias_term: false
    pad: 3
    kernel_size: 7
    stride: 2
  }
}
layer {
  name: "bn_conv1"
  type: "BatchNorm"
  bottom: "conv1"
  top: "conv1"
  param {
    lr_mult: 0
    decay_mult: 0
  }
  param {
    lr_mult: 0
    decay_mult: 0
  }
  param {
    lr_mult: 0
    decay_mult: 0
  }
  batch_norm_param {
    use_global_stats: true
  }
}
layer {
  name: "scale_conv1"
  type: "Scale"
  bottom: "conv1"
  top: "conv1"
  param {
    lr_mult: 0
    decay_mult: 0
  }
  param {
    lr_mult: 0
    decay_mult: 0
  }
  scale_param {
    bias_term: true
  }
}
layer {
  name: "conv1_relu"
  type: "ReLU"
  bottom: "conv1"
  top: "conv1"
}
layer {
  name: "pool1"
  type: "Pooling"
  bottom: "conv1"
  top: "pool1"
  pooling_param {
    pool: MAX
    kernel_size: 3
    stride: 2
  }
}
layer {
  name: "res2a_branch1"
  type: "Convolution"
  bottom: "pool1"
  top: "res2a_branch1"
  param {
    lr_mult: 0
    decay_mult: 0
  }
  convolution_param {
    num_output: 256
    bias_term: false
    pad: 0
    kernel_size: 1
    stride: 1
  }
}
layer {
  name: "bn2a_branch1"
  type: "BatchNorm"
  bottom: "res2a_branch1"
  top: "res2a_branch1"
  param {
    lr_mult: 0
    decay_mult: 0
  }
  param {
    lr_mult: 0
    decay_mult: 0
  }
  param {
    lr_mult: 0
    decay_mult: 0
  }
  batch_norm_param {
    use_global_stats: true
  }
}
layer {
  name: "scale2a_branch1"
  type: "Scale"
  bottom: "res2a_branch1"
  top: "res2a_branch1"
  param {
    lr_mult: 0
    decay_mult: 0
  }
  param {
    lr_mult: 0
    decay_mult: 0
  }
  scale_param {
    bias_term: true
  }
}
layer {
  name: "res2a_branch2a"
  type: "Convolution"
  bottom: "pool1"
  top: "res2a_branch2a"
  param {
    lr_mult: 0
    decay_mult: 0
  }
  convolution_param {
    num_output: 64
    bias_term: false
    pad: 0
    kernel_size: 1
    stride: 1
  }
}
layer {
  name: "bn2a_branch2a"
  type: "BatchNorm"
  bottom: "res2a_branch2a"
  top: "res2a_branch2a"
  param {
    lr_mult: 0
    decay_mult: 0
  }
  param {
    lr_mult: 0
    decay_mult: 0
  }
  param {
    lr_mult: 0
    decay_mult: 0
  }
  batch_norm_param {
    use_global_stats: true
  }
}
layer {
  name: "scale2a_branch2a"
  type: "Scale"
  bottom: "res2a_branch2a"
  top: "res2a_branch2a"
  param {
    lr_mult: 0
    decay_mult: 0
  }
  param {
    lr_mult: 0
    decay_mult: 0
  }
  scale_param {
    bias_term: true
  }
}
layer {
  name: "res2a_branch2a_relu"
  type: "ReLU"
  bottom: "res2a_branch2a"
  top: "res2a_branch2a"
}
layer {
  name: "res2a_branch2b"
  type: "Convolution"
  bottom: "res2a_branch2a"
  top: "res2a_branch2b"
  param {
    lr_mult: 0
    decay_mult: 0
  }
  convolution_param {
    num_output: 64
    bias_term: false
    pad: 1
    kernel_size: 3
    stride: 1
  }
}
layer {
  name: "bn2a_branch2b"
  type: "BatchNorm"
  bottom: "res2a_branch2b"
  top: "res2a_branch2b"
  param {
    lr_mult: 0
    decay_mult: 0
  }
  param {
    lr_mult: 0
    decay_mult: 0
  }
  param {
    lr_mult: 0
    decay_mult: 0
  }
  batch_norm_param {
    use_global_stats: true
  }
}
layer {
  name: "scale2a_branch2b"
  type: "Scale"
  bottom: "res2a_branch2b"
  top: "res2a_branch2b"
  param {
    lr_mult: 0
    decay_mult: 0
  }
  param {
    lr_mult: 0
    decay_mult: 0
  }
  scale_param {
    bias_term: true
  }
}
layer {
  name: "res2a_branch2b_relu"
  type: "ReLU"
  bottom: "res2a_branch2b"
  top: "res2a_branch2b"
}
layer {
  name: "res2a_branch2c"
  type: "Convolution"
  bottom: "res2a_branch2b"
  top: "res2a_branch2c"
  param {
    lr_mult: 0
    decay_mult: 0
  }
  convolution_param {
    num_output: 256
    bias_term: false
    pad: 0
    kernel_size: 1
    stride: 1
  }
}
layer {
  name: "bn2a_branch2c"
  type: "BatchNorm"
  bottom: "res2a_branch2c"
  top: "res2a_branch2c"
  param {
    lr_mult: 0
    decay_mult: 0
  }
  param {
    lr_mult: 0
    decay_mult: 0
  }
  param {
    lr_mult: 0
    decay_mult: 0
  }
  batch_norm_param {
    use_global_stats: true
  }
}
layer {
  name: "scale2a_branch2c"
  type: "Scale"
  bottom: "res2a_branch2c"
  top: "res2a_branch2c"
  param {
    lr_mult: 0
    decay_mult: 0
  }
  param {
    lr_mult: 0
    decay_mult: 0
  }
  scale_param {
    bias_term: true
  }
}
layer {
  name: "res2a"
  type: "Eltwise"
  bottom: "res2a_branch1"
  bottom: "res2a_branch2c"
  top: "res2a"
}
layer {
  name: "res2a_relu"
  type: "ReLU"
  bottom: "res2a"
  top: "res2a"
}
layer {
  name: "res2b_branch2a"
  type: "Convolution"
  bottom: "res2a"
  top: "res2b_branch2a"
  param {
    lr_mult: 0
    decay_mult: 0
  }
  convolution_param {
    num_output: 64
    bias_term: false
    pad: 0
    kernel_size: 1
    stride: 1
  }
}
layer {
  name: "bn2b_branch2a"
  type: "BatchNorm"
  bottom: "res2b_branch2a"
  top: "res2b_branch2a"
  param {
    lr_mult: 0
    decay_mult: 0
  }
  param {
    lr_mult: 0
    decay_mult: 0
  }
  param {
    lr_mult: 0
    decay_mult: 0
  }
  batch_norm_param {
    use_global_stats: true
  }
}
layer {
  name: "scale2b_branch2a"
  type: "Scale"
  bottom: "res2b_branch2a"
  top: "res2b_branch2a"
  param {
    lr_mult: 0
    decay_mult: 0
  }
  param {
    lr_mult: 0
    decay_mult: 0
  }
  scale_param {
    bias_term: true
  }
}
layer {
  name: "res2b_branch2a_relu"
  type: "ReLU"
  bottom: "res2b_branch2a"
  top: "res2b_branch2a"
}
layer {
  name: "res2b_branch2b"
  type: "Convolution"
  bottom: "res2b_branch2a"
  top: "res2b_branch2b"
  param {
    lr_mult: 0
    decay_mult: 0
  }
  convolution_param {
    num_output: 64
    bias_term: false
    pad: 1
    kernel_size: 3
    stride: 1
  }
}
layer {
  name: "bn2b_branch2b"
  type: "BatchNorm"
  bottom: "res2b_branch2b"
  top: "res2b_branch2b"
  param {
    lr_mult: 0
    decay_mult: 0
  }
  param {
    lr_mult: 0
    decay_mult: 0
  }
  param {
    lr_mult: 0
    decay_mult: 0
  }
  batch_norm_param {
    use_global_stats: true
  }
}
layer {
  name: "scale2b_branch2b"
  type: "Scale"
  bottom: "res2b_branch2b"
  top: "res2b_branch2b"
  param {
    lr_mult: 0
    decay_mult: 0
  }
  param {
    lr_mult: 0
    decay_mult: 0
  }
  scale_param {
    bias_term: true
  }
}
layer {
  name: "res2b_branch2b_relu"
  type: "ReLU"
  bottom: "res2b_branch2b"
  top: "res2b_branch2b"
}
layer {
  name: "res2b_branch2c"
  type: "Convolution"
  bottom: "res2b_branch2b"
  top: "res2b_branch2c"
  param {
    lr_mult: 0
    decay_mult: 0
  }
  convolution_param {
    num_output: 256
    bias_term: false
    pad: 0
    kernel_size: 1
    stride: 1
  }
}
layer {
  name: "bn2b_branch2c"
  type: "BatchNorm"
  bottom: "res2b_branch2c"
  top: "res2b_branch2c"
  param {
    lr_mult: 0
    decay_mult: 0
  }
  param {
    lr_mult: 0
    decay_mult: 0
  }
  param {
    lr_mult: 0
    decay_mult: 0
  }
  batch_norm_param {
    use_global_stats: true
  }
}
layer {
  name: "scale2b_branch2c"
  type: "Scale"
  bottom: "res2b_branch2c"
  top: "res2b_branch2c"
  param {
    lr_mult: 0
    decay_mult: 0
  }
  param {
    lr_mult: 0
    decay_mult: 0
  }
  scale_param {
    bias_term: true
  }
}
layer {
  name: "res2b"
  type: "Eltwise"
  bottom: "res2a"
  bottom: "res2b_branch2c"
  top: "res2b"
}
layer {
  name: "res2b_relu"
  type: "ReLU"
  bottom: "res2b"
  top: "res2b"
}
layer {
  name: "res2c_branch2a"
  type: "Convolution"
  bottom: "res2b"
  top: "res2c_branch2a"
  param {
    lr_mult: 0
    decay_mult: 0
  }
  convolution_param {
    num_output: 64
    bias_term: false
    pad: 0
    kernel_size: 1
    stride: 1
  }
}
layer {
  name: "bn2c_branch2a"
  type: "BatchNorm"
  bottom: "res2c_branch2a"
  top: "res2c_branch2a"
  param {
    lr_mult: 0
    decay_mult: 0
  }
  param {
    lr_mult: 0
    decay_mult: 0
  }
  param {
    lr_mult: 0
    decay_mult: 0
  }
  batch_norm_param {
    use_global_stats: true
  }
}
layer {
  name: "scale2c_branch2a"
  type: "Scale"
  bottom: "res2c_branch2a"
  top: "res2c_branch2a"
  param {
    lr_mult: 0
    decay_mult: 0
  }
  param {
    lr_mult: 0
    decay_mult: 0
  }
  scale_param {
    bias_term: true
  }
}
layer {
  name: "res2c_branch2a_relu"
  type: "ReLU"
  bottom: "res2c_branch2a"
  top: "res2c_branch2a"
}
layer {
  name: "res2c_branch2b"
  type: "Convolution"
  bottom: "res2c_branch2a"
  top: "res2c_branch2b"
  param {
    lr_mult: 0
    decay_mult: 0
  }
  convolution_param {
    num_output: 64
    bias_term: false
    pad: 1
    kernel_size: 3
    stride: 1
  }
}
layer {
  name: "bn2c_branch2b"
  type: "BatchNorm"
  bottom: "res2c_branch2b"
  top: "res2c_branch2b"
  param {
    lr_mult: 0
    decay_mult: 0
  }
  param {
    lr_mult: 0
    decay_mult: 0
  }
  param {
    lr_mult: 0
    decay_mult: 0
  }
  batch_norm_param {
    use_global_stats: true
  }
}
layer {
  name: "scale2c_branch2b"
  type: "Scale"
  bottom: "res2c_branch2b"
  top: "res2c_branch2b"
  param {
    lr_mult: 0
    decay_mult: 0
  }
  param {
    lr_mult: 0
    decay_mult: 0
  }
  scale_param {
    bias_term: true
  }
}
layer {
  name: "res2c_branch2b_relu"
  type: "ReLU"
  bottom: "res2c_branch2b"
  top: "res2c_branch2b"
}
layer {
  name: "res2c_branch2c"
  type: "Convolution"
  bottom: "res2c_branch2b"
  top: "res2c_branch2c"
  param {
    lr_mult: 0
    decay_mult: 0
  }
  convolution_param {
    num_output: 256
    bias_term: false
    pad: 0
    kernel_size: 1
    stride: 1
  }
}
layer {
  name: "bn2c_branch2c"
  type: "BatchNorm"
  bottom: "res2c_branch2c"
  top: "res2c_branch2c"
  param {
    lr_mult: 0
    decay_mult: 0
  }
  param {
    lr_mult: 0
    decay_mult: 0
  }
  param {
    lr_mult: 0
    decay_mult: 0
  }
  batch_norm_param {
    use_global_stats: true
  }
}
layer {
  name: "scale2c_branch2c"
  type: "Scale"
  bottom: "res2c_branch2c"
  top: "res2c_branch2c"
  param {
    lr_mult: 0
    decay_mult: 0
  }
  param {
    lr_mult: 0
    decay_mult: 0
  }
  scale_param {
    bias_term: true
  }
}
layer {
  name: "res2c"
  type: "Eltwise"
  bottom: "res2b"
  bottom: "res2c_branch2c"
  top: "res2c"
}
layer {
  name: "res2c_relu"
  type: "ReLU"
  bottom: "res2c"
  top: "res2c"
}
layer {
  name: "res3a_branch1"
  type: "Convolution"
  bottom: "res2c"
  top: "res3a_branch1"
  param {
    lr_mult: 0
    decay_mult: 0
  }
  convolution_param {
    num_output: 512
    bias_term: false
    pad: 0
    kernel_size: 1
    stride: 2
  }
}
layer {
  name: "bn3a_branch1"
  type: "BatchNorm"
  bottom: "res3a_branch1"
  top: "res3a_branch1"
  param {
    lr_mult: 0
    decay_mult: 0
  }
  param {
    lr_mult: 0
    decay_mult: 0
  }
  param {
    lr_mult: 0
    decay_mult: 0
  }
  batch_norm_param {
    use_global_stats: true
  }
}
layer {
  name: "scale3a_branch1"
  type: "Scale"
  bottom: "res3a_branch1"
  top: "res3a_branch1"
  param {
    lr_mult: 0
    decay_mult: 0
  }
  param {
    lr_mult: 0
    decay_mult: 0
  }
  scale_param {
    bias_term: true
  }
}
layer {
  name: "res3a_branch2a"
  type: "Convolution"
  bottom: "res2c"
  top: "res3a_branch2a"
  param {
    lr_mult: 0
    decay_mult: 0
  }
  convolution_param {
    num_output: 128
    bias_term: false
    pad: 0
    kernel_size: 1
    stride: 2
  }
}
layer {
  name: "bn3a_branch2a"
  type: "BatchNorm"
  bottom: "res3a_branch2a"
  top: "res3a_branch2a"
  param {
    lr_mult: 0
    decay_mult: 0
  }
  param {
    lr_mult: 0
    decay_mult: 0
  }
  param {
    lr_mult: 0
    decay_mult: 0
  }
  batch_norm_param {
    use_global_stats: true
  }
}
layer {
  name: "scale3a_branch2a"
  type: "Scale"
  bottom: "res3a_branch2a"
  top: "res3a_branch2a"
  param {
    lr_mult: 0
    decay_mult: 0
  }
  param {
    lr_mult: 0
    decay_mult: 0
  }
  scale_param {
    bias_term: true
  }
}
layer {
  name: "res3a_branch2a_relu"
  type: "ReLU"
  bottom: "res3a_branch2a"
  top: "res3a_branch2a"
}
layer {
  name: "res3a_branch2b"
  type: "Convolution"
  bottom: "res3a_branch2a"
  top: "res3a_branch2b"
  param {
    lr_mult: 0
    decay_mult: 0
  }
  convolution_param {
    num_output: 128
    bias_term: false
    pad: 1
    kernel_size: 3
    stride: 1
  }
}
layer {
  name: "bn3a_branch2b"
  type: "BatchNorm"
  bottom: "res3a_branch2b"
  top: "res3a_branch2b"
  param {
    lr_mult: 0
    decay_mult: 0
  }
  param {
    lr_mult: 0
    decay_mult: 0
  }
  param {
    lr_mult: 0
    decay_mult: 0
  }
  batch_norm_param {
    use_global_stats: true
  }
}
layer {
  name: "scale3a_branch2b"
  type: "Scale"
  bottom: "res3a_branch2b"
  top: "res3a_branch2b"
  param {
    lr_mult: 0
    decay_mult: 0
  }
  param {
    lr_mult: 0
    decay_mult: 0
  }
  scale_param {
    bias_term: true
  }
}
layer {
  name: "res3a_branch2b_relu"
  type: "ReLU"
  bottom: "res3a_branch2b"
  top: "res3a_branch2b"
}
layer {
  name: "res3a_branch2c"
  type: "Convolution"
  bottom: "res3a_branch2b"
  top: "res3a_branch2c"
  param {
    lr_mult: 0
    decay_mult: 0
  }
  convolution_param {
    num_output: 512
    bias_term: false
    pad: 0
    kernel_size: 1
    stride: 1
  }
}
layer {
  name: "bn3a_branch2c"
  type: "BatchNorm"
  bottom: "res3a_branch2c"
  top: "res3a_branch2c"
  param {
    lr_mult: 0
    decay_mult: 0
  }
  param {
    lr_mult: 0
    decay_mult: 0
  }
  param {
    lr_mult: 0
    decay_mult: 0
  }
  batch_norm_param {
    use_global_stats: true
  }
}
layer {
  name: "scale3a_branch2c"
  type: "Scale"
  bottom: "res3a_branch2c"
  top: "res3a_branch2c"
  param {
    lr_mult: 0
    decay_mult: 0
  }
  param {
    lr_mult: 0
    decay_mult: 0
  }
  scale_param {
    bias_term: true
  }
}
layer {
  name: "res3a"
  type: "Eltwise"
  bottom: "res3a_branch1"
  bottom: "res3a_branch2c"
  top: "res3a"
}
layer {
  name: "res3a_relu"
  type: "ReLU"
  bottom: "res3a"
  top: "res3a"
}
layer {
  name: "res3b1_branch2a"
  type: "Convolution"
  bottom: "res3a"
  top: "res3b1_branch2a"
  param {
    lr_mult: 0
    decay_mult: 0
  }
  convolution_param {
    num_output: 128
    bias_term: false
    pad: 0
    kernel_size: 1
    stride: 1
  }
}
layer {
  name: "bn3b1_branch2a"
  type: "BatchNorm"
  bottom: "res3b1_branch2a"
  top: "res3b1_branch2a"
  param {
    lr_mult: 0
    decay_mult: 0
  }
  param {
    lr_mult: 0
    decay_mult: 0
  }
  param {
    lr_mult: 0
    decay_mult: 0
  }
  batch_norm_param {
    use_global_stats: true
  }
}
layer {
  name: "scale3b1_branch2a"
  type: "Scale"
  bottom: "res3b1_branch2a"
  top: "res3b1_branch2a"
  param {
    lr_mult: 0
    decay_mult: 0
  }
  param {
    lr_mult: 0
    decay_mult: 0
  }
  scale_param {
    bias_term: true
  }
}
layer {
  name: "res3b1_branch2a_relu"
  type: "ReLU"
  bottom: "res3b1_branch2a"
  top: "res3b1_branch2a"
}
layer {
  name: "res3b1_branch2b"
  type: "Convolution"
  bottom: "res3b1_branch2a"
  top: "res3b1_branch2b"
  param {
    lr_mult: 0
    decay_mult: 0
  }
  convolution_param {
    num_output: 128
    bias_term: false
    pad: 1
    kernel_size: 3
    stride: 1
  }
}
layer {
  name: "bn3b1_branch2b"
  type: "BatchNorm"
  bottom: "res3b1_branch2b"
  top: "res3b1_branch2b"
  param {
    lr_mult: 0
    decay_mult: 0
  }
  param {
    lr_mult: 0
    decay_mult: 0
  }
  param {
    lr_mult: 0
    decay_mult: 0
  }
  batch_norm_param {
    use_global_stats: true
  }
}
layer {
  name: "scale3b1_branch2b"
  type: "Scale"
  bottom: "res3b1_branch2b"
  top: "res3b1_branch2b"
  param {
    lr_mult: 0
    decay_mult: 0
  }
  param {
    lr_mult: 0
    decay_mult: 0
  }
  scale_param {
    bias_term: true
  }
}
layer {
  name: "res3b1_branch2b_relu"
  type: "ReLU"
  bottom: "res3b1_branch2b"
  top: "res3b1_branch2b"
}
layer {
  name: "res3b1_branch2c"
  type: "Convolution"
  bottom: "res3b1_branch2b"
  top: "res3b1_branch2c"
  param {
    lr_mult: 0
    decay_mult: 0
  }
  convolution_param {
    num_output: 512
    bias_term: false
    pad: 0
    kernel_size: 1
    stride: 1
  }
}
layer {
  name: "bn3b1_branch2c"
  type: "BatchNorm"
  bottom: "res3b1_branch2c"
  top: "res3b1_branch2c"
  param {
    lr_mult: 0
    decay_mult: 0
  }
  param {
    lr_mult: 0
    decay_mult: 0
  }
  param {
    lr_mult: 0
    decay_mult: 0
  }
  batch_norm_param {
    use_global_stats: true
  }
}
layer {
  name: "scale3b1_branch2c"
  type: "Scale"
  bottom: "res3b1_branch2c"
  top: "res3b1_branch2c"
  param {
    lr_mult: 0
    decay_mult: 0
  }
  param {
    lr_mult: 0
    decay_mult: 0
  }
  scale_param {
    bias_term: true
  }
}
layer {
  name: "res3b1"
  type: "Eltwise"
  bottom: "res3a"
  bottom: "res3b1_branch2c"
  top: "res3b1"
}
layer {
  name: "res3b1_relu"
  type: "ReLU"
  bottom: "res3b1"
  top: "res3b1"
}
layer {
  name: "res3b2_branch2a"
  type: "Convolution"
  bottom: "res3b1"
  top: "res3b2_branch2a"
  param {
    lr_mult: 0
    decay_mult: 0
  }
  convolution_param {
    num_output: 128
    bias_term: false
    pad: 0
    kernel_size: 1
    stride: 1
  }
}
layer {
  name: "bn3b2_branch2a"
  type: "BatchNorm"
  bottom: "res3b2_branch2a"
  top: "res3b2_branch2a"
  param {
    lr_mult: 0
    decay_mult: 0
  }
  param {
    lr_mult: 0
    decay_mult: 0
  }
  param {
    lr_mult: 0
    decay_mult: 0
  }
  batch_norm_param {
    use_global_stats: true
  }
}
layer {
  name: "scale3b2_branch2a"
  type: "Scale"
  bottom: "res3b2_branch2a"
  top: "res3b2_branch2a"
  param {
    lr_mult: 0
    decay_mult: 0
  }
  param {
    lr_mult: 0
    decay_mult: 0
  }
  scale_param {
    bias_term: true
  }
}
layer {
  name: "res3b2_branch2a_relu"
  type: "ReLU"
  bottom: "res3b2_branch2a"
  top: "res3b2_branch2a"
}
layer {
  name: "res3b2_branch2b"
  type: "Convolution"
  bottom: "res3b2_branch2a"
  top: "res3b2_branch2b"
  param {
    lr_mult: 0
    decay_mult: 0
  }
  convolution_param {
    num_output: 128
    bias_term: false
    pad: 1
    kernel_size: 3
    stride: 1
  }
}
layer {
  name: "bn3b2_branch2b"
  type: "BatchNorm"
  bottom: "res3b2_branch2b"
  top: "res3b2_branch2b"
  param {
    lr_mult: 0
    decay_mult: 0
  }
  param {
    lr_mult: 0
    decay_mult: 0
  }
  param {
    lr_mult: 0
    decay_mult: 0
  }
  batch_norm_param {
    use_global_stats: true
  }
}
layer {
  name: "scale3b2_branch2b"
  type: "Scale"
  bottom: "res3b2_branch2b"
  top: "res3b2_branch2b"
  param {
    lr_mult: 0
    decay_mult: 0
  }
  param {
    lr_mult: 0
    decay_mult: 0
  }
  scale_param {
    bias_term: true
  }
}
layer {
  name: "res3b2_branch2b_relu"
  type: "ReLU"
  bottom: "res3b2_branch2b"
  top: "res3b2_branch2b"
}
layer {
  name: "res3b2_branch2c"
  type: "Convolution"
  bottom: "res3b2_branch2b"
  top: "res3b2_branch2c"
  param {
    lr_mult: 0
    decay_mult: 0
  }
  convolution_param {
    num_output: 512
    bias_term: false
    pad: 0
    kernel_size: 1
    stride: 1
  }
}
layer {
  name: "bn3b2_branch2c"
  type: "BatchNorm"
  bottom: "res3b2_branch2c"
  top: "res3b2_branch2c"
  param {
    lr_mult: 0
    decay_mult: 0
  }
  param {
    lr_mult: 0
    decay_mult: 0
  }
  param {
    lr_mult: 0
    decay_mult: 0
  }
  batch_norm_param {
    use_global_stats: true
  }
}
layer {
  name: "scale3b2_branch2c"
  type: "Scale"
  bottom: "res3b2_branch2c"
  top: "res3b2_branch2c"
  param {
    lr_mult: 0
    decay_mult: 0
  }
  param {
    lr_mult: 0
    decay_mult: 0
  }
  scale_param {
    bias_term: true
  }
}
layer {
  name: "res3b2"
  type: "Eltwise"
  bottom: "res3b1"
  bottom: "res3b2_branch2c"
  top: "res3b2"
}
layer {
  name: "res3b2_relu"
  type: "ReLU"
  bottom: "res3b2"
  top: "res3b2"
}
layer {
  name: "res3b3_branch2a"
  type: "Convolution"
  bottom: "res3b2"
  top: "res3b3_branch2a"
  param {
    lr_mult: 0
    decay_mult: 0
  }
  convolution_param {
    num_output: 128
    bias_term: false
    pad: 0
    kernel_size: 1
    stride: 1
  }
}
layer {
  name: "bn3b3_branch2a"
  type: "BatchNorm"
  bottom: "res3b3_branch2a"
  top: "res3b3_branch2a"
  param {
    lr_mult: 0
    decay_mult: 0
  }
  param {
    lr_mult: 0
    decay_mult: 0
  }
  param {
    lr_mult: 0
    decay_mult: 0
  }
  batch_norm_param {
    use_global_stats: true
  }
}
layer {
  name: "scale3b3_branch2a"
  type: "Scale"
  bottom: "res3b3_branch2a"
  top: "res3b3_branch2a"
  param {
    lr_mult: 0
    decay_mult: 0
  }
  param {
    lr_mult: 0
    decay_mult: 0
  }
  scale_param {
    bias_term: true
  }
}
layer {
  name: "res3b3_branch2a_relu"
  type: "ReLU"
  bottom: "res3b3_branch2a"
  top: "res3b3_branch2a"
}
layer {
  name: "res3b3_branch2b"
  type: "Convolution"
  bottom: "res3b3_branch2a"
  top: "res3b3_branch2b"
  param {
    lr_mult: 0
    decay_mult: 0
  }
  convolution_param {
    num_output: 128
    bias_term: false
    pad: 1
    kernel_size: 3
    stride: 1
  }
}
layer {
  name: "bn3b3_branch2b"
  type: "BatchNorm"
  bottom: "res3b3_branch2b"
  top: "res3b3_branch2b"
  param {
    lr_mult: 0
    decay_mult: 0
  }
  param {
    lr_mult: 0
    decay_mult: 0
  }
  param {
    lr_mult: 0
    decay_mult: 0
  }
  batch_norm_param {
    use_global_stats: true
  }
}
layer {
  name: "scale3b3_branch2b"
  type: "Scale"
  bottom: "res3b3_branch2b"
  top: "res3b3_branch2b"
  param {
    lr_mult: 0
    decay_mult: 0
  }
  param {
    lr_mult: 0
    decay_mult: 0
  }
  scale_param {
    bias_term: true
  }
}
layer {
  name: "res3b3_branch2b_relu"
  type: "ReLU"
  bottom: "res3b3_branch2b"
  top: "res3b3_branch2b"
}
layer {
  name: "res3b3_branch2c"
  type: "Convolution"
  bottom: "res3b3_branch2b"
  top: "res3b3_branch2c"
  param {
    lr_mult: 0
    decay_mult: 0
  }
  convolution_param {
    num_output: 512
    bias_term: false
    pad: 0
    kernel_size: 1
    stride: 1
  }
}
layer {
  name: "bn3b3_branch2c"
  type: "BatchNorm"
  bottom: "res3b3_branch2c"
  top: "res3b3_branch2c"
  param {
    lr_mult: 0
    decay_mult: 0
  }
  param {
    lr_mult: 0
    decay_mult: 0
  }
  param {
    lr_mult: 0
    decay_mult: 0
  }
  batch_norm_param {
    use_global_stats: true
  }
}
layer {
  name: "scale3b3_branch2c"
  type: "Scale"
  bottom: "res3b3_branch2c"
  top: "res3b3_branch2c"
  param {
    lr_mult: 0
    decay_mult: 0
  }
  param {
    lr_mult: 0
    decay_mult: 0
  }
  scale_param {
    bias_term: true
  }
}
layer {
  name: "res3b3"
  type: "Eltwise"
  bottom: "res3b2"
  bottom: "res3b3_branch2c"
  top: "res3b3"
}
layer {
  name: "res3b3_relu"
  type: "ReLU"
  bottom: "res3b3"
  top: "res3b3"
}
layer {
  name: "res4a_branch1"
  type: "Convolution"
  bottom: "res3b3"
  top: "res4a_branch1"
  param {
    lr_mult: 0
    decay_mult: 0
  }
  convolution_param {
    num_output: 1024
    bias_term: false
    pad: 0
    kernel_size: 1
    stride: 2
  }
}
layer {
  name: "bn4a_branch1"
  type: "BatchNorm"
  bottom: "res4a_branch1"
  top: "res4a_branch1"
  param {
    lr_mult: 0
    decay_mult: 0
  }
  param {
    lr_mult: 0
    decay_mult: 0
  }
  param {
    lr_mult: 0
    decay_mult: 0
  }
  batch_norm_param {
    use_global_stats: true
  }
}
layer {
  name: "scale4a_branch1"
  type: "Scale"
  bottom: "res4a_branch1"
  top: "res4a_branch1"
  param {
    lr_mult: 0
    decay_mult: 0
  }
  param {
    lr_mult: 0
    decay_mult: 0
  }
  scale_param {
    bias_term: true
  }
}
layer {
  name: "res4a_branch2a"
  type: "Convolution"
  bottom: "res3b3"
  top: "res4a_branch2a"
  param {
    lr_mult: 1
  }
  convolution_param {
    num_output: 256
    bias_term: false
    pad: 0
    kernel_size: 1
    stride: 2
  }
}
layer {
  name: "bn4a_branch2a"
  type: "BatchNorm"
  bottom: "res4a_branch2a"
  top: "res4a_branch2a"
  param {
    lr_mult: 0
    decay_mult: 0
  }
  param {
    lr_mult: 0
    decay_mult: 0
  }
  param {
    lr_mult: 0
    decay_mult: 0
  }
  batch_norm_param {
    use_global_stats: true
  }
}
layer {
  name: "scale4a_branch2a"
  type: "Scale"
  bottom: "res4a_branch2a"
  top: "res4a_branch2a"
  param {
    lr_mult: 0
    decay_mult: 0
  }
  param {
    lr_mult: 0
    decay_mult: 0
  }
  scale_param {
    bias_term: true
  }
}
layer {
  name: "res4a_branch2a_relu"
  type: "ReLU"
  bottom: "res4a_branch2a"
  top: "res4a_branch2a"
}
layer {
  name: "res4a_branch2b"
  type: "Convolution"
  bottom: "res4a_branch2a"
  top: "res4a_branch2b"
  param {
    lr_mult: 1
  }
  convolution_param {
    num_output: 256
    bias_term: false
    pad: 1
    kernel_size: 3
    stride: 1
  }
}
layer {
  name: "bn4a_branch2b"
  type: "BatchNorm"
  bottom: "res4a_branch2b"
  top: "res4a_branch2b"
  param {
    lr_mult: 0
    decay_mult: 0
  }
  param {
    lr_mult: 0
    decay_mult: 0
  }
  param {
    lr_mult: 0
    decay_mult: 0
  }
  batch_norm_param {
    use_global_stats: true
  }
}
layer {
  name: "scale4a_branch2b"
  type: "Scale"
  bottom: "res4a_branch2b"
  top: "res4a_branch2b"
  param {
    lr_mult: 0
    decay_mult: 0
  }
  param {
    lr_mult: 0
    decay_mult: 0
  }
  scale_param {
    bias_term: true
  }
}
layer {
  name: "res4a_branch2b_relu"
  type: "ReLU"
  bottom: "res4a_branch2b"
  top: "res4a_branch2b"
}
layer {
  name: "res4a_branch2c"
  type: "Convolution"
  bottom: "res4a_branch2b"
  top: "res4a_branch2c"
  param {
    lr_mult: 1
  }
  convolution_param {
    num_output: 1024
    bias_term: false
    pad: 0
    kernel_size: 1
    stride: 1
  }
}
layer {
  name: "bn4a_branch2c"
  type: "BatchNorm"
  bottom: "res4a_branch2c"
  top: "res4a_branch2c"
  param {
    lr_mult: 0
    decay_mult: 0
  }
  param {
    lr_mult: 0
    decay_mult: 0
  }
  param {
    lr_mult: 0
    decay_mult: 0
  }
  batch_norm_param {
    use_global_stats: true
  }
}
layer {
  name: "scale4a_branch2c"
  type: "Scale"
  bottom: "res4a_branch2c"
  top: "res4a_branch2c"
  param {
    lr_mult: 0
    decay_mult: 0
  }
  param {
    lr_mult: 0
    decay_mult: 0
  }
  scale_param {
    bias_term: true
  }
}
layer {
  name: "res4a"
  type: "Eltwise"
  bottom: "res4a_branch1"
  bottom: "res4a_branch2c"
  top: "res4a"
}
layer {
  name: "res4a_relu"
  type: "ReLU"
  bottom: "res4a"
  top: "res4a"
}
layer {
  name: "res4b1_branch2a"
  type: "Convolution"
  bottom: "res4a"
  top: "res4b1_branch2a"
  param {
    lr_mult: 1
  }
  convolution_param {
    num_output: 256
    bias_term: false
    pad: 0
    kernel_size: 1
    stride: 1
  }
}
layer {
  name: "bn4b1_branch2a"
  type: "BatchNorm"
  bottom: "res4b1_branch2a"
  top: "res4b1_branch2a"
  param {
    lr_mult: 0
    decay_mult: 0
  }
  param {
    lr_mult: 0
    decay_mult: 0
  }
  param {
    lr_mult: 0
    decay_mult: 0
  }
  batch_norm_param {
    use_global_stats: true
  }
}
layer {
  name: "scale4b1_branch2a"
  type: "Scale"
  bottom: "res4b1_branch2a"
  top: "res4b1_branch2a"
  param {
    lr_mult: 0
    decay_mult: 0
  }
  param {
    lr_mult: 0
    decay_mult: 0
  }
  scale_param {
    bias_term: true
  }
}
layer {
  name: "res4b1_branch2a_relu"
  type: "ReLU"
  bottom: "res4b1_branch2a"
  top: "res4b1_branch2a"
}
layer {
  name: "res4b1_branch2b"
  type: "Convolution"
  bottom: "res4b1_branch2a"
  top: "res4b1_branch2b"
  param {
    lr_mult: 1
  }
  convolution_param {
    num_output: 256
    bias_term: false
    pad: 1
    kernel_size: 3
    stride: 1
  }
}
layer {
  name: "bn4b1_branch2b"
  type: "BatchNorm"
  bottom: "res4b1_branch2b"
  top: "res4b1_branch2b"
  param {
    lr_mult: 0
    decay_mult: 0
  }
  param {
    lr_mult: 0
    decay_mult: 0
  }
  param {
    lr_mult: 0
    decay_mult: 0
  }
  batch_norm_param {
    use_global_stats: true
  }
}
layer {
  name: "scale4b1_branch2b"
  type: "Scale"
  bottom: "res4b1_branch2b"
  top: "res4b1_branch2b"
  param {
    lr_mult: 0
    decay_mult: 0
  }
  param {
    lr_mult: 0
    decay_mult: 0
  }
  scale_param {
    bias_term: true
  }
}
layer {
  name: "res4b1_branch2b_relu"
  type: "ReLU"
  bottom: "res4b1_branch2b"
  top: "res4b1_branch2b"
}
layer {
  name: "res4b1_branch2c"
  type: "Convolution"
  bottom: "res4b1_branch2b"
  top: "res4b1_branch2c"
  param {
    lr_mult: 1
  }
  convolution_param {
    num_output: 1024
    bias_term: false
    pad: 0
    kernel_size: 1
    stride: 1
  }
}
layer {
  name: "bn4b1_branch2c"
  type: "BatchNorm"
  bottom: "res4b1_branch2c"
  top: "res4b1_branch2c"
  param {
    lr_mult: 0
    decay_mult: 0
  }
  param {
    lr_mult: 0
    decay_mult: 0
  }
  param {
    lr_mult: 0
    decay_mult: 0
  }
  batch_norm_param {
    use_global_stats: true
  }
}
layer {
  name: "scale4b1_branch2c"
  type: "Scale"
  bottom: "res4b1_branch2c"
  top: "res4b1_branch2c"
  param {
    lr_mult: 0
    decay_mult: 0
  }
  param {
    lr_mult: 0
    decay_mult: 0
  }
  scale_param {
    bias_term: true
  }
}
layer {
  name: "res4b1"
  type: "Eltwise"
  bottom: "res4a"
  bottom: "res4b1_branch2c"
  top: "res4b1"
}
layer {
  name: "res4b1_relu"
  type: "ReLU"
  bottom: "res4b1"
  top: "res4b1"
}
layer {
  name: "res4b2_branch2a"
  type: "Convolution"
  bottom: "res4b1"
  top: "res4b2_branch2a"
  param {
    lr_mult: 1
  }
  convolution_param {
    num_output: 256
    bias_term: false
    pad: 0
    kernel_size: 1
    stride: 1
  }
}
layer {
  name: "bn4b2_branch2a"
  type: "BatchNorm"
  bottom: "res4b2_branch2a"
  top: "res4b2_branch2a"
  param {
    lr_mult: 0
    decay_mult: 0
  }
  param {
    lr_mult: 0
    decay_mult: 0
  }
  param {
    lr_mult: 0
    decay_mult: 0
  }
  batch_norm_param {
    use_global_stats: true
  }
}
layer {
  name: "scale4b2_branch2a"
  type: "Scale"
  bottom: "res4b2_branch2a"
  top: "res4b2_branch2a"
  param {
    lr_mult: 0
    decay_mult: 0
  }
  param {
    lr_mult: 0
    decay_mult: 0
  }
  scale_param {
    bias_term: true
  }
}
layer {
  name: "res4b2_branch2a_relu"
  type: "ReLU"
  bottom: "res4b2_branch2a"
  top: "res4b2_branch2a"
}
layer {
  name: "res4b2_branch2b"
  type: "Convolution"
  bottom: "res4b2_branch2a"
  top: "res4b2_branch2b"
  param {
    lr_mult: 1
  }
  convolution_param {
    num_output: 256
    bias_term: false
    pad: 1
    kernel_size: 3
    stride: 1
  }
}
layer {
I1014 17:06:46.892748  1250 layer_factory.hpp:77] Creating layer input
I1014 17:06:46.892778  1250 net.cpp:86] Creating Layer input
I1014 17:06:46.892786  1250 net.cpp:382] input -> data
I1014 17:06:46.892804  1250 net.cpp:382] input -> im_info
I1014 17:06:49.488046  1250 net.cpp:124] Setting up input
I1014 17:06:49.488126  1250 net.cpp:131] Top shape: 1 3 224 224 (150528)
I1014 17:06:49.488138  1250 net.cpp:131] Top shape: 1 3 (3)
I1014 17:06:49.488145  1250 net.cpp:139] Memory required for data: 602124
I1014 17:06:49.488160  1250 layer_factory.hpp:77] Creating layer conv1
I1014 17:06:49.488198  1250 net.cpp:86] Creating Layer conv1
I1014 17:06:49.488209  1250 net.cpp:408] conv1 <- data
I1014 17:06:49.488229  1250 net.cpp:382] conv1 -> conv1
I1014 17:06:52.564560  1250 net.cpp:124] Setting up conv1
I1014 17:06:52.564627  1250 net.cpp:131] Top shape: 1 64 112 112 (802816)
I1014 17:06:52.564635  1250 net.cpp:139] Memory required for data: 3813388
I1014 17:06:52.564654  1250 layer_factory.hpp:77] Creating layer bn_conv1
I1014 17:06:52.564687  1250 net.cpp:86] Creating Layer bn_conv1
I1014 17:06:52.564697  1250 net.cpp:408] bn_conv1 <- conv1
I1014 17:06:52.564707  1250 net.cpp:369] bn_conv1 -> conv1 (in-place)
I1014 17:06:52.564975  1250 net.cpp:124] Setting up bn_conv1
I1014 17:06:52.564985  1250 net.cpp:131] Top shape: 1 64 112 112 (802816)
I1014 17:06:52.564988  1250 net.cpp:139] Memory required for data: 7024652
I1014 17:06:52.565003  1250 layer_factory.hpp:77] Creating layer scale_conv1
I1014 17:06:52.565026  1250 net.cpp:86] Creating Layer scale_conv1
I1014 17:06:52.565030  1250 net.cpp:408] scale_conv1 <- conv1
I1014 17:06:52.565037  1250 net.cpp:369] scale_conv1 -> conv1 (in-place)
I1014 17:06:52.565091  1250 layer_factory.hpp:77] Creating layer scale_conv1
I1014 17:06:52.565256  1250 net.cpp:124] Setting up scale_conv1
I1014 17:06:52.565264  1250 net.cpp:131] Top shape: 1 64 112 112 (802816)
I1014 17:06:52.565269  1250 net.cpp:139] Memory required for data: 10235916
I1014 17:06:52.565294  1250 layer_factory.hpp:77] Creating layer conv1_relu
I1014 17:06:52.565306  1250 net.cpp:86] Creating Layer conv1_relu
I1014 17:06:52.565311  1250 net.cpp:408] conv1_relu <- conv1
I1014 17:06:52.565317  1250 net.cpp:369] conv1_relu -> conv1 (in-place)
I1014 17:06:52.565532  1250 net.cpp:124] Setting up conv1_relu
I1014 17:06:52.565542  1250 net.cpp:131] Top shape: 1 64 112 112 (802816)
I1014 17:06:52.565546  1250 net.cpp:139] Memory required for data: 13447180
I1014 17:06:52.565551  1250 layer_factory.hpp:77] Creating layer pool1
I1014 17:06:52.565564  1250 net.cpp:86] Creating Layer pool1
I1014 17:06:52.565568  1250 net.cpp:408] pool1 <- conv1
I1014 17:06:52.565575  1250 net.cpp:382] pool1 -> pool1
I1014 17:06:52.565624  1250 net.cpp:124] Setting up pool1
I1014 17:06:52.565631  1250 net.cpp:131] Top shape: 1 64 56 56 (200704)
I1014 17:06:52.565635  1250 net.cpp:139] Memory required for data: 14249996
I1014 17:06:52.565639  1250 layer_factory.hpp:77] Creating layer pool1_pool1_0_split
I1014 17:06:52.565654  1250 net.cpp:86] Creating Layer pool1_pool1_0_split
I1014 17:06:52.565657  1250 net.cpp:408] pool1_pool1_0_split <- pool1
I1014 17:06:52.565663  1250 net.cpp:382] pool1_pool1_0_split -> pool1_pool1_0_split_0
I1014 17:06:52.565671  1250 net.cpp:382] pool1_pool1_0_split -> pool1_pool1_0_split_1
I1014 17:06:52.565707  1250 net.cpp:124] Setting up pool1_pool1_0_split
I1014 17:06:52.565714  1250 net.cpp:131] Top shape: 1 64 56 56 (200704)
I1014 17:06:52.565721  1250 net.cpp:131] Top shape: 1 64 56 56 (200704)
I1014 17:06:52.565724  1250 net.cpp:139] Memory required for data: 15855628
I1014 17:06:52.565728  1250 layer_factory.hpp:77] Creating layer res2a_branch1
I1014 17:06:52.565742  1250 net.cpp:86] Creating Layer res2a_branch1
I1014 17:06:52.565745  1250 net.cpp:408] res2a_branch1 <- pool1_pool1_0_split_0
I1014 17:06:52.565752  1250 net.cpp:382] res2a_branch1 -> res2a_branch1
I1014 17:06:52.569293  1250 net.cpp:124] Setting up res2a_branch1
I1014 17:06:52.569311  1250 net.cpp:131] Top shape: 1 256 56 56 (802816)
I1014 17:06:52.569316  1250 net.cpp:139] Memory required for data: 19066892
I1014 17:06:52.569326  1250 layer_factory.hpp:77] Creating layer bn2a_branch1
I1014 17:06:52.569339  1250 net.cpp:86] Creating Layer bn2a_branch1
I1014 17:06:52.569345  1250 net.cpp:408] bn2a_branch1 <- res2a_branch1
I1014 17:06:52.569352  1250 net.cpp:369] bn2a_branch1 -> res2a_branch1 (in-place)
I1014 17:06:52.570410  1250 net.cpp:124] Setting up bn2a_branch1
I1014 17:06:52.570423  1250 net.cpp:131] Top shape: 1 256 56 56 (802816)
I1014 17:06:52.570428  1250 net.cpp:139] Memory required for data: 22278156
I1014 17:06:52.570442  1250 layer_factory.hpp:77] Creating layer scale2a_branch1
I1014 17:06:52.570452  1250 net.cpp:86] Creating Layer scale2a_branch1
I1014 17:06:52.570456  1250 net.cpp:408] scale2a_branch1 <- res2a_branch1
I1014 17:06:52.570463  1250 net.cpp:369] scale2a_branch1 -> res2a_branch1 (in-place)
I1014 17:06:52.570508  1250 layer_factory.hpp:77] Creating layer scale2a_branch1
I1014 17:06:52.570641  1250 net.cpp:124] Setting up scale2a_branch1
I1014 17:06:52.570648  1250 net.cpp:131] Top shape: 1 256 56 56 (802816)
I1014 17:06:52.570652  1250 net.cpp:139] Memory required for data: 25489420
I1014 17:06:52.570660  1250 layer_factory.hpp:77] Creating layer res2a_branch2a
I1014 17:06:52.570669  1250 net.cpp:86] Creating Layer res2a_branch2a
I1014 17:06:52.570674  1250 net.cpp:408] res2a_branch2a <- pool1_pool1_0_split_1
I1014 17:06:52.570682  1250 net.cpp:382] res2a_branch2a -> res2a_branch2a
I1014 17:06:52.572907  1250 net.cpp:124] Setting up res2a_branch2a
I1014 17:06:52.572934  1250 net.cpp:131] Top shape: 1 64 56 56 (200704)
I1014 17:06:52.572939  1250 net.cpp:139] Memory required for data: 26292236
I1014 17:06:52.572947  1250 layer_factory.hpp:77] Creating layer bn2a_branch2a
I1014 17:06:52.572959  1250 net.cpp:86] Creating Layer bn2a_branch2a
I1014 17:06:52.572963  1250 net.cpp:408] bn2a_branch2a <- res2a_branch2a
I1014 17:06:52.572970  1250 net.cpp:369] bn2a_branch2a -> res2a_branch2a (in-place)
I1014 17:06:52.573194  1250 net.cpp:124] Setting up bn2a_branch2a
I1014 17:06:52.573202  1250 net.cpp:131] Top shape: 1 64 56 56 (200704)
I1014 17:06:52.573206  1250 net.cpp:139] Memory required for data: 27095052
I1014 17:06:52.573216  1250 layer_factory.hpp:77] Creating layer scale2a_branch2a
I1014 17:06:52.573226  1250 net.cpp:86] Creating Layer scale2a_branch2a
I1014 17:06:52.573231  1250 net.cpp:408] scale2a_branch2a <- res2a_branch2a
I1014 17:06:52.573237  1250 net.cpp:369] scale2a_branch2a -> res2a_branch2a (in-place)
I1014 17:06:52.573278  1250 layer_factory.hpp:77] Creating layer scale2a_branch2a
I1014 17:06:52.573401  1250 net.cpp:124] Setting up scale2a_branch2a
I1014 17:06:52.573408  1250 net.cpp:131] Top shape: 1 64 56 56 (200704)
I1014 17:06:52.573413  1250 net.cpp:139] Memory required for data: 27897868
I1014 17:06:52.573422  1250 layer_factory.hpp:77] Creating layer res2a_branch2a_relu
I1014 17:06:52.573431  1250 net.cpp:86] Creating Layer res2a_branch2a_relu
I1014 17:06:52.573436  1250 net.cpp:408] res2a_branch2a_relu <- res2a_branch2a
I1014 17:06:52.573441  1250 net.cpp:369] res2a_branch2a_relu -> res2a_branch2a (in-place)
I1014 17:06:52.573662  1250 net.cpp:124] Setting up res2a_branch2a_relu
I1014 17:06:52.573673  1250 net.cpp:131] Top shape: 1 64 56 56 (200704)
I1014 17:06:52.573678  1250 net.cpp:139] Memory required for data: 28700684
I1014 17:06:52.573683  1250 layer_factory.hpp:77] Creating layer res2a_branch2b
I1014 17:06:52.573694  1250 net.cpp:86] Creating Layer res2a_branch2b
I1014 17:06:52.573699  1250 net.cpp:408] res2a_branch2b <- res2a_branch2a
I1014 17:06:52.573706  1250 net.cpp:382] res2a_branch2b -> res2a_branch2b
I1014 17:06:52.577200  1250 net.cpp:124] Setting up res2a_branch2b
I1014 17:06:52.577217  1250 net.cpp:131] Top shape: 1 64 56 56 (200704)
I1014 17:06:52.577222  1250 net.cpp:139] Memory required for data: 29503500
I1014 17:06:52.577232  1250 layer_factory.hpp:77] Creating layer bn2a_branch2b
I1014 17:06:52.577242  1250 net.cpp:86] Creating Layer bn2a_branch2b
I1014 17:06:52.577247  1250 net.cpp:408] bn2a_branch2b <- res2a_branch2b
I1014 17:06:52.577253  1250 net.cpp:369] bn2a_branch2b -> res2a_branch2b (in-place)
I1014 17:06:52.577483  1250 net.cpp:124] Setting up bn2a_branch2b
I1014 17:06:52.577491  1250 net.cpp:131] Top shape: 1 64 56 56 (200704)
I1014 17:06:52.577497  1250 net.cpp:139] Memory required for data: 30306316
I1014 17:06:52.577505  1250 layer_factory.hpp:77] Creating layer scale2a_branch2b
I1014 17:06:52.577515  1250 net.cpp:86] Creating Layer scale2a_branch2b
I1014 17:06:52.577520  1250 net.cpp:408] scale2a_branch2b <- res2a_branch2b
I1014 17:06:52.577527  1250 net.cpp:369] scale2a_branch2b -> res2a_branch2b (in-place)
I1014 17:06:52.577570  1250 layer_factory.hpp:77] Creating layer scale2a_branch2b
I1014 17:06:52.577703  1250 net.cpp:124] Setting up scale2a_branch2b
I1014 17:06:52.577711  1250 net.cpp:131] Top shape: 1 64 56 56 (200704)
I1014 17:06:52.577716  1250 net.cpp:139] Memory required for data: 31109132
I1014 17:06:52.577724  1250 layer_factory.hpp:77] Creating layer res2a_branch2b_relu
I1014 17:06:52.577733  1250 net.cpp:86] Creating Layer res2a_branch2b_relu
I1014 17:06:52.577739  1250 net.cpp:408] res2a_branch2b_relu <- res2a_branch2b
I1014 17:06:52.577744  1250 net.cpp:369] res2a_branch2b_relu -> res2a_branch2b (in-place)
I1014 17:06:52.578610  1250 net.cpp:124] Setting up res2a_branch2b_relu
I1014 17:06:52.578624  1250 net.cpp:131] Top shape: 1 64 56 56 (200704)
I1014 17:06:52.578629  1250 net.cpp:139] Memory required for data: 31911948
I1014 17:06:52.578634  1250 layer_factory.hpp:77] Creating layer res2a_branch2c
I1014 17:06:52.578646  1250 net.cpp:86] Creating Layer res2a_branch2c
I1014 17:06:52.578651  1250 net.cpp:408] res2a_branch2c <- res2a_branch2b
I1014 17:06:52.578658  1250 net.cpp:382] res2a_branch2c -> res2a_branch2c
I1014 17:06:52.580879  1250 net.cpp:124] Setting up res2a_branch2c
I1014 17:06:52.580898  1250 net.cpp:131] Top shape: 1 256 56 56 (802816)
I1014 17:06:52.580902  1250 net.cpp:139] Memory required for data: 35123212
I1014 17:06:52.580915  1250 layer_factory.hpp:77] Creating layer bn2a_branch2c
I1014 17:06:52.580924  1250 net.cpp:86] Creating Layer bn2a_branch2c
I1014 17:06:52.580929  1250 net.cpp:408] bn2a_branch2c <- res2a_branch2c
I1014 17:06:52.580937  1250 net.cpp:369] bn2a_branch2c -> res2a_branch2c (in-place)
I1014 17:06:52.581172  1250 net.cpp:124] Setting up bn2a_branch2c
I1014 17:06:52.581182  1250 net.cpp:131] Top shape: 1 256 56 56 (802816)
I1014 17:06:52.581185  1250 net.cpp:139] Memory required for data: 38334476
I1014 17:06:52.581195  1250 layer_factory.hpp:77] Creating layer scale2a_branch2c
I1014 17:06:52.581203  1250 net.cpp:86] Creating Layer scale2a_branch2c
I1014 17:06:52.581208  1250 net.cpp:408] scale2a_branch2c <- res2a_branch2c
I1014 17:06:52.581214  1250 net.cpp:369] scale2a_branch2c -> res2a_branch2c (in-place)
I1014 17:06:52.581259  1250 layer_factory.hpp:77] Creating layer scale2a_branch2c
I1014 17:06:52.581394  1250 net.cpp:124] Setting up scale2a_branch2c
I1014 17:06:52.581403  1250 net.cpp:131] Top shape: 1 256 56 56 (802816)
I1014 17:06:52.581406  1250 net.cpp:139] Memory required for data: 41545740
I1014 17:06:52.581414  1250 layer_factory.hpp:77] Creating layer res2a
I1014 17:06:52.581429  1250 net.cpp:86] Creating Layer res2a
I1014 17:06:52.581432  1250 net.cpp:408] res2a <- res2a_branch1
I1014 17:06:52.581439  1250 net.cpp:408] res2a <- res2a_branch2c
I1014 17:06:52.581446  1250 net.cpp:382] res2a -> res2a
I1014 17:06:52.581483  1250 net.cpp:124] Setting up res2a
I1014 17:06:52.581490  1250 net.cpp:131] Top shape: 1 256 56 56 (802816)
I1014 17:06:52.581495  1250 net.cpp:139] Memory required for data: 44757004
I1014 17:06:52.581498  1250 layer_factory.hpp:77] Creating layer res2a_relu
I1014 17:06:52.581508  1250 net.cpp:86] Creating Layer res2a_relu
I1014 17:06:52.581512  1250 net.cpp:408] res2a_relu <- res2a
I1014 17:06:52.581518  1250 net.cpp:369] res2a_relu -> res2a (in-place)
I1014 17:06:52.581737  1250 net.cpp:124] Setting up res2a_relu
I1014 17:06:52.581746  1250 net.cpp:131] Top shape: 1 256 56 56 (802816)
I1014 17:06:52.581751  1250 net.cpp:139] Memory required for data: 47968268
I1014 17:06:52.581756  1250 layer_factory.hpp:77] Creating layer res2a_res2a_relu_0_split
I1014 17:06:52.581771  1250 net.cpp:86] Creating Layer res2a_res2a_relu_0_split
I1014 17:06:52.581776  1250 net.cpp:408] res2a_res2a_relu_0_split <- res2a
I1014 17:06:52.581784  1250 net.cpp:382] res2a_res2a_relu_0_split -> res2a_res2a_relu_0_split_0
I1014 17:06:52.581791  1250 net.cpp:382] res2a_res2a_relu_0_split -> res2a_res2a_relu_0_split_1
I1014 17:06:52.581836  1250 net.cpp:124] Setting up res2a_res2a_relu_0_split
I1014 17:06:52.581843  1250 net.cpp:131] Top shape: 1 256 56 56 (802816)
I1014 17:06:52.581849  1250 net.cpp:131] Top shape: 1 256 56 56 (802816)
I1014 17:06:52.581852  1250 net.cpp:139] Memory required for data: 54390796
I1014 17:06:52.581857  1250 layer_factory.hpp:77] Creating layer res2b_branch2a
I1014 17:06:52.581867  1250 net.cpp:86] Creating Layer res2b_branch2a
I1014 17:06:52.581871  1250 net.cpp:408] res2b_branch2a <- res2a_res2a_relu_0_split_0
I1014 17:06:52.581879  1250 net.cpp:382] res2b_branch2a -> res2b_branch2a
I1014 17:06:52.584422  1250 net.cpp:124] Setting up res2b_branch2a
I1014 17:06:52.584439  1250 net.cpp:131] Top shape: 1 64 56 56 (200704)
I1014 17:06:52.584444  1250 net.cpp:139] Memory required for data: 55193612
I1014 17:06:52.584452  1250 layer_factory.hpp:77] Creating layer bn2b_branch2a
I1014 17:06:52.584463  1250 net.cpp:86] Creating Layer bn2b_branch2a
I1014 17:06:52.584468  1250 net.cpp:408] bn2b_branch2a <- res2b_branch2a
I1014 17:06:52.584481  1250 net.cpp:369] bn2b_branch2a -> res2b_branch2a (in-place)
I1014 17:06:52.584738  1250 net.cpp:124] Setting up bn2b_branch2a
I1014 17:06:52.584745  1250 net.cpp:131] Top shape: 1 64 56 56 (200704)
I1014 17:06:52.584749  1250 net.cpp:139] Memory required for data: 55996428
I1014 17:06:52.584764  1250 layer_factory.hpp:77] Creating layer scale2b_branch2a
I1014 17:06:52.584772  1250 net.cpp:86] Creating Layer scale2b_branch2a
I1014 17:06:52.584782  1250 net.cpp:408] scale2b_branch2a <- res2b_branch2a
I1014 17:06:52.584790  1250 net.cpp:369] scale2b_branch2a -> res2b_branch2a (in-place)
I1014 17:06:52.584836  1250 layer_factory.hpp:77] Creating layer scale2b_branch2a
I1014 17:06:52.584976  1250 net.cpp:124] Setting up scale2b_branch2a
I1014 17:06:52.584985  1250 net.cpp:131] Top shape: 1 64 56 56 (200704)
I1014 17:06:52.584988  1250 net.cpp:139] Memory required for data: 56799244
I1014 17:06:52.584997  1250 layer_factory.hpp:77] Creating layer res2b_branch2a_relu
I1014 17:06:52.585005  1250 net.cpp:86] Creating Layer res2b_branch2a_relu
I1014 17:06:52.585009  1250 net.cpp:408] res2b_branch2a_relu <- res2b_branch2a
I1014 17:06:52.585016  1250 net.cpp:369] res2b_branch2a_relu -> res2b_branch2a (in-place)
I1014 17:06:52.585239  1250 net.cpp:124] Setting up res2b_branch2a_relu
I1014 17:06:52.585249  1250 net.cpp:131] Top shape: 1 64 56 56 (200704)
I1014 17:06:52.585253  1250 net.cpp:139] Memory required for data: 57602060
I1014 17:06:52.585258  1250 layer_factory.hpp:77] Creating layer res2b_branch2b
I1014 17:06:52.585269  1250 net.cpp:86] Creating Layer res2b_branch2b
I1014 17:06:52.585273  1250 net.cpp:408] res2b_branch2b <- res2b_branch2a
I1014 17:06:52.585283  1250 net.cpp:382] res2b_branch2b -> res2b_branch2b
I1014 17:06:52.588116  1250 net.cpp:124] Setting up res2b_branch2b
I1014 17:06:52.588132  1250 net.cpp:131] Top shape: 1 64 56 56 (200704)
I1014 17:06:52.588137  1250 net.cpp:139] Memory required for data: 58404876
I1014 17:06:52.588145  1250 layer_factory.hpp:77] Creating layer bn2b_branch2b
I1014 17:06:52.588156  1250 net.cpp:86] Creating Layer bn2b_branch2b
I1014 17:06:52.588161  1250 net.cpp:408] bn2b_branch2b <- res2b_branch2b
I1014 17:06:52.588169  1250 net.cpp:369] bn2b_branch2b -> res2b_branch2b (in-place)
I1014 17:06:52.588415  1250 net.cpp:124] Setting up bn2b_branch2b
I1014 17:06:52.588424  1250 net.cpp:131] Top shape: 1 64 56 56 (200704)
I1014 17:06:52.588428  1250 net.cpp:139] Memory required for data: 59207692
I1014 17:06:52.588438  1250 layer_factory.hpp:77] Creating layer scale2b_branch2b
I1014 17:06:52.588449  1250 net.cpp:86] Creating Layer scale2b_branch2b
I1014 17:06:52.588454  1250 net.cpp:408] scale2b_branch2b <- res2b_branch2b
I1014 17:06:52.588459  1250 net.cpp:369] scale2b_branch2b -> res2b_branch2b (in-place)
I1014 17:06:52.588505  1250 layer_factory.hpp:77] Creating layer scale2b_branch2b
I1014 17:06:52.588646  1250 net.cpp:124] Setting up scale2b_branch2b
I1014 17:06:52.588654  1250 net.cpp:131] Top shape: 1 64 56 56 (200704)
I1014 17:06:52.588659  1250 net.cpp:139] Memory required for data: 60010508
I1014 17:06:52.588665  1250 layer_factory.hpp:77] Creating layer res2b_branch2b_relu
I1014 17:06:52.588675  1250 net.cpp:86] Creating Layer res2b_branch2b_relu
I1014 17:06:52.588678  1250 net.cpp:408] res2b_branch2b_relu <- res2b_branch2b
I1014 17:06:52.588685  1250 net.cpp:369] res2b_branch2b_relu -> res2b_branch2b (in-place)
I1014 17:06:52.589617  1250 net.cpp:124] Setting up res2b_branch2b_relu
I1014 17:06:52.589630  1250 net.cpp:131] Top shape: 1 64 56 56 (200704)
I1014 17:06:52.589634  1250 net.cpp:139] Memory required for data: 60813324
I1014 17:06:52.589639  1250 layer_factory.hpp:77] Creating layer res2b_branch2c
I1014 17:06:52.589651  1250 net.cpp:86] Creating Layer res2b_branch2c
I1014 17:06:52.589656  1250 net.cpp:408] res2b_branch2c <- res2b_branch2b
I1014 17:06:52.589665  1250 net.cpp:382] res2b_branch2c -> res2b_branch2c
I1014 17:06:52.592432  1250 net.cpp:124] Setting up res2b_branch2c
I1014 17:06:52.592448  1250 net.cpp:131] Top shape: 1 256 56 56 (802816)
I1014 17:06:52.592453  1250 net.cpp:139] Memory required for data: 64024588
I1014 17:06:52.592460  1250 layer_factory.hpp:77] Creating layer bn2b_branch2c
I1014 17:06:52.592471  1250 net.cpp:86] Creating Layer bn2b_branch2c
I1014 17:06:52.592476  1250 net.cpp:408] bn2b_branch2c <- res2b_branch2c
I1014 17:06:52.592484  1250 net.cpp:369] bn2b_branch2c -> res2b_branch2c (in-place)
I1014 17:06:52.592744  1250 net.cpp:124] Setting up bn2b_branch2c
I1014 17:06:52.592770  1250 net.cpp:131] Top shape: 1 256 56 56 (802816)
I1014 17:06:52.592775  1250 net.cpp:139] Memory required for data: 67235852
I1014 17:06:52.592787  1250 layer_factory.hpp:77] Creating layer scale2b_branch2c
I1014 17:06:52.592797  1250 net.cpp:86] Creating Layer scale2b_branch2c
I1014 17:06:52.592803  1250 net.cpp:408] scale2b_branch2c <- res2b_branch2c
I1014 17:06:52.592809  1250 net.cpp:369] scale2b_branch2c -> res2b_branch2c (in-place)
I1014 17:06:52.592860  1250 layer_factory.hpp:77] Creating layer scale2b_branch2c
I1014 17:06:52.593025  1250 net.cpp:124] Setting up scale2b_branch2c
I1014 17:06:52.593034  1250 net.cpp:131] Top shape: 1 256 56 56 (802816)
I1014 17:06:52.593039  1250 net.cpp:139] Memory required for data: 70447116
I1014 17:06:52.593045  1250 layer_factory.hpp:77] Creating layer res2b
I1014 17:06:52.593053  1250 net.cpp:86] Creating Layer res2b
I1014 17:06:52.593057  1250 net.cpp:408] res2b <- res2a_res2a_relu_0_split_1
I1014 17:06:52.593063  1250 net.cpp:408] res2b <- res2b_branch2c
I1014 17:06:52.593096  1250 net.cpp:382] res2b -> res2b
I1014 17:06:52.593127  1250 net.cpp:124] Setting up res2b
I1014 17:06:52.593134  1250 net.cpp:131] Top shape: 1 256 56 56 (802816)
I1014 17:06:52.593138  1250 net.cpp:139] Memory required for data: 73658380
I1014 17:06:52.593142  1250 layer_factory.hpp:77] Creating layer res2b_relu
I1014 17:06:52.593150  1250 net.cpp:86] Creating Layer res2b_relu
I1014 17:06:52.593154  1250 net.cpp:408] res2b_relu <- res2b
I1014 17:06:52.593160  1250 net.cpp:369] res2b_relu -> res2b (in-place)
I1014 17:06:52.593410  1250 net.cpp:124] Setting up res2b_relu
I1014 17:06:52.593420  1250 net.cpp:131] Top shape: 1 256 56 56 (802816)
I1014 17:06:52.593425  1250 net.cpp:139] Memory required for data: 76869644
I1014 17:06:52.593430  1250 layer_factory.hpp:77] Creating layer res2b_res2b_relu_0_split
I1014 17:06:52.593436  1250 net.cpp:86] Creating Layer res2b_res2b_relu_0_split
I1014 17:06:52.593441  1250 net.cpp:408] res2b_res2b_relu_0_split <- res2b
I1014 17:06:52.593449  1250 net.cpp:382] res2b_res2b_relu_0_split -> res2b_res2b_relu_0_split_0
I1014 17:06:52.593456  1250 net.cpp:382] res2b_res2b_relu_0_split -> res2b_res2b_relu_0_split_1
I1014 17:06:52.593505  1250 net.cpp:124] Setting up res2b_res2b_relu_0_split
I1014 17:06:52.593513  1250 net.cpp:131] Top shape: 1 256 56 56 (802816)
I1014 17:06:52.593518  1250 net.cpp:131] Top shape: 1 256 56 56 (802816)
I1014 17:06:52.593523  1250 net.cpp:139] Memory required for data: 83292172
I1014 17:06:52.593528  1250 layer_factory.hpp:77] Creating layer res2c_branch2a
I1014 17:06:52.593541  1250 net.cpp:86] Creating Layer res2c_branch2a
I1014 17:06:52.593546  1250 net.cpp:408] res2c_branch2a <- res2b_res2b_relu_0_split_0
I1014 17:06:52.593552  1250 net.cpp:382] res2c_branch2a -> res2c_branch2a
I1014 17:06:52.596005  1250 net.cpp:124] Setting up res2c_branch2a
I1014 17:06:52.596024  1250 net.cpp:131] Top shape: 1 64 56 56 (200704)
I1014 17:06:52.596027  1250 net.cpp:139] Memory required for data: 84094988
I1014 17:06:52.596035  1250 layer_factory.hpp:77] Creating layer bn2c_branch2a
I1014 17:06:52.596043  1250 net.cpp:86] Creating Layer bn2c_branch2a
I1014 17:06:52.596047  1250 net.cpp:408] bn2c_branch2a <- res2c_branch2a
I1014 17:06:52.596056  1250 net.cpp:369] bn2c_branch2a -> res2c_branch2a (in-place)
I1014 17:06:52.596298  1250 net.cpp:124] Setting up bn2c_branch2a
I1014 17:06:52.596307  1250 net.cpp:131] Top shape: 1 64 56 56 (200704)
I1014 17:06:52.596310  1250 net.cpp:139] Memory required for data: 84897804
I1014 17:06:52.596330  1250 layer_factory.hpp:77] Creating layer scale2c_branch2a
I1014 17:06:52.596339  1250 net.cpp:86] Creating Layer scale2c_branch2a
I1014 17:06:52.596343  1250 net.cpp:408] scale2c_branch2a <- res2c_branch2a
I1014 17:06:52.596352  1250 net.cpp:369] scale2c_branch2a -> res2c_branch2a (in-place)
I1014 17:06:52.596398  1250 layer_factory.hpp:77] Creating layer scale2c_branch2a
I1014 17:06:52.596547  1250 net.cpp:124] Setting up scale2c_branch2a
I1014 17:06:52.596555  1250 net.cpp:131] Top shape: 1 64 56 56 (200704)
I1014 17:06:52.596565  1250 net.cpp:139] Memory required for data: 85700620
I1014 17:06:52.596572  1250 layer_factory.hpp:77] Creating layer res2c_branch2a_relu
I1014 17:06:52.596581  1250 net.cpp:86] Creating Layer res2c_branch2a_relu
I1014 17:06:52.596586  1250 net.cpp:408] res2c_branch2a_relu <- res2c_branch2a
I1014 17:06:52.596593  1250 net.cpp:369] res2c_branch2a_relu -> res2c_branch2a (in-place)
I1014 17:06:52.596828  1250 net.cpp:124] Setting up res2c_branch2a_relu
I1014 17:06:52.596838  1250 net.cpp:131] Top shape: 1 64 56 56 (200704)
I1014 17:06:52.596843  1250 net.cpp:139] Memory required for data: 86503436
I1014 17:06:52.596846  1250 layer_factory.hpp:77] Creating layer res2c_branch2b
I1014 17:06:52.596858  1250 net.cpp:86] Creating Layer res2c_branch2b
I1014 17:06:52.596863  1250 net.cpp:408] res2c_branch2b <- res2c_branch2a
I1014 17:06:52.596871  1250 net.cpp:382] res2c_branch2b -> res2c_branch2b
I1014 17:06:52.600735  1250 net.cpp:124] Setting up res2c_branch2b
I1014 17:06:52.600770  1250 net.cpp:131] Top shape: 1 64 56 56 (200704)
I1014 17:06:52.600775  1250 net.cpp:139] Memory required for data: 87306252
I1014 17:06:52.600787  1250 layer_factory.hpp:77] Creating layer bn2c_branch2b
I1014 17:06:52.600800  1250 net.cpp:86] Creating Layer bn2c_branch2b
I1014 17:06:52.600805  1250 net.cpp:408] bn2c_branch2b <- res2c_branch2b
I1014 17:06:52.600814  1250 net.cpp:369] bn2c_branch2b -> res2c_branch2b (in-place)
I1014 17:06:52.601112  1250 net.cpp:124] Setting up bn2c_branch2b
I1014 17:06:52.601119  1250 net.cpp:131] Top shape: 1 64 56 56 (200704)
I1014 17:06:52.601121  1250 net.cpp:139] Memory required for data: 88109068
I1014 17:06:52.601130  1250 layer_factory.hpp:77] Creating layer scale2c_branch2b
I1014 17:06:52.601140  1250 net.cpp:86] Creating Layer scale2c_branch2b
I1014 17:06:52.601143  1250 net.cpp:408] scale2c_branch2b <- res2c_branch2b
I1014 17:06:52.601148  1250 net.cpp:369] scale2c_branch2b -> res2c_branch2b (in-place)
I1014 17:06:52.601192  1250 layer_factory.hpp:77] Creating layer scale2c_branch2b
I1014 17:06:52.601320  1250 net.cpp:124] Setting up scale2c_branch2b
I1014 17:06:52.601325  1250 net.cpp:131] Top shape: 1 64 56 56 (200704)
I1014 17:06:52.601328  1250 net.cpp:139] Memory required for data: 88911884
I1014 17:06:52.601341  1250 layer_factory.hpp:77] Creating layer res2c_branch2b_relu
I1014 17:06:52.601351  1250 net.cpp:86] Creating Layer res2c_branch2b_relu
I1014 17:06:52.601353  1250 net.cpp:408] res2c_branch2b_relu <- res2c_branch2b
I1014 17:06:52.601358  1250 net.cpp:369] res2c_branch2b_relu -> res2c_branch2b (in-place)
I1014 17:06:52.602594  1250 net.cpp:124] Setting up res2c_branch2b_relu
I1014 17:06:52.602607  1250 net.cpp:131] Top shape: 1 64 56 56 (200704)
I1014 17:06:52.602609  1250 net.cpp:139] Memory required for data: 89714700
I1014 17:06:52.602613  1250 layer_factory.hpp:77] Creating layer res2c_branch2c
I1014 17:06:52.602624  1250 net.cpp:86] Creating Layer res2c_branch2c
I1014 17:06:52.602628  1250 net.cpp:408] res2c_branch2c <- res2c_branch2b
I1014 17:06:52.602635  1250 net.cpp:382] res2c_branch2c -> res2c_branch2c
I1014 17:06:52.605427  1250 net.cpp:124] Setting up res2c_branch2c
I1014 17:06:52.605459  1250 net.cpp:131] Top shape: 1 256 56 56 (802816)
I1014 17:06:52.605468  1250 net.cpp:139] Memory required for data: 92925964
I1014 17:06:52.605479  1250 layer_factory.hpp:77] Creating layer bn2c_branch2c
I1014 17:06:52.605494  1250 net.cpp:86] Creating Layer bn2c_branch2c
I1014 17:06:52.605501  1250 net.cpp:408] bn2c_branch2c <- res2c_branch2c
I1014 17:06:52.605515  1250 net.cpp:369] bn2c_branch2c -> res2c_branch2c (in-place)
I1014 17:06:52.605952  1250 net.cpp:124] Setting up bn2c_branch2c
I1014 17:06:52.605965  1250 net.cpp:131] Top shape: 1 256 56 56 (802816)
I1014 17:06:52.605971  1250 net.cpp:139] Memory required for data: 96137228
I1014 17:06:52.605986  1250 layer_factory.hpp:77] Creating layer scale2c_branch2c
I1014 17:06:52.605998  1250 net.cpp:86] Creating Layer scale2c_branch2c
I1014 17:06:52.606005  1250 net.cpp:408] scale2c_branch2c <- res2c_branch2c
I1014 17:06:52.606029  1250 net.cpp:369] scale2c_branch2c -> res2c_branch2c (in-place)
I1014 17:06:52.606117  1250 layer_factory.hpp:77] Creating layer scale2c_branch2c
I1014 17:06:52.606369  1250 net.cpp:124] Setting up scale2c_branch2c
I1014 17:06:52.606380  1250 net.cpp:131] Top shape: 1 256 56 56 (802816)
I1014 17:06:52.606386  1250 net.cpp:139] Memory required for data: 99348492
I1014 17:06:52.606413  1250 layer_factory.hpp:77] Creating layer res2c
I1014 17:06:52.606427  1250 net.cpp:86] Creating Layer res2c
I1014 17:06:52.606436  1250 net.cpp:408] res2c <- res2b_res2b_relu_0_split_1
I1014 17:06:52.606446  1250 net.cpp:408] res2c <- res2c_branch2c
I1014 17:06:52.606456  1250 net.cpp:382] res2c -> res2c
I1014 17:06:52.606505  1250 net.cpp:124] Setting up res2c
I1014 17:06:52.606515  1250 net.cpp:131] Top shape: 1 256 56 56 (802816)
I1014 17:06:52.606523  1250 net.cpp:139] Memory required for data: 102559756
I1014 17:06:52.606528  1250 layer_factory.hpp:77] Creating layer res2c_relu
I1014 17:06:52.606541  1250 net.cpp:86] Creating Layer res2c_relu
I1014 17:06:52.606549  1250 net.cpp:408] res2c_relu <- res2c
I1014 17:06:52.606556  1250 net.cpp:369] res2c_relu -> res2c (in-place)
I1014 17:06:52.606954  1250 net.cpp:124] Setting up res2c_relu
I1014 17:06:52.606971  1250 net.cpp:131] Top shape: 1 256 56 56 (802816)
I1014 17:06:52.606976  1250 net.cpp:139] Memory required for data: 105771020
I1014 17:06:52.606984  1250 layer_factory.hpp:77] Creating layer res2c_res2c_relu_0_split
I1014 17:06:52.606997  1250 net.cpp:86] Creating Layer res2c_res2c_relu_0_split
I1014 17:06:52.607004  1250 net.cpp:408] res2c_res2c_relu_0_split <- res2c
I1014 17:06:52.607014  1250 net.cpp:382] res2c_res2c_relu_0_split -> res2c_res2c_relu_0_split_0
I1014 17:06:52.607026  1250 net.cpp:382] res2c_res2c_relu_0_split -> res2c_res2c_relu_0_split_1
I1014 17:06:52.607115  1250 net.cpp:124] Setting up res2c_res2c_relu_0_split
I1014 17:06:52.607125  1250 net.cpp:131] Top shape: 1 256 56 56 (802816)
I1014 17:06:52.607133  1250 net.cpp:131] Top shape: 1 256 56 56 (802816)
I1014 17:06:52.607139  1250 net.cpp:139] Memory required for data: 112193548
I1014 17:06:52.607146  1250 layer_factory.hpp:77] Creating layer res3a_branch1
I1014 17:06:52.607164  1250 net.cpp:86] Creating Layer res3a_branch1
I1014 17:06:52.607172  1250 net.cpp:408] res3a_branch1 <- res2c_res2c_relu_0_split_0
I1014 17:06:52.607183  1250 net.cpp:382] res3a_branch1 -> res3a_branch1
I1014 17:06:52.613235  1250 net.cpp:124] Setting up res3a_branch1
I1014 17:06:52.613272  1250 net.cpp:131] Top shape: 1 512 28 28 (401408)
I1014 17:06:52.613281  1250 net.cpp:139] Memory required for data: 113799180
I1014 17:06:52.613293  1250 layer_factory.hpp:77] Creating layer bn3a_branch1
I1014 17:06:52.613312  1250 net.cpp:86] Creating Layer bn3a_branch1
I1014 17:06:52.613322  1250 net.cpp:408] bn3a_branch1 <- res3a_branch1
I1014 17:06:52.613335  1250 net.cpp:369] bn3a_branch1 -> res3a_branch1 (in-place)
I1014 17:06:52.614893  1250 net.cpp:124] Setting up bn3a_branch1
I1014 17:06:52.614915  1250 net.cpp:131] Top shape: 1 512 28 28 (401408)
I1014 17:06:52.614923  1250 net.cpp:139] Memory required for data: 115404812
I1014 17:06:52.614939  1250 layer_factory.hpp:77] Creating layer scale3a_branch1
I1014 17:06:52.614959  1250 net.cpp:86] Creating Layer scale3a_branch1
I1014 17:06:52.614967  1250 net.cpp:408] scale3a_branch1 <- res3a_branch1
I1014 17:06:52.614981  1250 net.cpp:369] scale3a_branch1 -> res3a_branch1 (in-place)
I1014 17:06:52.615072  1250 layer_factory.hpp:77] Creating layer scale3a_branch1
I1014 17:06:52.615311  1250 net.cpp:124] Setting up scale3a_branch1
I1014 17:06:52.615325  1250 net.cpp:131] Top shape: 1 512 28 28 (401408)
I1014 17:06:52.615332  1250 net.cpp:139] Memory required for data: 117010444
I1014 17:06:52.615344  1250 layer_factory.hpp:77] Creating layer res3a_branch2a
I1014 17:06:52.615360  1250 net.cpp:86] Creating Layer res3a_branch2a
I1014 17:06:52.615368  1250 net.cpp:408] res3a_branch2a <- res2c_res2c_relu_0_split_1
I1014 17:06:52.615388  1250 net.cpp:382] res3a_branch2a -> res3a_branch2a
I1014 17:06:52.619505  1250 net.cpp:124] Setting up res3a_branch2a
I1014 17:06:52.619535  1250 net.cpp:131] Top shape: 1 128 28 28 (100352)
I1014 17:06:52.619544  1250 net.cpp:139] Memory required for data: 117411852
I1014 17:06:52.619560  1250 layer_factory.hpp:77] Creating layer bn3a_branch2a
I1014 17:06:52.619596  1250 net.cpp:86] Creating Layer bn3a_branch2a
I1014 17:06:52.619604  1250 net.cpp:408] bn3a_branch2a <- res3a_branch2a
I1014 17:06:52.619616  1250 net.cpp:369] bn3a_branch2a -> res3a_branch2a (in-place)
I1014 17:06:52.620051  1250 net.cpp:124] Setting up bn3a_branch2a
I1014 17:06:52.620064  1250 net.cpp:131] Top shape: 1 128 28 28 (100352)
I1014 17:06:52.620070  1250 net.cpp:139] Memory required for data: 117813260
I1014 17:06:52.620085  1250 layer_factory.hpp:77] Creating layer scale3a_branch2a
I1014 17:06:52.620101  1250 net.cpp:86] Creating Layer scale3a_branch2a
I1014 17:06:52.620108  1250 net.cpp:408] scale3a_branch2a <- res3a_branch2a
I1014 17:06:52.620117  1250 net.cpp:369] scale3a_branch2a -> res3a_branch2a (in-place)
I1014 17:06:52.620198  1250 layer_factory.hpp:77] Creating layer scale3a_branch2a
I1014 17:06:52.620434  1250 net.cpp:124] Setting up scale3a_branch2a
I1014 17:06:52.620445  1250 net.cpp:131] Top shape: 1 128 28 28 (100352)
I1014 17:06:52.620452  1250 net.cpp:139] Memory required for data: 118214668
I1014 17:06:52.620463  1250 layer_factory.hpp:77] Creating layer res3a_branch2a_relu
I1014 17:06:52.620477  1250 net.cpp:86] Creating Layer res3a_branch2a_relu
I1014 17:06:52.620484  1250 net.cpp:408] res3a_branch2a_relu <- res3a_branch2a
I1014 17:06:52.620493  1250 net.cpp:369] res3a_branch2a_relu -> res3a_branch2a (in-place)
I1014 17:06:52.620894  1250 net.cpp:124] Setting up res3a_branch2a_relu
I1014 17:06:52.620911  1250 net.cpp:131] Top shape: 1 128 28 28 (100352)
I1014 17:06:52.620918  1250 net.cpp:139] Memory required for data: 118616076
I1014 17:06:52.620925  1250 layer_factory.hpp:77] Creating layer res3a_branch2b
I1014 17:06:52.620947  1250 net.cpp:86] Creating Layer res3a_branch2b
I1014 17:06:52.620956  1250 net.cpp:408] res3a_branch2b <- res3a_branch2a
I1014 17:06:52.620967  1250 net.cpp:382] res3a_branch2b -> res3a_branch2b
I1014 17:06:52.627661  1250 net.cpp:124] Setting up res3a_branch2b
I1014 17:06:52.627696  1250 net.cpp:131] Top shape: 1 128 28 28 (100352)
I1014 17:06:52.627703  1250 net.cpp:139] Memory required for data: 119017484
I1014 17:06:52.627717  1250 layer_factory.hpp:77] Creating layer bn3a_branch2b
I1014 17:06:52.627732  1250 net.cpp:86] Creating Layer bn3a_branch2b
I1014 17:06:52.627739  1250 net.cpp:408] bn3a_branch2b <- res3a_branch2b
I1014 17:06:52.627753  1250 net.cpp:369] bn3a_branch2b -> res3a_branch2b (in-place)
I1014 17:06:52.628170  1250 net.cpp:124] Setting up bn3a_branch2b
I1014 17:06:52.628182  1250 net.cpp:131] Top shape: 1 128 28 28 (100352)
I1014 17:06:52.628188  1250 net.cpp:139] Memory required for data: 119418892
I1014 17:06:52.628202  1250 layer_factory.hpp:77] Creating layer scale3a_branch2b
I1014 17:06:52.628214  1250 net.cpp:86] Creating Layer scale3a_branch2b
I1014 17:06:52.628221  1250 net.cpp:408] scale3a_branch2b <- res3a_branch2b
I1014 17:06:52.628231  1250 net.cpp:369] scale3a_branch2b -> res3a_branch2b (in-place)
I1014 17:06:52.628304  1250 layer_factory.hpp:77] Creating layer scale3a_branch2b
I1014 17:06:52.628535  1250 net.cpp:124] Setting up scale3a_branch2b
I1014 17:06:52.628546  1250 net.cpp:131] Top shape: 1 128 28 28 (100352)
I1014 17:06:52.628552  1250 net.cpp:139] Memory required for data: 119820300
I1014 17:06:52.628563  1250 layer_factory.hpp:77] Creating layer res3a_branch2b_relu
I1014 17:06:52.628579  1250 net.cpp:86] Creating Layer res3a_branch2b_relu
I1014 17:06:52.628587  1250 net.cpp:408] res3a_branch2b_relu <- res3a_branch2b
I1014 17:06:52.628594  1250 net.cpp:369] res3a_branch2b_relu -> res3a_branch2b (in-place)
I1014 17:06:52.630242  1250 net.cpp:124] Setting up res3a_branch2b_relu
I1014 17:06:52.630271  1250 net.cpp:131] Top shape: 1 128 28 28 (100352)
I1014 17:06:52.630278  1250 net.cpp:139] Memory required for data: 120221708
I1014 17:06:52.630298  1250 layer_factory.hpp:77] Creating layer res3a_branch2c
I1014 17:06:52.630316  1250 net.cpp:86] Creating Layer res3a_branch2c
I1014 17:06:52.630323  1250 net.cpp:408] res3a_branch2c <- res3a_branch2b
I1014 17:06:52.630337  1250 net.cpp:382] res3a_branch2c -> res3a_branch2c
I1014 17:06:52.633179  1250 net.cpp:124] Setting up res3a_branch2c
I1014 17:06:52.633208  1250 net.cpp:131] Top shape: 1 512 28 28 (401408)
I1014 17:06:52.633215  1250 net.cpp:139] Memory required for data: 121827340
I1014 17:06:52.633229  1250 layer_factory.hpp:77] Creating layer bn3a_branch2c
I1014 17:06:52.633250  1250 net.cpp:86] Creating Layer bn3a_branch2c
I1014 17:06:52.633258  1250 net.cpp:408] bn3a_branch2c <- res3a_branch2c
I1014 17:06:52.633268  1250 net.cpp:369] bn3a_branch2c -> res3a_branch2c (in-place)
I1014 17:06:52.633677  1250 net.cpp:124] Setting up bn3a_branch2c
I1014 17:06:52.633689  1250 net.cpp:131] Top shape: 1 512 28 28 (401408)
I1014 17:06:52.633695  1250 net.cpp:139] Memory required for data: 123432972
I1014 17:06:52.633709  1250 layer_factory.hpp:77] Creating layer scale3a_branch2c
I1014 17:06:52.633723  1250 net.cpp:86] Creating Layer scale3a_branch2c
I1014 17:06:52.633730  1250 net.cpp:408] scale3a_branch2c <- res3a_branch2c
I1014 17:06:52.633739  1250 net.cpp:369] scale3a_branch2c -> res3a_branch2c (in-place)
I1014 17:06:52.633818  1250 layer_factory.hpp:77] Creating layer scale3a_branch2c
I1014 17:06:52.634042  1250 net.cpp:124] Setting up scale3a_branch2c
I1014 17:06:52.634053  1250 net.cpp:131] Top shape: 1 512 28 28 (401408)
I1014 17:06:52.634058  1250 net.cpp:139] Memory required for data: 125038604
I1014 17:06:52.634069  1250 layer_factory.hpp:77] Creating layer res3a
I1014 17:06:52.634081  1250 net.cpp:86] Creating Layer res3a
I1014 17:06:52.634088  1250 net.cpp:408] res3a <- res3a_branch1
I1014 17:06:52.634097  1250 net.cpp:408] res3a <- res3a_branch2c
I1014 17:06:52.634105  1250 net.cpp:382] res3a -> res3a
I1014 17:06:52.634155  1250 net.cpp:124] Setting up res3a
I1014 17:06:52.634165  1250 net.cpp:131] Top shape: 1 512 28 28 (401408)
I1014 17:06:52.634171  1250 net.cpp:139] Memory required for data: 126644236
I1014 17:06:52.634176  1250 layer_factory.hpp:77] Creating layer res3a_relu
I1014 17:06:52.634186  1250 net.cpp:86] Creating Layer res3a_relu
I1014 17:06:52.634191  1250 net.cpp:408] res3a_relu <- res3a
I1014 17:06:52.634202  1250 net.cpp:369] res3a_relu -> res3a (in-place)
I1014 17:06:52.636780  1250 net.cpp:124] Setting up res3a_relu
I1014 17:06:52.636806  1250 net.cpp:131] Top shape: 1 512 28 28 (401408)
I1014 17:06:52.636812  1250 net.cpp:139] Memory required for data: 128249868
I1014 17:06:52.636828  1250 layer_factory.hpp:77] Creating layer res3a_res3a_relu_0_split
I1014 17:06:52.636839  1250 net.cpp:86] Creating Layer res3a_res3a_relu_0_split
I1014 17:06:52.636847  1250 net.cpp:408] res3a_res3a_relu_0_split <- res3a
I1014 17:06:52.636859  1250 net.cpp:382] res3a_res3a_relu_0_split -> res3a_res3a_relu_0_split_0
I1014 17:06:52.636873  1250 net.cpp:382] res3a_res3a_relu_0_split -> res3a_res3a_relu_0_split_1
I1014 17:06:52.636965  1250 net.cpp:124] Setting up res3a_res3a_relu_0_split
I1014 17:06:52.636976  1250 net.cpp:131] Top shape: 1 512 28 28 (401408)
I1014 17:06:52.636984  1250 net.cpp:131] Top shape: 1 512 28 28 (401408)
I1014 17:06:52.636991  1250 net.cpp:139] Memory required for data: 131461132
I1014 17:06:52.636996  1250 layer_factory.hpp:77] Creating layer res3b1_branch2a
I1014 17:06:52.637015  1250 net.cpp:86] Creating Layer res3b1_branch2a
I1014 17:06:52.637022  1250 net.cpp:408] res3b1_branch2a <- res3a_res3a_relu_0_split_0
I1014 17:06:52.637032  1250 net.cpp:382] res3b1_branch2a -> res3b1_branch2a
I1014 17:06:52.641800  1250 net.cpp:124] Setting up res3b1_branch2a
I1014 17:06:52.641829  1250 net.cpp:131] Top shape: 1 128 28 28 (100352)
I1014 17:06:52.641836  1250 net.cpp:139] Memory required for data: 131862540
I1014 17:06:52.641846  1250 layer_factory.hpp:77] Creating layer bn3b1_branch2a
I1014 17:06:52.641860  1250 net.cpp:86] Creating Layer bn3b1_branch2a
I1014 17:06:52.641875  1250 net.cpp:408] bn3b1_branch2a <- res3b1_branch2a
I1014 17:06:52.641887  1250 net.cpp:369] bn3b1_branch2a -> res3b1_branch2a (in-place)
I1014 17:06:52.642283  1250 net.cpp:124] Setting up bn3b1_branch2a
I1014 17:06:52.642295  1250 net.cpp:131] Top shape: 1 128 28 28 (100352)
I1014 17:06:52.642300  1250 net.cpp:139] Memory required for data: 132263948
I1014 17:06:52.642313  1250 layer_factory.hpp:77] Creating layer scale3b1_branch2a
I1014 17:06:52.642326  1250 net.cpp:86] Creating Layer scale3b1_branch2a
I1014 17:06:52.642333  1250 net.cpp:408] scale3b1_branch2a <- res3b1_branch2a
I1014 17:06:52.642340  1250 net.cpp:369] scale3b1_branch2a -> res3b1_branch2a (in-place)
I1014 17:06:52.642412  1250 layer_factory.hpp:77] Creating layer scale3b1_branch2a
I1014 17:06:52.642629  1250 net.cpp:124] Setting up scale3b1_branch2a
I1014 17:06:52.642640  1250 net.cpp:131] Top shape: 1 128 28 28 (100352)
I1014 17:06:52.642645  1250 net.cpp:139] Memory required for data: 132665356
I1014 17:06:52.642655  1250 layer_factory.hpp:77] Creating layer res3b1_branch2a_relu
I1014 17:06:52.642664  1250 net.cpp:86] Creating Layer res3b1_branch2a_relu
I1014 17:06:52.642670  1250 net.cpp:408] res3b1_branch2a_relu <- res3b1_branch2a
I1014 17:06:52.642679  1250 net.cpp:369] res3b1_branch2a_relu -> res3b1_branch2a (in-place)
I1014 17:06:52.643043  1250 net.cpp:124] Setting up res3b1_branch2a_relu
I1014 17:06:52.643057  1250 net.cpp:131] Top shape: 1 128 28 28 (100352)
I1014 17:06:52.643064  1250 net.cpp:139] Memory required for data: 133066764
I1014 17:06:52.643069  1250 layer_factory.hpp:77] Creating layer res3b1_branch2b
I1014 17:06:52.643085  1250 net.cpp:86] Creating Layer res3b1_branch2b
I1014 17:06:52.643090  1250 net.cpp:408] res3b1_branch2b <- res3b1_branch2a
I1014 17:06:52.643103  1250 net.cpp:382] res3b1_branch2b -> res3b1_branch2b
I1014 17:06:52.648737  1250 net.cpp:124] Setting up res3b1_branch2b
I1014 17:06:52.648763  1250 net.cpp:131] Top shape: 1 128 28 28 (100352)
I1014 17:06:52.648771  1250 net.cpp:139] Memory required for data: 133468172
I1014 17:06:52.648783  1250 layer_factory.hpp:77] Creating layer bn3b1_branch2b
I1014 17:06:52.648798  1250 net.cpp:86] Creating Layer bn3b1_branch2b
I1014 17:06:52.648805  1250 net.cpp:408] bn3b1_branch2b <- res3b1_branch2b
I1014 17:06:52.648818  1250 net.cpp:369] bn3b1_branch2b -> res3b1_branch2b (in-place)
I1014 17:06:52.649214  1250 net.cpp:124] Setting up bn3b1_branch2b
I1014 17:06:52.649225  1250 net.cpp:131] Top shape: 1 128 28 28 (100352)
I1014 17:06:52.649230  1250 net.cpp:139] Memory required for data: 133869580
I1014 17:06:52.649245  1250 layer_factory.hpp:77] Creating layer scale3b1_branch2b
I1014 17:06:52.649256  1250 net.cpp:86] Creating Layer scale3b1_branch2b
I1014 17:06:52.649262  1250 net.cpp:408] scale3b1_branch2b <- res3b1_branch2b
I1014 17:06:52.649276  1250 net.cpp:369] scale3b1_branch2b -> res3b1_branch2b (in-place)
I1014 17:06:52.649348  1250 layer_factory.hpp:77] Creating layer scale3b1_branch2b
I1014 17:06:52.649559  1250 net.cpp:124] Setting up scale3b1_branch2b
I1014 17:06:52.649570  1250 net.cpp:131] Top shape: 1 128 28 28 (100352)
I1014 17:06:52.649575  1250 net.cpp:139] Memory required for data: 134270988
I1014 17:06:52.649585  1250 layer_factory.hpp:77] Creating layer res3b1_branch2b_relu
I1014 17:06:52.649595  1250 net.cpp:86] Creating Layer res3b1_branch2b_relu
I1014 17:06:52.649600  1250 net.cpp:408] res3b1_branch2b_relu <- res3b1_branch2b
I1014 17:06:52.649608  1250 net.cpp:369] res3b1_branch2b_relu -> res3b1_branch2b (in-place)
I1014 17:06:52.651109  1250 net.cpp:124] Setting up res3b1_branch2b_relu
I1014 17:06:52.651130  1250 net.cpp:131] Top shape: 1 128 28 28 (100352)
I1014 17:06:52.651136  1250 net.cpp:139] Memory required for data: 134672396
I1014 17:06:52.651144  1250 layer_factory.hpp:77] Creating layer res3b1_branch2c
I1014 17:06:52.651160  1250 net.cpp:86] Creating Layer res3b1_branch2c
I1014 17:06:52.651167  1250 net.cpp:408] res3b1_branch2c <- res3b1_branch2b
I1014 17:06:52.651180  1250 net.cpp:382] res3b1_branch2c -> res3b1_branch2c
I1014 17:06:52.653764  1250 net.cpp:124] Setting up res3b1_branch2c
I1014 17:06:52.653789  1250 net.cpp:131] Top shape: 1 512 28 28 (401408)
I1014 17:06:52.653795  1250 net.cpp:139] Memory required for data: 136278028
I1014 17:06:52.653805  1250 layer_factory.hpp:77] Creating layer bn3b1_branch2c
I1014 17:06:52.653818  1250 net.cpp:86] Creating Layer bn3b1_branch2c
I1014 17:06:52.653825  1250 net.cpp:408] bn3b1_branch2c <- res3b1_branch2c
I1014 17:06:52.653833  1250 net.cpp:369] bn3b1_branch2c -> res3b1_branch2c (in-place)
I1014 17:06:52.654206  1250 net.cpp:124] Setting up bn3b1_branch2c
I1014 17:06:52.654217  1250 net.cpp:131] Top shape: 1 512 28 28 (401408)
I1014 17:06:52.654222  1250 net.cpp:139] Memory required for data: 137883660
I1014 17:06:52.654234  1250 layer_factory.hpp:77] Creating layer scale3b1_branch2c
I1014 17:06:52.654247  1250 net.cpp:86] Creating Layer scale3b1_branch2c
I1014 17:06:52.654253  1250 net.cpp:408] scale3b1_branch2c <- res3b1_branch2c
I1014 17:06:52.654261  1250 net.cpp:369] scale3b1_branch2c -> res3b1_branch2c (in-place)
I1014 17:06:52.654331  1250 layer_factory.hpp:77] Creating layer scale3b1_branch2c
I1014 17:06:52.654526  1250 net.cpp:124] Setting up scale3b1_branch2c
I1014 17:06:52.654536  1250 net.cpp:131] Top shape: 1 512 28 28 (401408)
I1014 17:06:52.654541  1250 net.cpp:139] Memory required for data: 139489292
I1014 17:06:52.654551  1250 layer_factory.hpp:77] Creating layer res3b1
I1014 17:06:52.654561  1250 net.cpp:86] Creating Layer res3b1
I1014 17:06:52.654567  1250 net.cpp:408] res3b1 <- res3a_res3a_relu_0_split_1
I1014 17:06:52.654573  1250 net.cpp:408] res3b1 <- res3b1_branch2c
I1014 17:06:52.654582  1250 net.cpp:382] res3b1 -> res3b1
I1014 17:06:52.654625  1250 net.cpp:124] Setting up res3b1
I1014 17:06:52.654634  1250 net.cpp:131] Top shape: 1 512 28 28 (401408)
I1014 17:06:52.654639  1250 net.cpp:139] Memory required for data: 141094924
I1014 17:06:52.654644  1250 layer_factory.hpp:77] Creating layer res3b1_relu
I1014 17:06:52.654654  1250 net.cpp:86] Creating Layer res3b1_relu
I1014 17:06:52.654659  1250 net.cpp:408] res3b1_relu <- res3b1
I1014 17:06:52.654670  1250 net.cpp:369] res3b1_relu -> res3b1 (in-place)
I1014 17:06:52.656860  1250 net.cpp:124] Setting up res3b1_relu
I1014 17:06:52.656893  1250 net.cpp:131] Top shape: 1 512 28 28 (401408)
I1014 17:06:52.656900  1250 net.cpp:139] Memory required for data: 142700556
I1014 17:06:52.656908  1250 layer_factory.hpp:77] Creating layer res3b1_res3b1_relu_0_split
I1014 17:06:52.656921  1250 net.cpp:86] Creating Layer res3b1_res3b1_relu_0_split
I1014 17:06:52.656930  1250 net.cpp:408] res3b1_res3b1_relu_0_split <- res3b1
I1014 17:06:52.656944  1250 net.cpp:382] res3b1_res3b1_relu_0_split -> res3b1_res3b1_relu_0_split_0
I1014 17:06:52.656956  1250 net.cpp:382] res3b1_res3b1_relu_0_split -> res3b1_res3b1_relu_0_split_1
I1014 17:06:52.657058  1250 net.cpp:124] Setting up res3b1_res3b1_relu_0_split
I1014 17:06:52.657070  1250 net.cpp:131] Top shape: 1 512 28 28 (401408)
I1014 17:06:52.657078  1250 net.cpp:131] Top shape: 1 512 28 28 (401408)
I1014 17:06:52.657083  1250 net.cpp:139] Memory required for data: 145911820
I1014 17:06:52.657089  1250 layer_factory.hpp:77] Creating layer res3b2_branch2a
I1014 17:06:52.657104  1250 net.cpp:86] Creating Layer res3b2_branch2a
I1014 17:06:52.657110  1250 net.cpp:408] res3b2_branch2a <- res3b1_res3b1_relu_0_split_0
I1014 17:06:52.657127  1250 net.cpp:382] res3b2_branch2a -> res3b2_branch2a
I1014 17:06:52.661928  1250 net.cpp:124] Setting up res3b2_branch2a
I1014 17:06:52.661959  1250 net.cpp:131] Top shape: 1 128 28 28 (100352)
I1014 17:06:52.661967  1250 net.cpp:139] Memory required for data: 146313228
I1014 17:06:52.661978  1250 layer_factory.hpp:77] Creating layer bn3b2_branch2a
I1014 17:06:52.661998  1250 net.cpp:86] Creating Layer bn3b2_branch2a
I1014 17:06:52.662004  1250 net.cpp:408] bn3b2_branch2a <- res3b2_branch2a
I1014 17:06:52.662014  1250 net.cpp:369] bn3b2_branch2a -> res3b2_branch2a (in-place)
I1014 17:06:52.662416  1250 net.cpp:124] Setting up bn3b2_branch2a
I1014 17:06:52.662436  1250 net.cpp:131] Top shape: 1 128 28 28 (100352)
I1014 17:06:52.662442  1250 net.cpp:139] Memory required for data: 146714636
I1014 17:06:52.662456  1250 layer_factory.hpp:77] Creating layer scale3b2_branch2a
I1014 17:06:52.662470  1250 net.cpp:86] Creating Layer scale3b2_branch2a
I1014 17:06:52.662477  1250 net.cpp:408] scale3b2_branch2a <- res3b2_branch2a
I1014 17:06:52.662485  1250 net.cpp:369] scale3b2_branch2a -> res3b2_branch2a (in-place)
I1014 17:06:52.662561  1250 layer_factory.hpp:77] Creating layer scale3b2_branch2a
I1014 17:06:52.662781  1250 net.cpp:124] Setting up scale3b2_branch2a
I1014 17:06:52.662791  1250 net.cpp:131] Top shape: 1 128 28 28 (100352)
I1014 17:06:52.662796  1250 net.cpp:139] Memory required for data: 147116044
I1014 17:06:52.662806  1250 layer_factory.hpp:77] Creating layer res3b2_branch2a_relu
I1014 17:06:52.662819  1250 net.cpp:86] Creating Layer res3b2_branch2a_relu
I1014 17:06:52.662825  1250 net.cpp:408] res3b2_branch2a_relu <- res3b2_branch2a
I1014 17:06:52.662837  1250 net.cpp:369] res3b2_branch2a_relu -> res3b2_branch2a (in-place)
I1014 17:06:52.663214  1250 net.cpp:124] Setting up res3b2_branch2a_relu
I1014 17:06:52.663229  1250 net.cpp:131] Top shape: 1 128 28 28 (100352)
I1014 17:06:52.663235  1250 net.cpp:139] Memory required for data: 147517452
I1014 17:06:52.663241  1250 layer_factory.hpp:77] Creating layer res3b2_branch2b
I1014 17:06:52.663259  1250 net.cpp:86] Creating Layer res3b2_branch2b
I1014 17:06:52.663269  1250 net.cpp:408] res3b2_branch2b <- res3b2_branch2a
I1014 17:06:52.663278  1250 net.cpp:382] res3b2_branch2b -> res3b2_branch2b
I1014 17:06:52.668833  1250 net.cpp:124] Setting up res3b2_branch2b
I1014 17:06:52.668854  1250 net.cpp:131] Top shape: 1 128 28 28 (100352)
I1014 17:06:52.668859  1250 net.cpp:139] Memory required for data: 147918860
I1014 17:06:52.668867  1250 layer_factory.hpp:77] Creating layer bn3b2_branch2b
I1014 17:06:52.668876  1250 net.cpp:86] Creating Layer bn3b2_branch2b
I1014 17:06:52.668881  1250 net.cpp:408] bn3b2_branch2b <- res3b2_branch2b
I1014 17:06:52.668892  1250 net.cpp:369] bn3b2_branch2b -> res3b2_branch2b (in-place)
I1014 17:06:52.669193  1250 net.cpp:124] Setting up bn3b2_branch2b
I1014 17:06:52.669201  1250 net.cpp:131] Top shape: 1 128 28 28 (100352)
I1014 17:06:52.669205  1250 net.cpp:139] Memory required for data: 148320268
I1014 17:06:52.669215  1250 layer_factory.hpp:77] Creating layer scale3b2_branch2b
I1014 17:06:52.669224  1250 net.cpp:86] Creating Layer scale3b2_branch2b
I1014 17:06:52.669227  1250 net.cpp:408] scale3b2_branch2b <- res3b2_branch2b
I1014 17:06:52.669234  1250 net.cpp:369] scale3b2_branch2b -> res3b2_branch2b (in-place)
I1014 17:06:52.669287  1250 layer_factory.hpp:77] Creating layer scale3b2_branch2b
I1014 17:06:52.669445  1250 net.cpp:124] Setting up scale3b2_branch2b
I1014 17:06:52.669452  1250 net.cpp:131] Top shape: 1 128 28 28 (100352)
I1014 17:06:52.669456  1250 net.cpp:139] Memory required for data: 148721676
I1014 17:06:52.669463  1250 layer_factory.hpp:77] Creating layer res3b2_branch2b_relu
I1014 17:06:52.669473  1250 net.cpp:86] Creating Layer res3b2_branch2b_relu
I1014 17:06:52.669477  1250 net.cpp:408] res3b2_branch2b_relu <- res3b2_branch2b
I1014 17:06:52.669486  1250 net.cpp:369] res3b2_branch2b_relu -> res3b2_branch2b (in-place)
I1014 17:06:52.670501  1250 net.cpp:124] Setting up res3b2_branch2b_relu
I1014 17:06:52.670522  1250 net.cpp:131] Top shape: 1 128 28 28 (100352)
I1014 17:06:52.670527  1250 net.cpp:139] Memory required for data: 149123084
I1014 17:06:52.670531  1250 layer_factory.hpp:77] Creating layer res3b2_branch2c
I1014 17:06:52.670542  1250 net.cpp:86] Creating Layer res3b2_branch2c
I1014 17:06:52.670547  1250 net.cpp:408] res3b2_branch2c <- res3b2_branch2b
I1014 17:06:52.670555  1250 net.cpp:382] res3b2_branch2c -> res3b2_branch2c
I1014 17:06:52.672530  1250 net.cpp:124] Setting up res3b2_branch2c
I1014 17:06:52.672549  1250 net.cpp:131] Top shape: 1 512 28 28 (401408)
I1014 17:06:52.672554  1250 net.cpp:139] Memory required for data: 150728716
I1014 17:06:52.672567  1250 layer_factory.hpp:77] Creating layer bn3b2_branch2c
I1014 17:06:52.672580  1250 net.cpp:86] Creating Layer bn3b2_branch2c
I1014 17:06:52.672585  1250 net.cpp:408] bn3b2_branch2c <- res3b2_branch2c
I1014 17:06:52.672591  1250 net.cpp:369] bn3b2_branch2c -> res3b2_branch2c (in-place)
I1014 17:06:52.672880  1250 net.cpp:124] Setting up bn3b2_branch2c
I1014 17:06:52.672888  1250 net.cpp:131] Top shape: 1 512 28 28 (401408)
I1014 17:06:52.672893  1250 net.cpp:139] Memory required for data: 152334348
I1014 17:06:52.672901  1250 layer_factory.hpp:77] Creating layer scale3b2_branch2c
I1014 17:06:52.672910  1250 net.cpp:86] Creating Layer scale3b2_branch2c
I1014 17:06:52.672914  1250 net.cpp:408] scale3b2_branch2c <- res3b2_branch2c
I1014 17:06:52.672922  1250 net.cpp:369] scale3b2_branch2c -> res3b2_branch2c (in-place)
I1014 17:06:52.672976  1250 layer_factory.hpp:77] Creating layer scale3b2_branch2c
I1014 17:06:52.673126  1250 net.cpp:124] Setting up scale3b2_branch2c
I1014 17:06:52.673135  1250 net.cpp:131] Top shape: 1 512 28 28 (401408)
I1014 17:06:52.673138  1250 net.cpp:139] Memory required for data: 153939980
I1014 17:06:52.673147  1250 layer_factory.hpp:77] Creating layer res3b2
I1014 17:06:52.673156  1250 net.cpp:86] Creating Layer res3b2
I1014 17:06:52.673161  1250 net.cpp:408] res3b2 <- res3b1_res3b1_relu_0_split_1
I1014 17:06:52.673166  1250 net.cpp:408] res3b2 <- res3b2_branch2c
I1014 17:06:52.673174  1250 net.cpp:382] res3b2 -> res3b2
I1014 17:06:52.673216  1250 net.cpp:124] Setting up res3b2
I1014 17:06:52.673223  1250 net.cpp:131] Top shape: 1 512 28 28 (401408)
I1014 17:06:52.673228  1250 net.cpp:139] Memory required for data: 155545612
I1014 17:06:52.673231  1250 layer_factory.hpp:77] Creating layer res3b2_relu
I1014 17:06:52.673239  1250 net.cpp:86] Creating Layer res3b2_relu
I1014 17:06:52.673243  1250 net.cpp:408] res3b2_relu <- res3b2
I1014 17:06:52.673251  1250 net.cpp:369] res3b2_relu -> res3b2 (in-place)
I1014 17:06:52.674279  1250 net.cpp:124] Setting up res3b2_relu
I1014 17:06:52.674293  1250 net.cpp:131] Top shape: 1 512 28 28 (401408)
I1014 17:06:52.674298  1250 net.cpp:139] Memory required for data: 157151244
I1014 17:06:52.674302  1250 layer_factory.hpp:77] Creating layer res3b2_res3b2_relu_0_split
I1014 17:06:52.674310  1250 net.cpp:86] Creating Layer res3b2_res3b2_relu_0_split
I1014 17:06:52.674314  1250 net.cpp:408] res3b2_res3b2_relu_0_split <- res3b2
I1014 17:06:52.674324  1250 net.cpp:382] res3b2_res3b2_relu_0_split -> res3b2_res3b2_relu_0_split_0
I1014 17:06:52.674334  1250 net.cpp:382] res3b2_res3b2_relu_0_split -> res3b2_res3b2_relu_0_split_1
I1014 17:06:52.674394  1250 net.cpp:124] Setting up res3b2_res3b2_relu_0_split
I1014 17:06:52.674401  1250 net.cpp:131] Top shape: 1 512 28 28 (401408)
I1014 17:06:52.674407  1250 net.cpp:131] Top shape: 1 512 28 28 (401408)
I1014 17:06:52.674410  1250 net.cpp:139] Memory required for data: 160362508
I1014 17:06:52.674414  1250 layer_factory.hpp:77] Creating layer res3b3_branch2a
I1014 17:06:52.674425  1250 net.cpp:86] Creating Layer res3b3_branch2a
I1014 17:06:52.674432  1250 net.cpp:408] res3b3_branch2a <- res3b2_res3b2_relu_0_split_0
I1014 17:06:52.674438  1250 net.cpp:382] res3b3_branch2a -> res3b3_branch2a
I1014 17:06:52.677908  1250 net.cpp:124] Setting up res3b3_branch2a
I1014 17:06:52.677927  1250 net.cpp:131] Top shape: 1 128 28 28 (100352)
I1014 17:06:52.677932  1250 net.cpp:139] Memory required for data: 160763916
I1014 17:06:52.677942  1250 layer_factory.hpp:77] Creating layer bn3b3_branch2a
I1014 17:06:52.677953  1250 net.cpp:86] Creating Layer bn3b3_branch2a
I1014 17:06:52.677958  1250 net.cpp:408] bn3b3_branch2a <- res3b3_branch2a
I1014 17:06:52.677964  1250 net.cpp:369] bn3b3_branch2a -> res3b3_branch2a (in-place)
I1014 17:06:52.678258  1250 net.cpp:124] Setting up bn3b3_branch2a
I1014 17:06:52.678266  1250 net.cpp:131] Top shape: 1 128 28 28 (100352)
I1014 17:06:52.678269  1250 net.cpp:139] Memory required for data: 161165324
I1014 17:06:52.678290  1250 layer_factory.hpp:77] Creating layer scale3b3_branch2a
I1014 17:06:52.678305  1250 net.cpp:86] Creating Layer scale3b3_branch2a
I1014 17:06:52.678313  1250 net.cpp:408] scale3b3_branch2a <- res3b3_branch2a
I1014 17:06:52.678319  1250 net.cpp:369] scale3b3_branch2a -> res3b3_branch2a (in-place)
I1014 17:06:52.678377  1250 layer_factory.hpp:77] Creating layer scale3b3_branch2a
I1014 17:06:52.678536  1250 net.cpp:124] Setting up scale3b3_branch2a
I1014 17:06:52.678544  1250 net.cpp:131] Top shape: 1 128 28 28 (100352)
I1014 17:06:52.678548  1250 net.cpp:139] Memory required for data: 161566732
I1014 17:06:52.678555  1250 layer_factory.hpp:77] Creating layer res3b3_branch2a_relu
I1014 17:06:52.678562  1250 net.cpp:86] Creating Layer res3b3_branch2a_relu
I1014 17:06:52.678567  1250 net.cpp:408] res3b3_branch2a_relu <- res3b3_branch2a
I1014 17:06:52.678572  1250 net.cpp:369] res3b3_branch2a_relu -> res3b3_branch2a (in-place)
I1014 17:06:52.678848  1250 net.cpp:124] Setting up res3b3_branch2a_relu
I1014 17:06:52.678858  1250 net.cpp:131] Top shape: 1 128 28 28 (100352)
I1014 17:06:52.678863  1250 net.cpp:139] Memory required for data: 161968140
I1014 17:06:52.678867  1250 layer_factory.hpp:77] Creating layer res3b3_branch2b
I1014 17:06:52.678880  1250 net.cpp:86] Creating Layer res3b3_branch2b
I1014 17:06:52.678885  1250 net.cpp:408] res3b3_branch2b <- res3b3_branch2a
I1014 17:06:52.678894  1250 net.cpp:382] res3b3_branch2b -> res3b3_branch2b
I1014 17:06:52.684078  1250 net.cpp:124] Setting up res3b3_branch2b
I1014 17:06:52.684096  1250 net.cpp:131] Top shape: 1 128 28 28 (100352)
I1014 17:06:52.684101  1250 net.cpp:139] Memory required for data: 162369548
I1014 17:06:52.684108  1250 layer_factory.hpp:77] Creating layer bn3b3_branch2b
I1014 17:06:52.684119  1250 net.cpp:86] Creating Layer bn3b3_branch2b
I1014 17:06:52.684124  1250 net.cpp:408] bn3b3_branch2b <- res3b3_branch2b
I1014 17:06:52.684131  1250 net.cpp:369] bn3b3_branch2b -> res3b3_branch2b (in-place)
I1014 17:06:52.684420  1250 net.cpp:124] Setting up bn3b3_branch2b
I1014 17:06:52.684428  1250 net.cpp:131] Top shape: 1 128 28 28 (100352)
I1014 17:06:52.684432  1250 net.cpp:139] Memory required for data: 162770956
I1014 17:06:52.684442  1250 layer_factory.hpp:77] Creating layer scale3b3_branch2b
I1014 17:06:52.684449  1250 net.cpp:86] Creating Layer scale3b3_branch2b
I1014 17:06:52.684453  1250 net.cpp:408] scale3b3_branch2b <- res3b3_branch2b
I1014 17:06:52.684461  1250 net.cpp:369] scale3b3_branch2b -> res3b3_branch2b (in-place)
I1014 17:06:52.684512  1250 layer_factory.hpp:77] Creating layer scale3b3_branch2b
I1014 17:06:52.684665  1250 net.cpp:124] Setting up scale3b3_branch2b
I1014 17:06:52.684674  1250 net.cpp:131] Top shape: 1 128 28 28 (100352)
I1014 17:06:52.684679  1250 net.cpp:139] Memory required for data: 163172364
I1014 17:06:52.684684  1250 layer_factory.hpp:77] Creating layer res3b3_branch2b_relu
I1014 17:06:52.684703  1250 net.cpp:86] Creating Layer res3b3_branch2b_relu
I1014 17:06:52.684708  1250 net.cpp:408] res3b3_branch2b_relu <- res3b3_branch2b
I1014 17:06:52.684715  1250 net.cpp:369] res3b3_branch2b_relu -> res3b3_branch2b (in-place)
I1014 17:06:52.685705  1250 net.cpp:124] Setting up res3b3_branch2b_relu
I1014 17:06:52.685719  1250 net.cpp:131] Top shape: 1 128 28 28 (100352)
I1014 17:06:52.685724  1250 net.cpp:139] Memory required for data: 163573772
I1014 17:06:52.685734  1250 layer_factory.hpp:77] Creating layer res3b3_branch2c
I1014 17:06:52.685746  1250 net.cpp:86] Creating Layer res3b3_branch2c
I1014 17:06:52.685751  1250 net.cpp:408] res3b3_branch2c <- res3b3_branch2b
I1014 17:06:52.685760  1250 net.cpp:382] res3b3_branch2c -> res3b3_branch2c
I1014 17:06:52.687638  1250 net.cpp:124] Setting up res3b3_branch2c
I1014 17:06:52.687656  1250 net.cpp:131] Top shape: 1 512 28 28 (401408)
I1014 17:06:52.687661  1250 net.cpp:139] Memory required for data: 165179404
I1014 17:06:52.687669  1250 layer_factory.hpp:77] Creating layer bn3b3_branch2c
I1014 17:06:52.687680  1250 net.cpp:86] Creating Layer bn3b3_branch2c
I1014 17:06:52.687685  1250 net.cpp:408] bn3b3_branch2c <- res3b3_branch2c
I1014 17:06:52.687690  1250 net.cpp:369] bn3b3_branch2c -> res3b3_branch2c (in-place)
I1014 17:06:52.687984  1250 net.cpp:124] Setting up bn3b3_branch2c
I1014 17:06:52.687994  1250 net.cpp:131] Top shape: 1 512 28 28 (401408)
I1014 17:06:52.687996  1250 net.cpp:139] Memory required for data: 166785036
I1014 17:06:52.688005  1250 layer_factory.hpp:77] Creating layer scale3b3_branch2c
I1014 17:06:52.688024  1250 net.cpp:86] Creating Layer scale3b3_branch2c
I1014 17:06:52.688030  1250 net.cpp:408] scale3b3_branch2c <- res3b3_branch2c
I1014 17:06:52.688035  1250 net.cpp:369] scale3b3_branch2c -> res3b3_branch2c (in-place)
I1014 17:06:52.688098  1250 layer_factory.hpp:77] Creating layer scale3b3_branch2c
I1014 17:06:52.688256  1250 net.cpp:124] Setting up scale3b3_branch2c
I1014 17:06:52.688263  1250 net.cpp:131] Top shape: 1 512 28 28 (401408)
I1014 17:06:52.688266  1250 net.cpp:139] Memory required for data: 168390668
I1014 17:06:52.688273  1250 layer_factory.hpp:77] Creating layer res3b3
I1014 17:06:52.688282  1250 net.cpp:86] Creating Layer res3b3
I1014 17:06:52.688287  1250 net.cpp:408] res3b3 <- res3b2_res3b2_relu_0_split_1
I1014 17:06:52.688292  1250 net.cpp:408] res3b3 <- res3b3_branch2c
I1014 17:06:52.688297  1250 net.cpp:382] res3b3 -> res3b3
I1014 17:06:52.688331  1250 net.cpp:124] Setting up res3b3
I1014 17:06:52.688338  1250 net.cpp:131] Top shape: 1 512 28 28 (401408)
I1014 17:06:52.688341  1250 net.cpp:139] Memory required for data: 169996300
I1014 17:06:52.688351  1250 layer_factory.hpp:77] Creating layer res3b3_relu
I1014 17:06:52.688356  1250 net.cpp:86] Creating Layer res3b3_relu
I1014 17:06:52.688361  1250 net.cpp:408] res3b3_relu <- res3b3
I1014 17:06:52.688367  1250 net.cpp:369] res3b3_relu -> res3b3 (in-place)
I1014 17:06:52.689379  1250 net.cpp:124] Setting up res3b3_relu
I1014 17:06:52.689393  1250 net.cpp:131] Top shape: 1 512 28 28 (401408)
I1014 17:06:52.689396  1250 net.cpp:139] Memory required for data: 171601932
I1014 17:06:52.689401  1250 layer_factory.hpp:77] Creating layer res3b3_res3b3_relu_0_split
I1014 17:06:52.689409  1250 net.cpp:86] Creating Layer res3b3_res3b3_relu_0_split
I1014 17:06:52.689412  1250 net.cpp:408] res3b3_res3b3_relu_0_split <- res3b3
I1014 17:06:52.689421  1250 net.cpp:382] res3b3_res3b3_relu_0_split -> res3b3_res3b3_relu_0_split_0
I1014 17:06:52.689429  1250 net.cpp:382] res3b3_res3b3_relu_0_split -> res3b3_res3b3_relu_0_split_1
I1014 17:06:52.689491  1250 net.cpp:124] Setting up res3b3_res3b3_relu_0_split
I1014 17:06:52.689499  1250 net.cpp:131] Top shape: 1 512 28 28 (401408)
I1014 17:06:52.689504  1250 net.cpp:131] Top shape: 1 512 28 28 (401408)
I1014 17:06:52.689507  1250 net.cpp:139] Memory required for data: 174813196
I1014 17:06:52.689512  1250 layer_factory.hpp:77] Creating layer res4a_branch1
I1014 17:06:52.689527  1250 net.cpp:86] Creating Layer res4a_branch1
I1014 17:06:52.689530  1250 net.cpp:408] res4a_branch1 <- res3b3_res3b3_relu_0_split_0
I1014 17:06:52.689538  1250 net.cpp:382] res4a_branch1 -> res4a_branch1
I1014 17:06:52.694496  1250 net.cpp:124] Setting up res4a_branch1
I1014 17:06:52.694519  1250 net.cpp:131] Top shape: 1 1024 14 14 (200704)
I1014 17:06:52.694525  1250 net.cpp:139] Memory required for data: 175616012
I1014 17:06:52.694531  1250 layer_factory.hpp:77] Creating layer bn4a_branch1
I1014 17:06:52.694547  1250 net.cpp:86] Creating Layer bn4a_branch1
I1014 17:06:52.694552  1250 net.cpp:408] bn4a_branch1 <- res4a_branch1
I1014 17:06:52.694561  1250 net.cpp:369] bn4a_branch1 -> res4a_branch1 (in-place)
I1014 17:06:52.694897  1250 net.cpp:124] Setting up bn4a_branch1
I1014 17:06:52.694906  1250 net.cpp:131] Top shape: 1 1024 14 14 (200704)
I1014 17:06:52.694910  1250 net.cpp:139] Memory required for data: 176418828
I1014 17:06:52.694919  1250 layer_factory.hpp:77] Creating layer scale4a_branch1
I1014 17:06:52.694927  1250 net.cpp:86] Creating Layer scale4a_branch1
I1014 17:06:52.694931  1250 net.cpp:408] scale4a_branch1 <- res4a_branch1
I1014 17:06:52.694938  1250 net.cpp:369] scale4a_branch1 -> res4a_branch1 (in-place)
I1014 17:06:52.694988  1250 layer_factory.hpp:77] Creating layer scale4a_branch1
I1014 17:06:52.695153  1250 net.cpp:124] Setting up scale4a_branch1
I1014 17:06:52.695161  1250 net.cpp:131] Top shape: 1 1024 14 14 (200704)
I1014 17:06:52.695165  1250 net.cpp:139] Memory required for data: 177221644
I1014 17:06:52.695171  1250 layer_factory.hpp:77] Creating layer res4a_branch2a
I1014 17:06:52.695183  1250 net.cpp:86] Creating Layer res4a_branch2a
I1014 17:06:52.695188  1250 net.cpp:408] res4a_branch2a <- res3b3_res3b3_relu_0_split_1
I1014 17:06:52.695195  1250 net.cpp:382] res4a_branch2a -> res4a_branch2a
I1014 17:06:52.697993  1250 net.cpp:124] Setting up res4a_branch2a
I1014 17:06:52.698014  1250 net.cpp:131] Top shape: 1 256 14 14 (50176)
I1014 17:06:52.698019  1250 net.cpp:139] Memory required for data: 177422348
I1014 17:06:52.698025  1250 layer_factory.hpp:77] Creating layer bn4a_branch2a
I1014 17:06:52.698032  1250 net.cpp:86] Creating Layer bn4a_branch2a
I1014 17:06:52.698037  1250 net.cpp:408] bn4a_branch2a <- res4a_branch2a
I1014 17:06:52.698045  1250 net.cpp:369] bn4a_branch2a -> res4a_branch2a (in-place)
I1014 17:06:52.698318  1250 net.cpp:124] Setting up bn4a_branch2a
I1014 17:06:52.698326  1250 net.cpp:131] Top shape: 1 256 14 14 (50176)
I1014 17:06:52.698329  1250 net.cpp:139] Memory required for data: 177623052
I1014 17:06:52.698345  1250 layer_factory.hpp:77] Creating layer scale4a_branch2a
I1014 17:06:52.698355  1250 net.cpp:86] Creating Layer scale4a_branch2a
I1014 17:06:52.698359  1250 net.cpp:408] scale4a_branch2a <- res4a_branch2a
I1014 17:06:52.698370  1250 net.cpp:369] scale4a_branch2a -> res4a_branch2a (in-place)
I1014 17:06:52.698431  1250 layer_factory.hpp:77] Creating layer scale4a_branch2a
I1014 17:06:52.698587  1250 net.cpp:124] Setting up scale4a_branch2a
I1014 17:06:52.698595  1250 net.cpp:131] Top shape: 1 256 14 14 (50176)
I1014 17:06:52.698597  1250 net.cpp:139] Memory required for data: 177823756
I1014 17:06:52.698604  1250 layer_factory.hpp:77] Creating layer res4a_branch2a_relu
I1014 17:06:52.698611  1250 net.cpp:86] Creating Layer res4a_branch2a_relu
I1014 17:06:52.698614  1250 net.cpp:408] res4a_branch2a_relu <- res4a_branch2a
I1014 17:06:52.698622  1250 net.cpp:369] res4a_branch2a_relu -> res4a_branch2a (in-place)
I1014 17:06:52.699581  1250 net.cpp:124] Setting up res4a_branch2a_relu
I1014 17:06:52.699599  1250 net.cpp:131] Top shape: 1 256 14 14 (50176)
I1014 17:06:52.699602  1250 net.cpp:139] Memory required for data: 178024460
I1014 17:06:52.699606  1250 layer_factory.hpp:77] Creating layer res4a_branch2b
I1014 17:06:52.699626  1250 net.cpp:86] Creating Layer res4a_branch2b
I1014 17:06:52.699631  1250 net.cpp:408] res4a_branch2b <- res4a_branch2a
I1014 17:06:52.699640  1250 net.cpp:382] res4a_branch2b -> res4a_branch2b
I1014 17:06:52.704902  1250 net.cpp:124] Setting up res4a_branch2b
I1014 17:06:52.704921  1250 net.cpp:131] Top shape: 1 256 14 14 (50176)
I1014 17:06:52.704926  1250 net.cpp:139] Memory required for data: 178225164
I1014 17:06:52.704931  1250 layer_factory.hpp:77] Creating layer bn4a_branch2b
I1014 17:06:52.704943  1250 net.cpp:86] Creating Layer bn4a_branch2b
I1014 17:06:52.704948  1250 net.cpp:408] bn4a_branch2b <- res4a_branch2b
I1014 17:06:52.704954  1250 net.cpp:369] bn4a_branch2b -> res4a_branch2b (in-place)
I1014 17:06:52.705234  1250 net.cpp:124] Setting up bn4a_branch2b
I1014 17:06:52.705240  1250 net.cpp:131] Top shape: 1 256 14 14 (50176)
I1014 17:06:52.705245  1250 net.cpp:139] Memory required for data: 178425868
I1014 17:06:52.705253  1250 layer_factory.hpp:77] Creating layer scale4a_branch2b
I1014 17:06:52.705263  1250 net.cpp:86] Creating Layer scale4a_branch2b
I1014 17:06:52.705268  1250 net.cpp:408] scale4a_branch2b <- res4a_branch2b
I1014 17:06:52.705273  1250 net.cpp:369] scale4a_branch2b -> res4a_branch2b (in-place)
I1014 17:06:52.705327  1250 layer_factory.hpp:77] Creating layer scale4a_branch2b
I1014 17:06:52.705474  1250 net.cpp:124] Setting up scale4a_branch2b
I1014 17:06:52.705482  1250 net.cpp:131] Top shape: 1 256 14 14 (50176)
I1014 17:06:52.705484  1250 net.cpp:139] Memory required for data: 178626572
I1014 17:06:52.705497  1250 layer_factory.hpp:77] Creating layer res4a_branch2b_relu
I1014 17:06:52.705503  1250 net.cpp:86] Creating Layer res4a_branch2b_relu
I1014 17:06:52.705507  1250 net.cpp:408] res4a_branch2b_relu <- res4a_branch2b
I1014 17:06:52.705514  1250 net.cpp:369] res4a_branch2b_relu -> res4a_branch2b (in-place)
I1014 17:06:52.705760  1250 net.cpp:124] Setting up res4a_branch2b_relu
I1014 17:06:52.705770  1250 net.cpp:131] Top shape: 1 256 14 14 (50176)
I1014 17:06:52.705773  1250 net.cpp:139] Memory required for data: 178827276
I1014 17:06:52.705777  1250 layer_factory.hpp:77] Creating layer res4a_branch2c
I1014 17:06:52.705790  1250 net.cpp:86] Creating Layer res4a_branch2c
I1014 17:06:52.705795  1250 net.cpp:408] res4a_branch2c <- res4a_branch2b
I1014 17:06:52.705803  1250 net.cpp:382] res4a_branch2c -> res4a_branch2c
I1014 17:06:52.709121  1250 net.cpp:124] Setting up res4a_branch2c
I1014 17:06:52.709138  1250 net.cpp:131] Top shape: 1 1024 14 14 (200704)
I1014 17:06:52.709143  1250 net.cpp:139] Memory required for data: 179630092
I1014 17:06:52.709149  1250 layer_factory.hpp:77] Creating layer bn4a_branch2c
I1014 17:06:52.709159  1250 net.cpp:86] Creating Layer bn4a_branch2c
I1014 17:06:52.709163  1250 net.cpp:408] bn4a_branch2c <- res4a_branch2c
I1014 17:06:52.709169  1250 net.cpp:369] bn4a_branch2c -> res4a_branch2c (in-place)
I1014 17:06:52.709434  1250 net.cpp:124] Setting up bn4a_branch2c
I1014 17:06:52.709441  1250 net.cpp:131] Top shape: 1 1024 14 14 (200704)
I1014 17:06:52.709444  1250 net.cpp:139] Memory required for data: 180432908
I1014 17:06:52.709455  1250 layer_factory.hpp:77] Creating layer scale4a_branch2c
I1014 17:06:52.709462  1250 net.cpp:86] Creating Layer scale4a_branch2c
I1014 17:06:52.709466  1250 net.cpp:408] scale4a_branch2c <- res4a_branch2c
I1014 17:06:52.709481  1250 net.cpp:369] scale4a_branch2c -> res4a_branch2c (in-place)
I1014 17:06:52.709527  1250 layer_factory.hpp:77] Creating layer scale4a_branch2c
I1014 17:06:52.709677  1250 net.cpp:124] Setting up scale4a_branch2c
I1014 17:06:52.709686  1250 net.cpp:131] Top shape: 1 1024 14 14 (200704)
I1014 17:06:52.709689  1250 net.cpp:139] Memory required for data: 181235724
I1014 17:06:52.709695  1250 layer_factory.hpp:77] Creating layer res4a
I1014 17:06:52.709702  1250 net.cpp:86] Creating Layer res4a
I1014 17:06:52.709707  1250 net.cpp:408] res4a <- res4a_branch1
I1014 17:06:52.709712  1250 net.cpp:408] res4a <- res4a_branch2c
I1014 17:06:52.709717  1250 net.cpp:382] res4a -> res4a
I1014 17:06:52.709748  1250 net.cpp:124] Setting up res4a
I1014 17:06:52.709754  1250 net.cpp:131] Top shape: 1 1024 14 14 (200704)
I1014 17:06:52.709758  1250 net.cpp:139] Memory required for data: 182038540
I1014 17:06:52.709761  1250 layer_factory.hpp:77] Creating layer res4a_relu
I1014 17:06:52.709767  1250 net.cpp:86] Creating Layer res4a_relu
I1014 17:06:52.709772  1250 net.cpp:408] res4a_relu <- res4a
I1014 17:06:52.709776  1250 net.cpp:369] res4a_relu -> res4a (in-place)
I1014 17:06:52.710686  1250 net.cpp:124] Setting up res4a_relu
I1014 17:06:52.710698  1250 net.cpp:131] Top shape: 1 1024 14 14 (200704)
I1014 17:06:52.710702  1250 net.cpp:139] Memory required for data: 182841356
I1014 17:06:52.710706  1250 layer_factory.hpp:77] Creating layer res4a_res4a_relu_0_split
I1014 17:06:52.710713  1250 net.cpp:86] Creating Layer res4a_res4a_relu_0_split
I1014 17:06:52.710717  1250 net.cpp:408] res4a_res4a_relu_0_split <- res4a
I1014 17:06:52.710727  1250 net.cpp:382] res4a_res4a_relu_0_split -> res4a_res4a_relu_0_split_0
I1014 17:06:52.710736  1250 net.cpp:382] res4a_res4a_relu_0_split -> res4a_res4a_relu_0_split_1
I1014 17:06:52.710791  1250 net.cpp:124] Setting up res4a_res4a_relu_0_split
I1014 17:06:52.710798  1250 net.cpp:131] Top shape: 1 1024 14 14 (200704)
I1014 17:06:52.710803  1250 net.cpp:131] Top shape: 1 1024 14 14 (200704)
I1014 17:06:52.710805  1250 net.cpp:139] Memory required for data: 184446988
I1014 17:06:52.710810  1250 layer_factory.hpp:77] Creating layer res4b1_branch2a
I1014 17:06:52.710827  1250 net.cpp:86] Creating Layer res4b1_branch2a
I1014 17:06:52.710837  1250 net.cpp:408] res4b1_branch2a <- res4a_res4a_relu_0_split_0
I1014 17:06:52.710844  1250 net.cpp:382] res4b1_branch2a -> res4b1_branch2a
I1014 17:06:52.713395  1250 net.cpp:124] Setting up res4b1_branch2a
I1014 17:06:52.713415  1250 net.cpp:131] Top shape: 1 256 14 14 (50176)
I1014 17:06:52.713419  1250 net.cpp:139] Memory required for data: 184647692
I1014 17:06:52.713428  1250 layer_factory.hpp:77] Creating layer bn4b1_branch2a
I1014 17:06:52.713435  1250 net.cpp:86] Creating Layer bn4b1_branch2a
I1014 17:06:52.713439  1250 net.cpp:408] bn4b1_branch2a <- res4b1_branch2a
I1014 17:06:52.713448  1250 net.cpp:369] bn4b1_branch2a -> res4b1_branch2a (in-place)
I1014 17:06:52.713709  1250 net.cpp:124] Setting up bn4b1_branch2a
I1014 17:06:52.713716  1250 net.cpp:131] Top shape: 1 256 14 14 (50176)
I1014 17:06:52.713719  1250 net.cpp:139] Memory required for data: 184848396
I1014 17:06:52.713728  1250 layer_factory.hpp:77] Creating layer scale4b1_branch2a
I1014 17:06:52.713737  1250 net.cpp:86] Creating Layer scale4b1_branch2a
I1014 17:06:52.713742  1250 net.cpp:408] scale4b1_branch2a <- res4b1_branch2a
I1014 17:06:52.713747  1250 net.cpp:369] scale4b1_branch2a -> res4b1_branch2a (in-place)
I1014 17:06:52.713796  1250 layer_factory.hpp:77] Creating layer scale4b1_branch2a
I1014 17:06:52.713940  1250 net.cpp:124] Setting up scale4b1_branch2a
I1014 17:06:52.713948  1250 net.cpp:131] Top shape: 1 256 14 14 (50176)
I1014 17:06:52.713950  1250 net.cpp:139] Memory required for data: 185049100
I1014 17:06:52.713956  1250 layer_factory.hpp:77] Creating layer res4b1_branch2a_relu
I1014 17:06:52.713964  1250 net.cpp:86] Creating Layer res4b1_branch2a_relu
I1014 17:06:52.713968  1250 net.cpp:408] res4b1_branch2a_relu <- res4b1_branch2a
I1014 17:06:52.713974  1250 net.cpp:369] res4b1_branch2a_relu -> res4b1_branch2a (in-place)
I1014 17:06:52.714897  1250 net.cpp:124] Setting up res4b1_branch2a_relu
I1014 17:06:52.714910  1250 net.cpp:131] Top shape: 1 256 14 14 (50176)
I1014 17:06:52.714915  1250 net.cpp:139] Memory required for data: 185249804
I1014 17:06:52.714918  1250 layer_factory.hpp:77] Creating layer res4b1_branch2b
I1014 17:06:52.714928  1250 net.cpp:86] Creating Layer res4b1_branch2b
I1014 17:06:52.714933  1250 net.cpp:408] res4b1_branch2b <- res4b1_branch2a
I1014 17:06:52.714939  1250 net.cpp:382] res4b1_branch2b -> res4b1_branch2b
I1014 17:06:52.721552  1250 net.cpp:124] Setting up res4b1_branch2b
I1014 17:06:52.721590  1250 net.cpp:131] Top shape: 1 256 14 14 (50176)
I1014 17:06:52.721598  1250 net.cpp:139] Memory required for data: 185450508
I1014 17:06:52.721614  1250 layer_factory.hpp:77] Creating layer bn4b1_branch2b
I1014 17:06:52.721633  1250 net.cpp:86] Creating Layer bn4b1_branch2b
I1014 17:06:52.721642  1250 net.cpp:408] bn4b1_branch2b <- res4b1_branch2b
I1014 17:06:52.721653  1250 net.cpp:369] bn4b1_branch2b -> res4b1_branch2b (in-place)
I1014 17:06:52.722175  1250 net.cpp:124] Setting up bn4b1_branch2b
I1014 17:06:52.722188  1250 net.cpp:131] Top shape: 1 256 14 14 (50176)
I1014 17:06:52.722195  1250 net.cpp:139] Memory required for data: 185651212
I1014 17:06:52.722210  1250 layer_factory.hpp:77] Creating layer scale4b1_branch2b
I1014 17:06:52.722226  1250 net.cpp:86] Creating Layer scale4b1_branch2b
I1014 17:06:52.722234  1250 net.cpp:408] scale4b1_branch2b <- res4b1_branch2b
I1014 17:06:52.722244  1250 net.cpp:369] scale4b1_branch2b -> res4b1_branch2b (in-place)
I1014 17:06:52.722337  1250 layer_factory.hpp:77] Creating layer scale4b1_branch2b
I1014 17:06:52.722607  1250 net.cpp:124] Setting up scale4b1_branch2b
I1014 17:06:52.722620  1250 net.cpp:131] Top shape: 1 256 14 14 (50176)
I1014 17:06:52.722625  1250 net.cpp:139] Memory required for data: 185851916
I1014 17:06:52.722640  1250 layer_factory.hpp:77] Creating layer res4b1_branch2b_relu
I1014 17:06:52.722651  1250 net.cpp:86] Creating Layer res4b1_branch2b_relu
I1014 17:06:52.722656  1250 net.cpp:408] res4b1_branch2b_relu <- res4b1_branch2b
I1014 17:06:52.722668  1250 net.cpp:369] res4b1_branch2b_relu -> res4b1_branch2b (in-place)
I1014 17:06:52.723193  1250 net.cpp:124] Setting up res4b1_branch2b_relu
I1014 17:06:52.723212  1250 net.cpp:131] Top shape: 1 256 14 14 (50176)
I1014 17:06:52.723219  1250 net.cpp:139] Memory required for data: 186052620
I1014 17:06:52.723227  1250 layer_factory.hpp:77] Creating layer res4b1_branch2c
I1014 17:06:52.723246  1250 net.cpp:86] Creating Layer res4b1_branch2c
I1014 17:06:52.723254  1250 net.cpp:408] res4b1_branch2c <- res4b1_branch2b
I1014 17:06:52.723268  1250 net.cpp:382] res4b1_branch2c -> res4b1_branch2c
I1014 17:06:52.731470  1250 net.cpp:124] Setting up res4b1_branch2c
I1014 17:06:52.731513  1250 net.cpp:131] Top shape: 1 1024 14 14 (200704)
I1014 17:06:52.731521  1250 net.cpp:139] Memory required for data: 186855436
I1014 17:06:52.731535  1250 layer_factory.hpp:77] Creating layer bn4b1_branch2c
I1014 17:06:52.731555  1250 net.cpp:86] Creating Layer bn4b1_branch2c
I1014 17:06:52.731587  1250 net.cpp:408] bn4b1_branch2c <- res4b1_branch2c
I1014 17:06:52.731602  1250 net.cpp:369] bn4b1_branch2c -> res4b1_branch2c (in-place)
I1014 17:06:52.732098  1250 net.cpp:124] Setting up bn4b1_branch2c
I1014 17:06:52.732111  1250 net.cpp:131] Top shape: 1 1024 14 14 (200704)
I1014 17:06:52.732117  1250 net.cpp:139] Memory required for data: 187658252
I1014 17:06:52.732131  1250 layer_factory.hpp:77] Creating layer scale4b1_branch2c
I1014 17:06:52.732146  1250 net.cpp:86] Creating Layer scale4b1_branch2c
I1014 17:06:52.732153  1250 net.cpp:408] scale4b1_branch2c <- res4b1_branch2c
I1014 17:06:52.732162  1250 net.cpp:369] scale4b1_branch2c -> res4b1_branch2c (in-place)
I1014 17:06:52.732246  1250 layer_factory.hpp:77] Creating layer scale4b1_branch2c
I1014 17:06:52.732517  1250 net.cpp:124] Setting up scale4b1_branch2c
I1014 17:06:52.732527  1250 net.cpp:131] Top shape: 1 1024 14 14 (200704)
I1014 17:06:52.732533  1250 net.cpp:139] Memory required for data: 188461068
I1014 17:06:52.732547  1250 layer_factory.hpp:77] Creating layer res4b1
I1014 17:06:52.732558  1250 net.cpp:86] Creating Layer res4b1
I1014 17:06:52.732564  1250 net.cpp:408] res4b1 <- res4a_res4a_relu_0_split_1
I1014 17:06:52.732573  1250 net.cpp:408] res4b1 <- res4b1_branch2c
I1014 17:06:52.732584  1250 net.cpp:382] res4b1 -> res4b1
I1014 17:06:52.732640  1250 net.cpp:124] Setting up res4b1
I1014 17:06:52.732650  1250 net.cpp:131] Top shape: 1 1024 14 14 (200704)
I1014 17:06:52.732656  1250 net.cpp:139] Memory required for data: 189263884
I1014 17:06:52.732661  1250 layer_factory.hpp:77] Creating layer res4b1_relu
I1014 17:06:52.732671  1250 net.cpp:86] Creating Layer res4b1_relu
I1014 17:06:52.732677  1250 net.cpp:408] res4b1_relu <- res4b1
I1014 17:06:52.732686  1250 net.cpp:369] res4b1_relu -> res4b1 (in-place)
I1014 17:06:52.734189  1250 net.cpp:124] Setting up res4b1_relu
I1014 17:06:52.734208  1250 net.cpp:131] Top shape: 1 1024 14 14 (200704)
I1014 17:06:52.734215  1250 net.cpp:139] Memory required for data: 190066700
I1014 17:06:52.734222  1250 layer_factory.hpp:77] Creating layer res4b1_res4b1_relu_0_split
I1014 17:06:52.734241  1250 net.cpp:86] Creating Layer res4b1_res4b1_relu_0_split
I1014 17:06:52.734248  1250 net.cpp:408] res4b1_res4b1_relu_0_split <- res4b1
I1014 17:06:52.734261  1250 net.cpp:382] res4b1_res4b1_relu_0_split -> res4b1_res4b1_relu_0_split_0
I1014 17:06:52.734274  1250 net.cpp:382] res4b1_res4b1_relu_0_split -> res4b1_res4b1_relu_0_split_1
I1014 17:06:52.734371  1250 net.cpp:124] Setting up res4b1_res4b1_relu_0_split
I1014 17:06:52.734382  1250 net.cpp:131] Top shape: 1 1024 14 14 (200704)
I1014 17:06:52.734390  1250 net.cpp:131] Top shape: 1 1024 14 14 (200704)
I1014 17:06:52.734396  1250 net.cpp:139] Memory required for data: 191672332
I1014 17:06:52.734402  1250 layer_factory.hpp:77] Creating layer res4b2_branch2a
I1014 17:06:52.734421  1250 net.cpp:86] Creating Layer res4b2_branch2a
I1014 17:06:52.734428  1250 net.cpp:408] res4b2_branch2a <- res4b1_res4b1_relu_0_split_0
I1014 17:06:52.734441  1250 net.cpp:382] res4b2_branch2a -> res4b2_branch2a
I1014 17:06:52.738509  1250 net.cpp:124] Setting up res4b2_branch2a
I1014 17:06:52.738548  1250 net.cpp:131] Top shape: 1 256 14 14 (50176)
I1014 17:06:52.738555  1250 net.cpp:139] Memory required for data: 191873036
I1014 17:06:52.738566  1250 layer_factory.hpp:77] Creating layer bn4b2_branch2a
I1014 17:06:52.738584  1250 net.cpp:86] Creating Layer bn4b2_branch2a
I1014 17:06:52.738591  1250 net.cpp:408] bn4b2_branch2a <- res4b2_branch2a
I1014 17:06:52.738602  1250 net.cpp:369] bn4b2_branch2a -> res4b2_branch2a (in-place)
I1014 17:06:52.739070  1250 net.cpp:124] Setting up bn4b2_branch2a
I1014 17:06:52.739081  1250 net.cpp:131] Top shape: 1 256 14 14 (50176)
I1014 17:06:52.739087  1250 net.cpp:139] Memory required for data: 192073740
I1014 17:06:52.739101  1250 layer_factory.hpp:77] Creating layer scale4b2_branch2a
I1014 17:06:52.739116  1250 net.cpp:86] Creating Layer scale4b2_branch2a
I1014 17:06:52.739122  1250 net.cpp:408] scale4b2_branch2a <- res4b2_branch2a
I1014 17:06:52.739131  1250 net.cpp:369] scale4b2_branch2a -> res4b2_branch2a (in-place)
I1014 17:06:52.739219  1250 layer_factory.hpp:77] Creating layer scale4b2_branch2a
I1014 17:06:52.739476  1250 net.cpp:124] Setting up scale4b2_branch2a
I1014 17:06:52.739487  1250 net.cpp:131] Top shape: 1 256 14 14 (50176)
I1014 17:06:52.739492  1250 net.cpp:139] Memory required for data: 192274444
I1014 17:06:52.739503  1250 layer_factory.hpp:77] Creating layer res4b2_branch2a_relu
I1014 17:06:52.739516  1250 net.cpp:86] Creating Layer res4b2_branch2a_relu
I1014 17:06:52.739523  1250 net.cpp:408] res4b2_branch2a_relu <- res4b2_branch2a
I1014 17:06:52.739533  1250 net.cpp:369] res4b2_branch2a_relu -> res4b2_branch2a (in-place)
I1014 17:06:52.741040  1250 net.cpp:124] Setting up res4b2_branch2a_relu
I1014 17:06:52.741066  1250 net.cpp:131] Top shape: 1 256 14 14 (50176)
I1014 17:06:52.741073  1250 net.cpp:139] Memory required for data: 192475148
I1014 17:06:52.741080  1250 layer_factory.hpp:77] Creating layer res4b2_branch2b
I1014 17:06:52.741099  1250 net.cpp:86] Creating Layer res4b2_branch2b
I1014 17:06:52.741107  1250 net.cpp:408] res4b2_branch2b <- res4b2_branch2a
I1014 17:06:52.741120  1250 net.cpp:382] res4b2_branch2b -> res4b2_branch2b
I1014 17:06:52.748937  1250 net.cpp:124] Setting up res4b2_branch2b
I1014 17:06:52.748967  1250 net.cpp:131] Top shape: 1 256 14 14 (50176)
I1014 17:06:52.748975  1250 net.cpp:139] Memory required for data: 192675852
I1014 17:06:52.748984  1250 layer_factory.hpp:77] Creating layer bn4b2_branch2b
I1014 17:06:52.748998  1250 net.cpp:86] Creating Layer bn4b2_branch2b
I1014 17:06:52.749006  1250 net.cpp:408] bn4b2_branch2b <- res4b2_branch2b
I1014 17:06:52.749017  1250 net.cpp:369] bn4b2_branch2b -> res4b2_branch2b (in-place)
I1014 17:06:52.749475  1250 net.cpp:124] Setting up bn4b2_branch2b
I1014 17:06:52.749485  1250 net.cpp:131] Top shape: 1 256 14 14 (50176)
I1014 17:06:52.749490  1250 net.cpp:139] Memory required for data: 192876556
I1014 17:06:52.749502  1250 layer_factory.hpp:77] Creating layer scale4b2_branch2b
I1014 17:06:52.749517  1250 net.cpp:86] Creating Layer scale4b2_branch2b
I1014 17:06:52.749523  1250 net.cpp:408] scale4b2_branch2b <- res4b2_branch2b
I1014 17:06:52.749531  1250 net.cpp:369] scale4b2_branch2b -> res4b2_branch2b (in-place)
I1014 17:06:52.749608  1250 layer_factory.hpp:77] Creating layer scale4b2_branch2b
I1014 17:06:52.749825  1250 net.cpp:124] Setting up scale4b2_branch2b
I1014 17:06:52.749833  1250 net.cpp:131] Top shape: 1 256 14 14 (50176)
I1014 17:06:52.749838  1250 net.cpp:139] Memory required for data: 193077260
I1014 17:06:52.749847  1250 layer_factory.hpp:77] Creating layer res4b2_branch2b_relu
I1014 17:06:52.749855  1250 net.cpp:86] Creating Layer res4b2_branch2b_relu
I1014 17:06:52.749861  1250 net.cpp:408] res4b2_branch2b_relu <- res4b2_branch2b
I1014 17:06:52.749871  1250 net.cpp:369] res4b2_branch2b_relu -> res4b2_branch2b (in-place)
I1014 17:06:52.750239  1250 net.cpp:124] Setting up res4b2_branch2b_relu
I1014 17:06:52.750252  1250 net.cpp:131] Top shape: 1 256 14 14 (50176)
I1014 17:06:52.750257  1250 net.cpp:139] Memory required for data: 193277964
I1014 17:06:52.750272  1250 layer_factory.hpp:77] Creating layer res4b2_branch2c
I1014 17:06:52.750288  1250 net.cpp:86] Creating Layer res4b2_branch2c
I1014 17:06:52.750293  1250 net.cpp:408] res4b2_branch2c <- res4b2_branch2b
I1014 17:06:52.750304  1250 net.cpp:382] res4b2_branch2c -> res4b2_branch2c
I1014 17:06:52.755388  1250 net.cpp:124] Setting up res4b2_branch2c
I1014 17:06:52.755411  1250 net.cpp:131] Top shape: 1 1024 14 14 (200704)
I1014 17:06:52.755417  1250 net.cpp:139] Memory required for data: 194080780
I1014 17:06:52.755425  1250 layer_factory.hpp:77] Creating layer bn4b2_branch2c
I1014 17:06:52.755446  1250 net.cpp:86] Creating Layer bn4b2_branch2c
I1014 17:06:52.755452  1250 net.cpp:408] bn4b2_branch2c <- res4b2_branch2c
I1014 17:06:52.755462  1250 net.cpp:369] bn4b2_branch2c -> res4b2_branch2c (in-place)
I1014 17:06:52.755867  1250 net.cpp:124] Setting up bn4b2_branch2c
I1014 17:06:52.755880  1250 net.cpp:131] Top shape: 1 1024 14 14 (200704)
I1014 17:06:52.755885  1250 net.cpp:139] Memory required for data: 194883596
I1014 17:06:52.755897  1250 layer_factory.hpp:77] Creating layer scale4b2_branch2c
I1014 17:06:52.755905  1250 net.cpp:86] Creating Layer scale4b2_branch2c
I1014 17:06:52.755911  1250 net.cpp:408] scale4b2_branch2c <- res4b2_branch2c
I1014 17:06:52.755920  1250 net.cpp:369] scale4b2_branch2c -> res4b2_branch2c (in-place)
I1014 17:06:52.755985  1250 layer_factory.hpp:77] Creating layer scale4b2_branch2c
I1014 17:06:52.756198  1250 net.cpp:124] Setting up scale4b2_branch2c
I1014 17:06:52.756211  1250 net.cpp:131] Top shape: 1 1024 14 14 (200704)
I1014 17:06:52.756216  1250 net.cpp:139] Memory required for data: 195686412
I1014 17:06:52.756224  1250 layer_factory.hpp:77] Creating layer res4b2
I1014 17:06:52.756232  1250 net.cpp:86] Creating Layer res4b2
I1014 17:06:52.756237  1250 net.cpp:408] res4b2 <- res4b1_res4b1_relu_0_split_1
I1014 17:06:52.756243  1250 net.cpp:408] res4b2 <- res4b2_branch2c
I1014 17:06:52.756252  1250 net.cpp:382] res4b2 -> res4b2
I1014 17:06:52.756296  1250 net.cpp:124] Setting up res4b2
I1014 17:06:52.756304  1250 net.cpp:131] Top shape: 1 1024 14 14 (200704)
I1014 17:06:52.756309  1250 net.cpp:139] Memory required for data: 196489228
I1014 17:06:52.756315  1250 layer_factory.hpp:77] Creating layer res4b2_relu
I1014 17:06:52.756325  1250 net.cpp:86] Creating Layer res4b2_relu
I1014 17:06:52.756330  1250 net.cpp:408] res4b2_relu <- res4b2
I1014 17:06:52.756335  1250 net.cpp:369] res4b2_relu -> res4b2 (in-place)
I1014 17:06:52.757534  1250 net.cpp:124] Setting up res4b2_relu
I1014 17:06:52.757550  1250 net.cpp:131] Top shape: 1 1024 14 14 (200704)
I1014 17:06:52.757555  1250 net.cpp:139] Memory required for data: 197292044
I1014 17:06:52.757560  1250 layer_factory.hpp:77] Creating layer res4b2_res4b2_relu_0_split
I1014 17:06:52.757570  1250 net.cpp:86] Creating Layer res4b2_res4b2_relu_0_split
I1014 17:06:52.757575  1250 net.cpp:408] res4b2_res4b2_relu_0_split <- res4b2
I1014 17:06:52.757586  1250 net.cpp:382] res4b2_res4b2_relu_0_split -> res4b2_res4b2_relu_0_split_0
I1014 17:06:52.757596  1250 net.cpp:382] res4b2_res4b2_relu_0_split -> res4b2_res4b2_relu_0_split_1
I1014 17:06:52.757674  1250 net.cpp:124] Setting up res4b2_res4b2_relu_0_split
I1014 17:06:52.757683  1250 net.cpp:131] Top shape: 1 1024 14 14 (200704)
I1014 17:06:52.757689  1250 net.cpp:131] Top shape: 1 1024 14 14 (200704)
I1014 17:06:52.757694  1250 net.cpp:139] Memory required for data: 198897676
I1014 17:06:52.757699  1250 layer_factory.hpp:77] Creating layer res4b3_branch2a
I1014 17:06:52.757714  1250 net.cpp:86] Creating Layer res4b3_branch2a
I1014 17:06:52.757719  1250 net.cpp:408] res4b3_branch2a <- res4b2_res4b2_relu_0_split_0
I1014 17:06:52.757726  1250 net.cpp:382] res4b3_branch2a -> res4b3_branch2a
I1014 17:06:52.761854  1250 net.cpp:124] Setting up res4b3_branch2a
I1014 17:06:52.761876  1250 net.cpp:131] Top shape: 1 256 14 14 (50176)
I1014 17:06:52.761883  1250 net.cpp:139] Memory required for data: 199098380
I1014 17:06:52.761890  1250 layer_factory.hpp:77] Creating layer bn4b3_branch2a
I1014 17:06:52.761909  1250 net.cpp:86] Creating Layer bn4b3_branch2a
I1014 17:06:52.761915  1250 net.cpp:408] bn4b3_branch2a <- res4b3_branch2a
I1014 17:06:52.761924  1250 net.cpp:369] bn4b3_branch2a -> res4b3_branch2a (in-place)
I1014 17:06:52.762303  1250 net.cpp:124] Setting up bn4b3_branch2a
I1014 17:06:52.762313  1250 net.cpp:131] Top shape: 1 256 14 14 (50176)
I1014 17:06:52.762317  1250 net.cpp:139] Memory required for data: 199299084
I1014 17:06:52.762331  1250 layer_factory.hpp:77] Creating layer scale4b3_branch2a
I1014 17:06:52.762339  1250 net.cpp:86] Creating Layer scale4b3_branch2a
I1014 17:06:52.762344  1250 net.cpp:408] scale4b3_branch2a <- res4b3_branch2a
I1014 17:06:52.762354  1250 net.cpp:369] scale4b3_branch2a -> res4b3_branch2a (in-place)
I1014 17:06:52.762423  1250 layer_factory.hpp:77] Creating layer scale4b3_branch2a
I1014 17:06:52.762625  1250 net.cpp:124] Setting up scale4b3_branch2a
I1014 17:06:52.762636  1250 net.cpp:131] Top shape: 1 256 14 14 (50176)
I1014 17:06:52.762640  1250 net.cpp:139] Memory required for data: 199499788
I1014 17:06:52.762650  1250 layer_factory.hpp:77] Creating layer res4b3_branch2a_relu
I1014 17:06:52.762658  1250 net.cpp:86] Creating Layer res4b3_branch2a_relu
I1014 17:06:52.762663  1250 net.cpp:408] res4b3_branch2a_relu <- res4b3_branch2a
I1014 17:06:52.762670  1250 net.cpp:369] res4b3_branch2a_relu -> res4b3_branch2a (in-place)
I1014 17:06:52.763877  1250 net.cpp:124] Setting up res4b3_branch2a_relu
I1014 17:06:52.763897  1250 net.cpp:131] Top shape: 1 256 14 14 (50176)
I1014 17:06:52.763902  1250 net.cpp:139] Memory required for data: 199700492
I1014 17:06:52.763907  1250 layer_factory.hpp:77] Creating layer res4b3_branch2b
I1014 17:06:52.763924  1250 net.cpp:86] Creating Layer res4b3_branch2b
I1014 17:06:52.763931  1250 net.cpp:408] res4b3_branch2b <- res4b3_branch2a
I1014 17:06:52.763942  1250 net.cpp:382] res4b3_branch2b -> res4b3_branch2b
I1014 17:06:52.769825  1250 net.cpp:124] Setting up res4b3_branch2b
I1014 17:06:52.769847  1250 net.cpp:131] Top shape: 1 256 14 14 (50176)
I1014 17:06:52.769852  1250 net.cpp:139] Memory required for data: 199901196
I1014 17:06:52.769860  1250 layer_factory.hpp:77] Creating layer bn4b3_branch2b
I1014 17:06:52.769879  1250 net.cpp:86] Creating Layer bn4b3_branch2b
I1014 17:06:52.769884  1250 net.cpp:408] bn4b3_branch2b <- res4b3_branch2b
I1014 17:06:52.769891  1250 net.cpp:369] bn4b3_branch2b -> res4b3_branch2b (in-place)
I1014 17:06:52.770256  1250 net.cpp:124] Setting up bn4b3_branch2b
I1014 17:06:52.770265  1250 net.cpp:131] Top shape: 1 256 14 14 (50176)
I1014 17:06:52.770270  1250 net.cpp:139] Memory required for data: 200101900
I1014 17:06:52.770280  1250 layer_factory.hpp:77] Creating layer scale4b3_branch2b
I1014 17:06:52.770295  1250 net.cpp:86] Creating Layer scale4b3_branch2b
I1014 17:06:52.770301  1250 net.cpp:408] scale4b3_branch2b <- res4b3_branch2b
I1014 17:06:52.770308  1250 net.cpp:369] scale4b3_branch2b -> res4b3_branch2b (in-place)
I1014 17:06:52.770377  1250 layer_factory.hpp:77] Creating layer scale4b3_branch2b
I1014 17:06:52.770572  1250 net.cpp:124] Setting up scale4b3_branch2b
I1014 17:06:52.770581  1250 net.cpp:131] Top shape: 1 256 14 14 (50176)
I1014 17:06:52.770586  1250 net.cpp:139] Memory required for data: 200302604
I1014 17:06:52.770593  1250 layer_factory.hpp:77] Creating layer res4b3_branch2b_relu
I1014 17:06:52.770602  1250 net.cpp:86] Creating Layer res4b3_branch2b_relu
I1014 17:06:52.770607  1250 net.cpp:408] res4b3_branch2b_relu <- res4b3_branch2b
I1014 17:06:52.770613  1250 net.cpp:369] res4b3_branch2b_relu -> res4b3_branch2b (in-place)
I1014 17:06:52.770922  1250 net.cpp:124] Setting up res4b3_branch2b_relu
I1014 17:06:52.770934  1250 net.cpp:131] Top shape: 1 256 14 14 (50176)
I1014 17:06:52.770938  1250 net.cpp:139] Memory required for data: 200503308
I1014 17:06:52.770944  1250 layer_factory.hpp:77] Creating layer res4b3_branch2c
I1014 17:06:52.770957  1250 net.cpp:86] Creating Layer res4b3_branch2c
I1014 17:06:52.770962  1250 net.cpp:408] res4b3_branch2c <- res4b3_branch2b
I1014 17:06:52.770977  1250 net.cpp:382] res4b3_branch2c -> res4b3_branch2c
I1014 17:06:52.777451  1250 net.cpp:124] Setting up res4b3_branch2c
I1014 17:06:52.777472  1250 net.cpp:131] Top shape: 1 1024 14 14 (200704)
I1014 17:06:52.777477  1250 net.cpp:139] Memory required for data: 201306124
I1014 17:06:52.777487  1250 layer_factory.hpp:77] Creating layer bn4b3_branch2c
I1014 17:06:52.777499  1250 net.cpp:86] Creating Layer bn4b3_branch2c
I1014 17:06:52.777504  1250 net.cpp:408] bn4b3_branch2c <- res4b3_branch2c
I1014 17:06:52.777514  1250 net.cpp:369] bn4b3_branch2c -> res4b3_branch2c (in-place)
I1014 17:06:52.777856  1250 net.cpp:124] Setting up bn4b3_branch2c
I1014 17:06:52.777865  1250 net.cpp:131] Top shape: 1 1024 14 14 (200704)
I1014 17:06:52.777869  1250 net.cpp:139] Memory required for data: 202108940
I1014 17:06:52.777878  1250 layer_factory.hpp:77] Creating layer scale4b3_branch2c
I1014 17:06:52.777890  1250 net.cpp:86] Creating Layer scale4b3_branch2c
I1014 17:06:52.777895  1250 net.cpp:408] scale4b3_branch2c <- res4b3_branch2c
I1014 17:06:52.777901  1250 net.cpp:369] scale4b3_branch2c -> res4b3_branch2c (in-place)
I1014 17:06:52.777958  1250 layer_factory.hpp:77] Creating layer scale4b3_branch2c
I1014 17:06:52.778153  1250 net.cpp:124] Setting up scale4b3_branch2c
I1014 17:06:52.778162  1250 net.cpp:131] Top shape: 1 1024 14 14 (200704)
I1014 17:06:52.778167  1250 net.cpp:139] Memory required for data: 202911756
I1014 17:06:52.778173  1250 layer_factory.hpp:77] Creating layer res4b3
I1014 17:06:52.778180  1250 net.cpp:86] Creating Layer res4b3
I1014 17:06:52.778185  1250 net.cpp:408] res4b3 <- res4b2_res4b2_relu_0_split_1
I1014 17:06:52.778192  1250 net.cpp:408] res4b3 <- res4b3_branch2c
I1014 17:06:52.778199  1250 net.cpp:382] res4b3 -> res4b3
I1014 17:06:52.778237  1250 net.cpp:124] Setting up res4b3
I1014 17:06:52.778247  1250 net.cpp:131] Top shape: 1 1024 14 14 (200704)
I1014 17:06:52.778251  1250 net.cpp:139] Memory required for data: 203714572
I1014 17:06:52.778255  1250 layer_factory.hpp:77] Creating layer res4b3_relu
I1014 17:06:52.778264  1250 net.cpp:86] Creating Layer res4b3_relu
I1014 17:06:52.778268  1250 net.cpp:408] res4b3_relu <- res4b3
I1014 17:06:52.778273  1250 net.cpp:369] res4b3_relu -> res4b3 (in-place)
I1014 17:06:52.779600  1250 net.cpp:124] Setting up res4b3_relu
I1014 17:06:52.779620  1250 net.cpp:131] Top shape: 1 1024 14 14 (200704)
I1014 17:06:52.779625  1250 net.cpp:139] Memory required for data: 204517388
I1014 17:06:52.779631  1250 layer_factory.hpp:77] Creating layer res4b3_res4b3_relu_0_split
I1014 17:06:52.779642  1250 net.cpp:86] Creating Layer res4b3_res4b3_relu_0_split
I1014 17:06:52.779647  1250 net.cpp:408] res4b3_res4b3_relu_0_split <- res4b3
I1014 17:06:52.779654  1250 net.cpp:382] res4b3_res4b3_relu_0_split -> res4b3_res4b3_relu_0_split_0
I1014 17:06:52.779665  1250 net.cpp:382] res4b3_res4b3_relu_0_split -> res4b3_res4b3_relu_0_split_1
I1014 17:06:52.779741  1250 net.cpp:124] Setting up res4b3_res4b3_relu_0_split
I1014 17:06:52.779748  1250 net.cpp:131] Top shape: 1 1024 14 14 (200704)
I1014 17:06:52.779753  1250 net.cpp:131] Top shape: 1 1024 14 14 (200704)
I1014 17:06:52.779757  1250 net.cpp:139] Memory required for data: 206123020
I1014 17:06:52.779762  1250 layer_factory.hpp:77] Creating layer res4b4_branch2a
I1014 17:06:52.779772  1250 net.cpp:86] Creating Layer res4b4_branch2a
I1014 17:06:52.779778  1250 net.cpp:408] res4b4_branch2a <- res4b3_res4b3_relu_0_split_0
I1014 17:06:52.779785  1250 net.cpp:382] res4b4_branch2a -> res4b4_branch2a
I1014 17:06:52.782801  1250 net.cpp:124] Setting up res4b4_branch2a
I1014 17:06:52.782817  1250 net.cpp:131] Top shape: 1 256 14 14 (50176)
I1014 17:06:52.782822  1250 net.cpp:139] Memory required for data: 206323724
I1014 17:06:52.782829  1250 layer_factory.hpp:77] Creating layer bn4b4_branch2a
I1014 17:06:52.782840  1250 net.cpp:86] Creating Layer bn4b4_branch2a
I1014 17:06:52.782846  1250 net.cpp:408] bn4b4_branch2a <- res4b4_branch2a
I1014 17:06:52.782855  1250 net.cpp:369] bn4b4_branch2a -> res4b4_branch2a (in-place)
I1014 17:06:52.783202  1250 net.cpp:124] Setting up bn4b4_branch2a
I1014 17:06:52.783211  1250 net.cpp:131] Top shape: 1 256 14 14 (50176)
I1014 17:06:52.783215  1250 net.cpp:139] Memory required for data: 206524428
I1014 17:06:52.783226  1250 layer_factory.hpp:77] Creating layer scale4b4_branch2a
I1014 17:06:52.783236  1250 net.cpp:86] Creating Layer scale4b4_branch2a
I1014 17:06:52.783241  1250 net.cpp:408] scale4b4_branch2a <- res4b4_branch2a
I1014 17:06:52.783248  1250 net.cpp:369] scale4b4_branch2a -> res4b4_branch2a (in-place)
I1014 17:06:52.783314  1250 layer_factory.hpp:77] Creating layer scale4b4_branch2a
I1014 17:06:52.783504  1250 net.cpp:124] Setting up scale4b4_branch2a
I1014 17:06:52.783512  1250 net.cpp:131] Top shape: 1 256 14 14 (50176)
I1014 17:06:52.783516  1250 net.cpp:139] Memory required for data: 206725132
I1014 17:06:52.783526  1250 layer_factory.hpp:77] Creating layer res4b4_branch2a_relu
I1014 17:06:52.783534  1250 net.cpp:86] Creating Layer res4b4_branch2a_relu
I1014 17:06:52.783537  1250 net.cpp:408] res4b4_branch2a_relu <- res4b4_branch2a
I1014 17:06:52.783545  1250 net.cpp:369] res4b4_branch2a_relu -> res4b4_branch2a (in-place)
I1014 17:06:52.784628  1250 net.cpp:124] Setting up res4b4_branch2a_relu
I1014 17:06:52.784647  1250 net.cpp:131] Top shape: 1 256 14 14 (50176)
I1014 17:06:52.784652  1250 net.cpp:139] Memory required for data: 206925836
I1014 17:06:52.784657  1250 layer_factory.hpp:77] Creating layer res4b4_branch2b
I1014 17:06:52.784668  1250 net.cpp:86] Creating Layer res4b4_branch2b
I1014 17:06:52.784674  1250 net.cpp:408] res4b4_branch2b <- res4b4_branch2a
I1014 17:06:52.784682  1250 net.cpp:382] res4b4_branch2b -> res4b4_branch2b
I1014 17:06:52.790817  1250 net.cpp:124] Setting up res4b4_branch2b
I1014 17:06:52.790838  1250 net.cpp:131] Top shape: 1 256 14 14 (50176)
I1014 17:06:52.790841  1250 net.cpp:139] Memory required for data: 207126540
I1014 17:06:52.790849  1250 layer_factory.hpp:77] Creating layer bn4b4_branch2b
I1014 17:06:52.790868  1250 net.cpp:86] Creating Layer bn4b4_branch2b
I1014 17:06:52.790874  1250 net.cpp:408] bn4b4_branch2b <- res4b4_branch2b
I1014 17:06:52.790881  1250 net.cpp:369] bn4b4_branch2b -> res4b4_branch2b (in-place)
I1014 17:06:52.791223  1250 net.cpp:124] Setting up bn4b4_branch2b
I1014 17:06:52.791230  1250 net.cpp:131] Top shape: 1 256 14 14 (50176)
I1014 17:06:52.791234  1250 net.cpp:139] Memory required for data: 207327244
I1014 17:06:52.791244  1250 layer_factory.hpp:77] Creating layer scale4b4_branch2b
I1014 17:06:52.791254  1250 net.cpp:86] Creating Layer scale4b4_branch2b
I1014 17:06:52.791259  1250 net.cpp:408] scale4b4_branch2b <- res4b4_branch2b
I1014 17:06:52.791266  1250 net.cpp:369] scale4b4_branch2b -> res4b4_branch2b (in-place)
I1014 17:06:52.791329  1250 layer_factory.hpp:77] Creating layer scale4b4_branch2b
I1014 17:06:52.791512  1250 net.cpp:124] Setting up scale4b4_branch2b
I1014 17:06:52.791520  1250 net.cpp:131] Top shape: 1 256 14 14 (50176)
I1014 17:06:52.791523  1250 net.cpp:139] Memory required for data: 207527948
I1014 17:06:52.791532  1250 layer_factory.hpp:77] Creating layer res4b4_branch2b_relu
I1014 17:06:52.791538  1250 net.cpp:86] Creating Layer res4b4_branch2b_relu
I1014 17:06:52.791543  1250 net.cpp:408] res4b4_branch2b_relu <- res4b4_branch2b
I1014 17:06:52.791548  1250 net.cpp:369] res4b4_branch2b_relu -> res4b4_branch2b (in-place)
I1014 17:06:52.791844  1250 net.cpp:124] Setting up res4b4_branch2b_relu
I1014 17:06:52.791859  1250 net.cpp:131] Top shape: 1 256 14 14 (50176)
I1014 17:06:52.791863  1250 net.cpp:139] Memory required for data: 207728652
I1014 17:06:52.791868  1250 layer_factory.hpp:77] Creating layer res4b4_branch2c
I1014 17:06:52.791880  1250 net.cpp:86] Creating Layer res4b4_branch2c
I1014 17:06:52.791885  1250 net.cpp:408] res4b4_branch2c <- res4b4_branch2b
I1014 17:06:52.791893  1250 net.cpp:382] res4b4_branch2c -> res4b4_branch2c
I1014 17:06:52.795805  1250 net.cpp:124] Setting up res4b4_branch2c
I1014 17:06:52.795825  1250 net.cpp:131] Top shape: 1 1024 14 14 (200704)
I1014 17:06:52.795840  1250 net.cpp:139] Memory required for data: 208531468
I1014 17:06:52.795847  1250 layer_factory.hpp:77] Creating layer bn4b4_branch2c
I1014 17:06:52.795855  1250 net.cpp:86] Creating Layer bn4b4_branch2c
I1014 17:06:52.795861  1250 net.cpp:408] bn4b4_branch2c <- res4b4_branch2c
I1014 17:06:52.795869  1250 net.cpp:369] bn4b4_branch2c -> res4b4_branch2c (in-place)
I1014 17:06:52.796208  1250 net.cpp:124] Setting up bn4b4_branch2c
I1014 17:06:52.796216  1250 net.cpp:131] Top shape: 1 1024 14 14 (200704)
I1014 17:06:52.796221  1250 net.cpp:139] Memory required for data: 209334284
I1014 17:06:52.796231  1250 layer_factory.hpp:77] Creating layer scale4b4_branch2c
I1014 17:06:52.796239  1250 net.cpp:86] Creating Layer scale4b4_branch2c
I1014 17:06:52.796244  1250 net.cpp:408] scale4b4_branch2c <- res4b4_branch2c
I1014 17:06:52.796249  1250 net.cpp:369] scale4b4_branch2c -> res4b4_branch2c (in-place)
I1014 17:06:52.796309  1250 layer_factory.hpp:77] Creating layer scale4b4_branch2c
I1014 17:06:52.796497  1250 net.cpp:124] Setting up scale4b4_branch2c
I1014 17:06:52.796505  1250 net.cpp:131] Top shape: 1 1024 14 14 (200704)
I1014 17:06:52.796509  1250 net.cpp:139] Memory required for data: 210137100
I1014 17:06:52.796516  1250 layer_factory.hpp:77] Creating layer res4b4
I1014 17:06:52.796526  1250 net.cpp:86] Creating Layer res4b4
I1014 17:06:52.796531  1250 net.cpp:408] res4b4 <- res4b3_res4b3_relu_0_split_1
I1014 17:06:52.796536  1250 net.cpp:408] res4b4 <- res4b4_branch2c
I1014 17:06:52.796542  1250 net.cpp:382] res4b4 -> res4b4
I1014 17:06:52.796582  1250 net.cpp:124] Setting up res4b4
I1014 17:06:52.796589  1250 net.cpp:131] Top shape: 1 1024 14 14 (200704)
I1014 17:06:52.796593  1250 net.cpp:139] Memory required for data: 210939916
I1014 17:06:52.796597  1250 layer_factory.hpp:77] Creating layer res4b4_relu
I1014 17:06:52.796603  1250 net.cpp:86] Creating Layer res4b4_relu
I1014 17:06:52.796607  1250 net.cpp:408] res4b4_relu <- res4b4
I1014 17:06:52.796614  1250 net.cpp:369] res4b4_relu -> res4b4 (in-place)
I1014 17:06:52.797668  1250 net.cpp:124] Setting up res4b4_relu
I1014 17:06:52.797683  1250 net.cpp:131] Top shape: 1 1024 14 14 (200704)
I1014 17:06:52.797686  1250 net.cpp:139] Memory required for data: 211742732
I1014 17:06:52.797690  1250 layer_factory.hpp:77] Creating layer res4b4_res4b4_relu_0_split
I1014 17:06:52.797698  1250 net.cpp:86] Creating Layer res4b4_res4b4_relu_0_split
I1014 17:06:52.797703  1250 net.cpp:408] res4b4_res4b4_relu_0_split <- res4b4
I1014 17:06:52.797709  1250 net.cpp:382] res4b4_res4b4_relu_0_split -> res4b4_res4b4_relu_0_split_0
I1014 17:06:52.797720  1250 net.cpp:382] res4b4_res4b4_relu_0_split -> res4b4_res4b4_relu_0_split_1
I1014 17:06:52.797791  1250 net.cpp:124] Setting up res4b4_res4b4_relu_0_split
I1014 17:06:52.797798  1250 net.cpp:131] Top shape: 1 1024 14 14 (200704)
I1014 17:06:52.797804  1250 net.cpp:131] Top shape: 1 1024 14 14 (200704)
I1014 17:06:52.797807  1250 net.cpp:139] Memory required for data: 213348364
I1014 17:06:52.797812  1250 layer_factory.hpp:77] Creating layer res4b5_branch2a
I1014 17:06:52.797823  1250 net.cpp:86] Creating Layer res4b5_branch2a
I1014 17:06:52.797828  1250 net.cpp:408] res4b5_branch2a <- res4b4_res4b4_relu_0_split_0
I1014 17:06:52.797837  1250 net.cpp:382] res4b5_branch2a -> res4b5_branch2a
I1014 17:06:52.800798  1250 net.cpp:124] Setting up res4b5_branch2a
I1014 17:06:52.800819  1250 net.cpp:131] Top shape: 1 256 14 14 (50176)
I1014 17:06:52.800824  1250 net.cpp:139] Memory required for data: 213549068
I1014 17:06:52.800832  1250 layer_factory.hpp:77] Creating layer bn4b5_branch2a
I1014 17:06:52.800840  1250 net.cpp:86] Creating Layer bn4b5_branch2a
I1014 17:06:52.800845  1250 net.cpp:408] bn4b5_branch2a <- res4b5_branch2a
I1014 17:06:52.800853  1250 net.cpp:369] bn4b5_branch2a -> res4b5_branch2a (in-place)
I1014 17:06:52.801172  1250 net.cpp:124] Setting up bn4b5_branch2a
I1014 17:06:52.801179  1250 net.cpp:131] Top shape: 1 256 14 14 (50176)
I1014 17:06:52.801183  1250 net.cpp:139] Memory required for data: 213749772
I1014 17:06:52.801199  1250 layer_factory.hpp:77] Creating layer scale4b5_branch2a
I1014 17:06:52.801208  1250 net.cpp:86] Creating Layer scale4b5_branch2a
I1014 17:06:52.801211  1250 net.cpp:408] scale4b5_branch2a <- res4b5_branch2a
I1014 17:06:52.801218  1250 net.cpp:369] scale4b5_branch2a -> res4b5_branch2a (in-place)
I1014 17:06:52.801278  1250 layer_factory.hpp:77] Creating layer scale4b5_branch2a
I1014 17:06:52.801452  1250 net.cpp:124] Setting up scale4b5_branch2a
I1014 17:06:52.801460  1250 net.cpp:131] Top shape: 1 256 14 14 (50176)
I1014 17:06:52.801463  1250 net.cpp:139] Memory required for data: 213950476
I1014 17:06:52.801470  1250 layer_factory.hpp:77] Creating layer res4b5_branch2a_relu
I1014 17:06:52.801476  1250 net.cpp:86] Creating Layer res4b5_branch2a_relu
I1014 17:06:52.801481  1250 net.cpp:408] res4b5_branch2a_relu <- res4b5_branch2a
I1014 17:06:52.801487  1250 net.cpp:369] res4b5_branch2a_relu -> res4b5_branch2a (in-place)
I1014 17:06:52.802707  1250 net.cpp:124] Setting up res4b5_branch2a_relu
I1014 17:06:52.802721  1250 net.cpp:131] Top shape: 1 256 14 14 (50176)
I1014 17:06:52.802726  1250 net.cpp:139] Memory required for data: 214151180
I1014 17:06:52.802731  1250 layer_factory.hpp:77] Creating layer res4b5_branch2b
I1014 17:06:52.802743  1250 net.cpp:86] Creating Layer res4b5_branch2b
I1014 17:06:52.802748  1250 net.cpp:408] res4b5_branch2b <- res4b5_branch2a
I1014 17:06:52.802757  1250 net.cpp:382] res4b5_branch2b -> res4b5_branch2b
I1014 17:06:52.808578  1250 net.cpp:124] Setting up res4b5_branch2b
I1014 17:06:52.808595  1250 net.cpp:131] Top shape: 1 256 14 14 (50176)
I1014 17:06:52.808600  1250 net.cpp:139] Memory required for data: 214351884
I1014 17:06:52.808609  1250 layer_factory.hpp:77] Creating layer bn4b5_branch2b
I1014 17:06:52.808627  1250 net.cpp:86] Creating Layer bn4b5_branch2b
I1014 17:06:52.808632  1250 net.cpp:408] bn4b5_branch2b <- res4b5_branch2b
I1014 17:06:52.808640  1250 net.cpp:369] bn4b5_branch2b -> res4b5_branch2b (in-place)
I1014 17:06:52.808969  1250 net.cpp:124] Setting up bn4b5_branch2b
I1014 17:06:52.808975  1250 net.cpp:131] Top shape: 1 256 14 14 (50176)
I1014 17:06:52.808979  1250 net.cpp:139] Memory required for data: 214552588
I1014 17:06:52.808989  1250 layer_factory.hpp:77] Creating layer scale4b5_branch2b
I1014 17:06:52.808998  1250 net.cpp:86] Creating Layer scale4b5_branch2b
I1014 17:06:52.809002  1250 net.cpp:408] scale4b5_branch2b <- res4b5_branch2b
I1014 17:06:52.809008  1250 net.cpp:369] scale4b5_branch2b -> res4b5_branch2b (in-place)
I1014 17:06:52.809072  1250 layer_factory.hpp:77] Creating layer scale4b5_branch2b
I1014 17:06:52.809260  1250 net.cpp:124] Setting up scale4b5_branch2b
I1014 17:06:52.809267  1250 net.cpp:131] Top shape: 1 256 14 14 (50176)
I1014 17:06:52.809272  1250 net.cpp:139] Memory required for data: 214753292
I1014 17:06:52.809278  1250 layer_factory.hpp:77] Creating layer res4b5_branch2b_relu
I1014 17:06:52.809286  1250 net.cpp:86] Creating Layer res4b5_branch2b_relu
I1014 17:06:52.809291  1250 net.cpp:408] res4b5_branch2b_relu <- res4b5_branch2b
I1014 17:06:52.809298  1250 net.cpp:369] res4b5_branch2b_relu -> res4b5_branch2b (in-place)
I1014 17:06:52.809571  1250 net.cpp:124] Setting up res4b5_branch2b_relu
I1014 17:06:52.809581  1250 net.cpp:131] Top shape: 1 256 14 14 (50176)
I1014 17:06:52.809586  1250 net.cpp:139] Memory required for data: 214953996
I1014 17:06:52.809589  1250 layer_factory.hpp:77] Creating layer res4b5_branch2c
I1014 17:06:52.809599  1250 net.cpp:86] Creating Layer res4b5_branch2c
I1014 17:06:52.809604  1250 net.cpp:408] res4b5_branch2c <- res4b5_branch2b
I1014 17:06:52.809612  1250 net.cpp:382] res4b5_branch2c -> res4b5_branch2c
I1014 17:06:52.813598  1250 net.cpp:124] Setting up res4b5_branch2c
I1014 17:06:52.813624  1250 net.cpp:131] Top shape: 1 1024 14 14 (200704)
I1014 17:06:52.813628  1250 net.cpp:139] Memory required for data: 215756812
I1014 17:06:52.813635  1250 layer_factory.hpp:77] Creating layer bn4b5_branch2c
I1014 17:06:52.813647  1250 net.cpp:86] Creating Layer bn4b5_branch2c
I1014 17:06:52.813652  1250 net.cpp:408] bn4b5_branch2c <- res4b5_branch2c
I1014 17:06:52.813675  1250 net.cpp:369] bn4b5_branch2c -> res4b5_branch2c (in-place)
I1014 17:06:52.813947  1250 net.cpp:124] Setting up bn4b5_branch2c
I1014 17:06:52.813953  1250 net.cpp:131] Top shape: 1 1024 14 14 (200704)
I1014 17:06:52.813956  1250 net.cpp:139] Memory required for data: 216559628
I1014 17:06:52.813968  1250 layer_factory.hpp:77] Creating layer scale4b5_branch2c
I1014 17:06:52.813990  1250 net.cpp:86] Creating Layer scale4b5_branch2c
I1014 17:06:52.813997  1250 net.cpp:408] scale4b5_branch2c <- res4b5_branch2c
I1014 17:06:52.814004  1250 net.cpp:369] scale4b5_branch2c -> res4b5_branch2c (in-place)
I1014 17:06:52.814076  1250 layer_factory.hpp:77] Creating layer scale4b5_branch2c
I1014 17:06:52.814256  1250 net.cpp:124] Setting up scale4b5_branch2c
I1014 17:06:52.814267  1250 net.cpp:131] Top shape: 1 1024 14 14 (200704)
I1014 17:06:52.814272  1250 net.cpp:139] Memory required for data: 217362444
I1014 17:06:52.814306  1250 layer_factory.hpp:77] Creating layer res4b5
I1014 17:06:52.814316  1250 net.cpp:86] Creating Layer res4b5
I1014 17:06:52.814321  1250 net.cpp:408] res4b5 <- res4b4_res4b4_relu_0_split_1
I1014 17:06:52.814326  1250 net.cpp:408] res4b5 <- res4b5_branch2c
I1014 17:06:52.814330  1250 net.cpp:382] res4b5 -> res4b5
I1014 17:06:52.814369  1250 net.cpp:124] Setting up res4b5
I1014 17:06:52.814376  1250 net.cpp:131] Top shape: 1 1024 14 14 (200704)
I1014 17:06:52.814381  1250 net.cpp:139] Memory required for data: 218165260
I1014 17:06:52.814386  1250 layer_factory.hpp:77] Creating layer res4b5_relu
I1014 17:06:52.814398  1250 net.cpp:86] Creating Layer res4b5_relu
I1014 17:06:52.814402  1250 net.cpp:408] res4b5_relu <- res4b5
I1014 17:06:52.814409  1250 net.cpp:369] res4b5_relu -> res4b5 (in-place)
I1014 17:06:52.815279  1250 net.cpp:124] Setting up res4b5_relu
I1014 17:06:52.815289  1250 net.cpp:131] Top shape: 1 1024 14 14 (200704)
I1014 17:06:52.815292  1250 net.cpp:139] Memory required for data: 218968076
I1014 17:06:52.815296  1250 layer_factory.hpp:77] Creating layer res4b5_res4b5_relu_0_split
I1014 17:06:52.815304  1250 net.cpp:86] Creating Layer res4b5_res4b5_relu_0_split
I1014 17:06:52.815307  1250 net.cpp:408] res4b5_res4b5_relu_0_split <- res4b5
I1014 17:06:52.815312  1250 net.cpp:382] res4b5_res4b5_relu_0_split -> res4b5_res4b5_relu_0_split_0
I1014 17:06:52.815320  1250 net.cpp:382] res4b5_res4b5_relu_0_split -> res4b5_res4b5_relu_0_split_1
I1014 17:06:52.815376  1250 net.cpp:124] Setting up res4b5_res4b5_relu_0_split
I1014 17:06:52.815382  1250 net.cpp:131] Top shape: 1 1024 14 14 (200704)
I1014 17:06:52.815387  1250 net.cpp:131] Top shape: 1 1024 14 14 (200704)
I1014 17:06:52.815388  1250 net.cpp:139] Memory required for data: 220573708
I1014 17:06:52.815392  1250 layer_factory.hpp:77] Creating layer res4b6_branch2a
I1014 17:06:52.815400  1250 net.cpp:86] Creating Layer res4b6_branch2a
I1014 17:06:52.815403  1250 net.cpp:408] res4b6_branch2a <- res4b5_res4b5_relu_0_split_0
I1014 17:06:52.815408  1250 net.cpp:382] res4b6_branch2a -> res4b6_branch2a
I1014 17:06:52.817898  1250 net.cpp:124] Setting up res4b6_branch2a
I1014 17:06:52.817914  1250 net.cpp:131] Top shape: 1 256 14 14 (50176)
I1014 17:06:52.817917  1250 net.cpp:139] Memory required for data: 220774412
I1014 17:06:52.817929  1250 layer_factory.hpp:77] Creating layer bn4b6_branch2a
I1014 17:06:52.817945  1250 net.cpp:86] Creating Layer bn4b6_branch2a
I1014 17:06:52.817948  1250 net.cpp:408] bn4b6_branch2a <- res4b6_branch2a
I1014 17:06:52.817955  1250 net.cpp:369] bn4b6_branch2a -> res4b6_branch2a (in-place)
I1014 17:06:52.818284  1250 net.cpp:124] Setting up bn4b6_branch2a
I1014 17:06:52.818292  1250 net.cpp:131] Top shape: 1 256 14 14 (50176)
I1014 17:06:52.818295  1250 net.cpp:139] Memory required for data: 220975116
I1014 17:06:52.818302  1250 layer_factory.hpp:77] Creating layer scale4b6_branch2a
I1014 17:06:52.818310  1250 net.cpp:86] Creating Layer scale4b6_branch2a
I1014 17:06:52.818315  1250 net.cpp:408] scale4b6_branch2a <- res4b6_branch2a
I1014 17:06:52.818323  1250 net.cpp:369] scale4b6_branch2a -> res4b6_branch2a (in-place)
I1014 17:06:52.818377  1250 layer_factory.hpp:77] Creating layer scale4b6_branch2a
I1014 17:06:52.818573  1250 net.cpp:124] Setting up scale4b6_branch2a
I1014 17:06:52.818583  1250 net.cpp:131] Top shape: 1 256 14 14 (50176)
I1014 17:06:52.818584  1250 net.cpp:139] Memory required for data: 221175820
I1014 17:06:52.818590  1250 layer_factory.hpp:77] Creating layer res4b6_branch2a_relu
I1014 17:06:52.818598  1250 net.cpp:86] Creating Layer res4b6_branch2a_relu
I1014 17:06:52.818601  1250 net.cpp:408] res4b6_branch2a_relu <- res4b6_branch2a
I1014 17:06:52.818605  1250 net.cpp:369] res4b6_branch2a_relu -> res4b6_branch2a (in-place)
I1014 17:06:52.819473  1250 net.cpp:124] Setting up res4b6_branch2a_relu
I1014 17:06:52.819488  1250 net.cpp:131] Top shape: 1 256 14 14 (50176)
I1014 17:06:52.819494  1250 net.cpp:139] Memory required for data: 221376524
I1014 17:06:52.819499  1250 layer_factory.hpp:77] Creating layer res4b6_branch2b
I1014 17:06:52.819517  1250 net.cpp:86] Creating Layer res4b6_branch2b
I1014 17:06:52.819525  1250 net.cpp:408] res4b6_branch2b <- res4b6_branch2a
I1014 17:06:52.819535  1250 net.cpp:382] res4b6_branch2b -> res4b6_branch2b
I1014 17:06:52.827677  1250 net.cpp:124] Setting up res4b6_branch2b
I1014 17:06:52.827738  1250 net.cpp:131] Top shape: 1 256 14 14 (50176)
I1014 17:06:52.827744  1250 net.cpp:139] Memory required for data: 221577228
I1014 17:06:52.827811  1250 layer_factory.hpp:77] Creating layer bn4b6_branch2b
I1014 17:06:52.827854  1250 net.cpp:86] Creating Layer bn4b6_branch2b
I1014 17:06:52.827864  1250 net.cpp:408] bn4b6_branch2b <- res4b6_branch2b
I1014 17:06:52.827879  1250 net.cpp:369] bn4b6_branch2b -> res4b6_branch2b (in-place)
I1014 17:06:52.828480  1250 net.cpp:124] Setting up bn4b6_branch2b
I1014 17:06:52.828495  1250 net.cpp:131] Top shape: 1 256 14 14 (50176)
I1014 17:06:52.828501  1250 net.cpp:139] Memory required for data: 221777932
I1014 17:06:52.828519  1250 layer_factory.hpp:77] Creating layer scale4b6_branch2b
I1014 17:06:52.828534  1250 net.cpp:86] Creating Layer scale4b6_branch2b
I1014 17:06:52.828541  1250 net.cpp:408] scale4b6_branch2b <- res4b6_branch2b
I1014 17:06:52.828554  1250 net.cpp:369] scale4b6_branch2b -> res4b6_branch2b (in-place)
I1014 17:06:52.828655  1250 layer_factory.hpp:77] Creating layer scale4b6_branch2b
I1014 17:06:52.828956  1250 net.cpp:124] Setting up scale4b6_branch2b
I1014 17:06:52.828970  1250 net.cpp:131] Top shape: 1 256 14 14 (50176)
I1014 17:06:52.828976  1250 net.cpp:139] Memory required for data: 221978636
I1014 17:06:52.828989  1250 layer_factory.hpp:77] Creating layer res4b6_branch2b_relu
I1014 17:06:52.829018  1250 net.cpp:86] Creating Layer res4b6_branch2b_relu
I1014 17:06:52.829025  1250 net.cpp:408] res4b6_branch2b_relu <- res4b6_branch2b
I1014 17:06:52.829035  1250 net.cpp:369] res4b6_branch2b_relu -> res4b6_branch2b (in-place)
I1014 17:06:52.829516  1250 net.cpp:124] Setting up res4b6_branch2b_relu
I1014 17:06:52.829535  1250 net.cpp:131] Top shape: 1 256 14 14 (50176)
I1014 17:06:52.829541  1250 net.cpp:139] Memory required for data: 222179340
I1014 17:06:52.829548  1250 layer_factory.hpp:77] Creating layer res4b6_branch2c
I1014 17:06:52.829578  1250 net.cpp:86] Creating Layer res4b6_branch2c
I1014 17:06:52.829586  1250 net.cpp:408] res4b6_branch2c <- res4b6_branch2b
I1014 17:06:52.829597  1250 net.cpp:382] res4b6_branch2c -> res4b6_branch2c
I1014 17:06:52.835280  1250 net.cpp:124] Setting up res4b6_branch2c
I1014 17:06:52.835325  1250 net.cpp:131] Top shape: 1 1024 14 14 (200704)
I1014 17:06:52.835340  1250 net.cpp:139] Memory required for data: 222982156
I1014 17:06:52.835358  1250 layer_factory.hpp:77] Creating layer bn4b6_branch2c
I1014 17:06:52.835372  1250 net.cpp:86] Creating Layer bn4b6_branch2c
I1014 17:06:52.835381  1250 net.cpp:408] bn4b6_branch2c <- res4b6_branch2c
I1014 17:06:52.835402  1250 net.cpp:369] bn4b6_branch2c -> res4b6_branch2c (in-place)
I1014 17:06:52.835973  1250 net.cpp:124] Setting up bn4b6_branch2c
I1014 17:06:52.835997  1250 net.cpp:131] Top shape: 1 1024 14 14 (200704)
I1014 17:06:52.836014  1250 net.cpp:139] Memory required for data: 223784972
I1014 17:06:52.836030  1250 layer_factory.hpp:77] Creating layer scale4b6_branch2c
I1014 17:06:52.836046  1250 net.cpp:86] Creating Layer scale4b6_branch2c
I1014 17:06:52.836053  1250 net.cpp:408] scale4b6_branch2c <- res4b6_branch2c
I1014 17:06:52.836062  1250 net.cpp:369] scale4b6_branch2c -> res4b6_branch2c (in-place)
I1014 17:06:52.836159  1250 layer_factory.hpp:77] Creating layer scale4b6_branch2c
I1014 17:06:52.836448  1250 net.cpp:124] Setting up scale4b6_branch2c
I1014 17:06:52.836462  1250 net.cpp:131] Top shape: 1 1024 14 14 (200704)
I1014 17:06:52.836467  1250 net.cpp:139] Memory required for data: 224587788
I1014 17:06:52.836478  1250 layer_factory.hpp:77] Creating layer res4b6
I1014 17:06:52.836491  1250 net.cpp:86] Creating Layer res4b6
I1014 17:06:52.836498  1250 net.cpp:408] res4b6 <- res4b5_res4b5_relu_0_split_1
I1014 17:06:52.836508  1250 net.cpp:408] res4b6 <- res4b6_branch2c
I1014 17:06:52.836519  1250 net.cpp:382] res4b6 -> res4b6
I1014 17:06:52.836602  1250 net.cpp:124] Setting up res4b6
I1014 17:06:52.836627  1250 net.cpp:131] Top shape: 1 1024 14 14 (200704)
I1014 17:06:52.836639  1250 net.cpp:139] Memory required for data: 225390604
I1014 17:06:52.836650  1250 layer_factory.hpp:77] Creating layer res4b6_relu
I1014 17:06:52.836670  1250 net.cpp:86] Creating Layer res4b6_relu
I1014 17:06:52.836683  1250 net.cpp:408] res4b6_relu <- res4b6
I1014 17:06:52.836702  1250 net.cpp:369] res4b6_relu -> res4b6 (in-place)
I1014 17:06:52.838224  1250 net.cpp:124] Setting up res4b6_relu
I1014 17:06:52.838254  1250 net.cpp:131] Top shape: 1 1024 14 14 (200704)
I1014 17:06:52.838266  1250 net.cpp:139] Memory required for data: 226193420
I1014 17:06:52.838306  1250 layer_factory.hpp:77] Creating layer res4b6_res4b6_relu_0_split
I1014 17:06:52.838341  1250 net.cpp:86] Creating Layer res4b6_res4b6_relu_0_split
I1014 17:06:52.838353  1250 net.cpp:408] res4b6_res4b6_relu_0_split <- res4b6
I1014 17:06:52.838368  1250 net.cpp:382] res4b6_res4b6_relu_0_split -> res4b6_res4b6_relu_0_split_0
I1014 17:06:52.838392  1250 net.cpp:382] res4b6_res4b6_relu_0_split -> res4b6_res4b6_relu_0_split_1
I1014 17:06:52.838568  1250 net.cpp:124] Setting up res4b6_res4b6_relu_0_split
I1014 17:06:52.838583  1250 net.cpp:131] Top shape: 1 1024 14 14 (200704)
I1014 17:06:52.838593  1250 net.cpp:131] Top shape: 1 1024 14 14 (200704)
I1014 17:06:52.838598  1250 net.cpp:139] Memory required for data: 227799052
I1014 17:06:52.838605  1250 layer_factory.hpp:77] Creating layer res4b7_branch2a
I1014 17:06:52.838629  1250 net.cpp:86] Creating Layer res4b7_branch2a
I1014 17:06:52.838636  1250 net.cpp:408] res4b7_branch2a <- res4b6_res4b6_relu_0_split_0
I1014 17:06:52.838650  1250 net.cpp:382] res4b7_branch2a -> res4b7_branch2a
I1014 17:06:52.845739  1250 net.cpp:124] Setting up res4b7_branch2a
I1014 17:06:52.845777  1250 net.cpp:131] Top shape: 1 256 14 14 (50176)
…
I1014 18:27:48.338214  1250 net.cpp:382] res4b20_res4b20_relu_0_split -> res4b20_res4b20_relu_0_split_0
I1014 18:27:48.338222  1250 net.cpp:382] res4b20_res4b20_relu_0_split -> res4b20_res4b20_relu_0_split_1
I1014 18:27:48.338280  1250 net.cpp:124] Setting up res4b20_res4b20_relu_0_split
I1014 18:27:48.338287  1250 net.cpp:131] Top shape: 1 1024 14 14 (200704)
I1014 18:27:48.338291  1250 net.cpp:131] Top shape: 1 1024 14 14 (200704)
I1014 18:27:48.338295  1250 net.cpp:139] Memory required for data: 328953888
I1014 18:27:48.338299  1250 layer_factory.hpp:77] Creating layer res4b21_branch2a
I1014 18:27:48.338310  1250 net.cpp:86] Creating Layer res4b21_branch2a
I1014 18:27:48.338315  1250 net.cpp:408] res4b21_branch2a <- res4b20_res4b20_relu_0_split_0
I1014 18:27:48.338320  1250 net.cpp:382] res4b21_branch2a -> res4b21_branch2a
I1014 18:27:48.341872  1250 net.cpp:124] Setting up res4b21_branch2a
I1014 18:27:48.341891  1250 net.cpp:131] Top shape: 1 256 14 14 (50176)
I1014 18:27:48.341895  1250 net.cpp:139] Memory required for data: 329154592
I1014 18:27:48.341902  1250 layer_factory.hpp:77] Creating layer bn4b21_branch2a
I1014 18:27:48.341910  1250 net.cpp:86] Creating Layer bn4b21_branch2a
I1014 18:27:48.341915  1250 net.cpp:408] bn4b21_branch2a <- res4b21_branch2a
I1014 18:27:48.341923  1250 net.cpp:369] bn4b21_branch2a -> res4b21_branch2a (in-place)
I1014 18:27:48.342211  1250 net.cpp:124] Setting up bn4b21_branch2a
I1014 18:27:48.342219  1250 net.cpp:131] Top shape: 1 256 14 14 (50176)
I1014 18:27:48.342223  1250 net.cpp:139] Memory required for data: 329355296
I1014 18:27:48.342231  1250 layer_factory.hpp:77] Creating layer scale4b21_branch2a
I1014 18:27:48.342242  1250 net.cpp:86] Creating Layer scale4b21_branch2a
I1014 18:27:48.342247  1250 net.cpp:408] scale4b21_branch2a <- res4b21_branch2a
I1014 18:27:48.342253  1250 net.cpp:369] scale4b21_branch2a -> res4b21_branch2a (in-place)
I1014 18:27:48.342306  1250 layer_factory.hpp:77] Creating layer scale4b21_branch2a
I1014 18:27:48.342470  1250 net.cpp:124] Setting up scale4b21_branch2a
I1014 18:27:48.342479  1250 net.cpp:131] Top shape: 1 256 14 14 (50176)
I1014 18:27:48.342485  1250 net.cpp:139] Memory required for data: 329556000
I1014 18:27:48.342495  1250 layer_factory.hpp:77] Creating layer res4b21_branch2a_relu
I1014 18:27:48.342509  1250 net.cpp:86] Creating Layer res4b21_branch2a_relu
I1014 18:27:48.342516  1250 net.cpp:408] res4b21_branch2a_relu <- res4b21_branch2a
I1014 18:27:48.342522  1250 net.cpp:369] res4b21_branch2a_relu -> res4b21_branch2a (in-place)
I1014 18:27:48.344856  1250 net.cpp:124] Setting up res4b21_branch2a_relu
I1014 18:27:48.344872  1250 net.cpp:131] Top shape: 1 256 14 14 (50176)
I1014 18:27:48.344877  1250 net.cpp:139] Memory required for data: 329756704
I1014 18:27:48.344882  1250 layer_factory.hpp:77] Creating layer res4b21_branch2b
I1014 18:27:48.344893  1250 net.cpp:86] Creating Layer res4b21_branch2b
I1014 18:27:48.344899  1250 net.cpp:408] res4b21_branch2b <- res4b21_branch2a
I1014 18:27:48.344907  1250 net.cpp:382] res4b21_branch2b -> res4b21_branch2b
I1014 18:27:48.349681  1250 net.cpp:124] Setting up res4b21_branch2b
I1014 18:27:48.349704  1250 net.cpp:131] Top shape: 1 256 14 14 (50176)
I1014 18:27:48.349709  1250 net.cpp:139] Memory required for data: 329957408
I1014 18:27:48.349716  1250 layer_factory.hpp:77] Creating layer bn4b21_branch2b
I1014 18:27:48.349728  1250 net.cpp:86] Creating Layer bn4b21_branch2b
I1014 18:27:48.349735  1250 net.cpp:408] bn4b21_branch2b <- res4b21_branch2b
I1014 18:27:48.349740  1250 net.cpp:369] bn4b21_branch2b -> res4b21_branch2b (in-place)
I1014 18:27:48.350042  1250 net.cpp:124] Setting up bn4b21_branch2b
I1014 18:27:48.350050  1250 net.cpp:131] Top shape: 1 256 14 14 (50176)
I1014 18:27:48.350054  1250 net.cpp:139] Memory required for data: 330158112
I1014 18:27:48.350064  1250 layer_factory.hpp:77] Creating layer scale4b21_branch2b
I1014 18:27:48.350075  1250 net.cpp:86] Creating Layer scale4b21_branch2b
I1014 18:27:48.350080  1250 net.cpp:408] scale4b21_branch2b <- res4b21_branch2b
I1014 18:27:48.350087  1250 net.cpp:369] scale4b21_branch2b -> res4b21_branch2b (in-place)
I1014 18:27:48.350145  1250 layer_factory.hpp:77] Creating layer scale4b21_branch2b
I1014 18:27:48.350304  1250 net.cpp:124] Setting up scale4b21_branch2b
I1014 18:27:48.350312  1250 net.cpp:131] Top shape: 1 256 14 14 (50176)
I1014 18:27:48.350317  1250 net.cpp:139] Memory required for data: 330358816
I1014 18:27:48.350323  1250 layer_factory.hpp:77] Creating layer res4b21_branch2b_relu
I1014 18:27:48.350332  1250 net.cpp:86] Creating Layer res4b21_branch2b_relu
I1014 18:27:48.350335  1250 net.cpp:408] res4b21_branch2b_relu <- res4b21_branch2b
I1014 18:27:48.350344  1250 net.cpp:369] res4b21_branch2b_relu -> res4b21_branch2b (in-place)
I1014 18:27:48.350678  1250 net.cpp:124] Setting up res4b21_branch2b_relu
I1014 18:27:48.350689  1250 net.cpp:131] Top shape: 1 256 14 14 (50176)
I1014 18:27:48.350693  1250 net.cpp:139] Memory required for data: 330559520
I1014 18:27:48.350697  1250 layer_factory.hpp:77] Creating layer res4b21_branch2c
I1014 18:27:48.350710  1250 net.cpp:86] Creating Layer res4b21_branch2c
I1014 18:27:48.350715  1250 net.cpp:408] res4b21_branch2c <- res4b21_branch2b
I1014 18:27:48.350721  1250 net.cpp:382] res4b21_branch2c -> res4b21_branch2c
I1014 18:27:48.354758  1250 net.cpp:124] Setting up res4b21_branch2c
I1014 18:27:48.354776  1250 net.cpp:131] Top shape: 1 1024 14 14 (200704)
I1014 18:27:48.354781  1250 net.cpp:139] Memory required for data: 331362336
I1014 18:27:48.354789  1250 layer_factory.hpp:77] Creating layer bn4b21_branch2c
I1014 18:27:48.354800  1250 net.cpp:86] Creating Layer bn4b21_branch2c
I1014 18:27:48.354806  1250 net.cpp:408] bn4b21_branch2c <- res4b21_branch2c
I1014 18:27:48.354813  1250 net.cpp:369] bn4b21_branch2c -> res4b21_branch2c (in-place)
I1014 18:27:48.355105  1250 net.cpp:124] Setting up bn4b21_branch2c
I1014 18:27:48.355115  1250 net.cpp:131] Top shape: 1 1024 14 14 (200704)
I1014 18:27:48.355121  1250 net.cpp:139] Memory required for data: 332165152
I1014 18:27:48.355134  1250 layer_factory.hpp:77] Creating layer scale4b21_branch2c
I1014 18:27:48.355144  1250 net.cpp:86] Creating Layer scale4b21_branch2c
I1014 18:27:48.355149  1250 net.cpp:408] scale4b21_branch2c <- res4b21_branch2c
I1014 18:27:48.355162  1250 net.cpp:369] scale4b21_branch2c -> res4b21_branch2c (in-place)
I1014 18:27:48.355212  1250 layer_factory.hpp:77] Creating layer scale4b21_branch2c
I1014 18:27:48.355386  1250 net.cpp:124] Setting up scale4b21_branch2c
I1014 18:27:48.355397  1250 net.cpp:131] Top shape: 1 1024 14 14 (200704)
I1014 18:27:48.355403  1250 net.cpp:139] Memory required for data: 332967968
I1014 18:27:48.355413  1250 layer_factory.hpp:77] Creating layer res4b21
I1014 18:27:48.355422  1250 net.cpp:86] Creating Layer res4b21
I1014 18:27:48.355427  1250 net.cpp:408] res4b21 <- res4b20_res4b20_relu_0_split_1
I1014 18:27:48.355433  1250 net.cpp:408] res4b21 <- res4b21_branch2c
I1014 18:27:48.355439  1250 net.cpp:382] res4b21 -> res4b21
I1014 18:27:48.355475  1250 net.cpp:124] Setting up res4b21
I1014 18:27:48.355484  1250 net.cpp:131] Top shape: 1 1024 14 14 (200704)
I1014 18:27:48.355486  1250 net.cpp:139] Memory required for data: 333770784
I1014 18:27:48.355495  1250 layer_factory.hpp:77] Creating layer res4b21_relu
I1014 18:27:48.355502  1250 net.cpp:86] Creating Layer res4b21_relu
I1014 18:27:48.355507  1250 net.cpp:408] res4b21_relu <- res4b21
I1014 18:27:48.355514  1250 net.cpp:369] res4b21_relu -> res4b21 (in-place)
I1014 18:27:48.355864  1250 net.cpp:124] Setting up res4b21_relu
I1014 18:27:48.355888  1250 net.cpp:131] Top shape: 1 1024 14 14 (200704)
I1014 18:27:48.355896  1250 net.cpp:139] Memory required for data: 334573600
I1014 18:27:48.355904  1250 layer_factory.hpp:77] Creating layer res4b21_res4b21_relu_0_split
I1014 18:27:48.355914  1250 net.cpp:86] Creating Layer res4b21_res4b21_relu_0_split
I1014 18:27:48.355919  1250 net.cpp:408] res4b21_res4b21_relu_0_split <- res4b21
I1014 18:27:48.355926  1250 net.cpp:382] res4b21_res4b21_relu_0_split -> res4b21_res4b21_relu_0_split_0
I1014 18:27:48.355934  1250 net.cpp:382] res4b21_res4b21_relu_0_split -> res4b21_res4b21_relu_0_split_1
I1014 18:27:48.356000  1250 net.cpp:124] Setting up res4b21_res4b21_relu_0_split
I1014 18:27:48.356007  1250 net.cpp:131] Top shape: 1 1024 14 14 (200704)
I1014 18:27:48.356012  1250 net.cpp:131] Top shape: 1 1024 14 14 (200704)
I1014 18:27:48.356015  1250 net.cpp:139] Memory required for data: 336179232
I1014 18:27:48.356019  1250 layer_factory.hpp:77] Creating layer res4b22_branch2a
I1014 18:27:48.356030  1250 net.cpp:86] Creating Layer res4b22_branch2a
I1014 18:27:48.356035  1250 net.cpp:408] res4b22_branch2a <- res4b21_res4b21_relu_0_split_0
I1014 18:27:48.356042  1250 net.cpp:382] res4b22_branch2a -> res4b22_branch2a
I1014 18:27:48.359629  1250 net.cpp:124] Setting up res4b22_branch2a
I1014 18:27:48.359647  1250 net.cpp:131] Top shape: 1 256 14 14 (50176)
I1014 18:27:48.359652  1250 net.cpp:139] Memory required for data: 336379936
I1014 18:27:48.359659  1250 layer_factory.hpp:77] Creating layer bn4b22_branch2a
I1014 18:27:48.359669  1250 net.cpp:86] Creating Layer bn4b22_branch2a
I1014 18:27:48.359674  1250 net.cpp:408] bn4b22_branch2a <- res4b22_branch2a
I1014 18:27:48.359681  1250 net.cpp:369] bn4b22_branch2a -> res4b22_branch2a (in-place)
I1014 18:27:48.359988  1250 net.cpp:124] Setting up bn4b22_branch2a
I1014 18:27:48.359997  1250 net.cpp:131] Top shape: 1 256 14 14 (50176)
I1014 18:27:48.360002  1250 net.cpp:139] Memory required for data: 336580640
I1014 18:27:48.360010  1250 layer_factory.hpp:77] Creating layer scale4b22_branch2a
I1014 18:27:48.360019  1250 net.cpp:86] Creating Layer scale4b22_branch2a
I1014 18:27:48.360024  1250 net.cpp:408] scale4b22_branch2a <- res4b22_branch2a
I1014 18:27:48.360033  1250 net.cpp:369] scale4b22_branch2a -> res4b22_branch2a (in-place)
I1014 18:27:48.360090  1250 layer_factory.hpp:77] Creating layer scale4b22_branch2a
I1014 18:27:48.360260  1250 net.cpp:124] Setting up scale4b22_branch2a
I1014 18:27:48.360268  1250 net.cpp:131] Top shape: 1 256 14 14 (50176)
I1014 18:27:48.360272  1250 net.cpp:139] Memory required for data: 336781344
I1014 18:27:48.360278  1250 layer_factory.hpp:77] Creating layer res4b22_branch2a_relu
I1014 18:27:48.360285  1250 net.cpp:86] Creating Layer res4b22_branch2a_relu
I1014 18:27:48.360291  1250 net.cpp:408] res4b22_branch2a_relu <- res4b22_branch2a
I1014 18:27:48.360296  1250 net.cpp:369] res4b22_branch2a_relu -> res4b22_branch2a (in-place)
I1014 18:27:48.361253  1250 net.cpp:124] Setting up res4b22_branch2a_relu
I1014 18:27:48.361268  1250 net.cpp:131] Top shape: 1 256 14 14 (50176)
I1014 18:27:48.361271  1250 net.cpp:139] Memory required for data: 336982048
I1014 18:27:48.361275  1250 layer_factory.hpp:77] Creating layer res4b22_branch2b
I1014 18:27:48.361287  1250 net.cpp:86] Creating Layer res4b22_branch2b
I1014 18:27:48.361292  1250 net.cpp:408] res4b22_branch2b <- res4b22_branch2a
I1014 18:27:48.361300  1250 net.cpp:382] res4b22_branch2b -> res4b22_branch2b
I1014 18:27:48.366919  1250 net.cpp:124] Setting up res4b22_branch2b
I1014 18:27:48.366938  1250 net.cpp:131] Top shape: 1 256 14 14 (50176)
I1014 18:27:48.366942  1250 net.cpp:139] Memory required for data: 337182752
I1014 18:27:48.366955  1250 layer_factory.hpp:77] Creating layer bn4b22_branch2b
I1014 18:27:48.366967  1250 net.cpp:86] Creating Layer bn4b22_branch2b
I1014 18:27:48.366973  1250 net.cpp:408] bn4b22_branch2b <- res4b22_branch2b
I1014 18:27:48.366981  1250 net.cpp:369] bn4b22_branch2b -> res4b22_branch2b (in-place)
I1014 18:27:48.367281  1250 net.cpp:124] Setting up bn4b22_branch2b
I1014 18:27:48.367290  1250 net.cpp:131] Top shape: 1 256 14 14 (50176)
I1014 18:27:48.367293  1250 net.cpp:139] Memory required for data: 337383456
I1014 18:27:48.367302  1250 layer_factory.hpp:77] Creating layer scale4b22_branch2b
I1014 18:27:48.367311  1250 net.cpp:86] Creating Layer scale4b22_branch2b
I1014 18:27:48.367316  1250 net.cpp:408] scale4b22_branch2b <- res4b22_branch2b
I1014 18:27:48.367322  1250 net.cpp:369] scale4b22_branch2b -> res4b22_branch2b (in-place)
I1014 18:27:48.367384  1250 layer_factory.hpp:77] Creating layer scale4b22_branch2b
I1014 18:27:48.367557  1250 net.cpp:124] Setting up scale4b22_branch2b
I1014 18:27:48.367578  1250 net.cpp:131] Top shape: 1 256 14 14 (50176)
I1014 18:27:48.367583  1250 net.cpp:139] Memory required for data: 337584160
I1014 18:27:48.367591  1250 layer_factory.hpp:77] Creating layer res4b22_branch2b_relu
I1014 18:27:48.367599  1250 net.cpp:86] Creating Layer res4b22_branch2b_relu
I1014 18:27:48.367604  1250 net.cpp:408] res4b22_branch2b_relu <- res4b22_branch2b
I1014 18:27:48.367609  1250 net.cpp:369] res4b22_branch2b_relu -> res4b22_branch2b (in-place)
I1014 18:27:48.367966  1250 net.cpp:124] Setting up res4b22_branch2b_relu
I1014 18:27:48.367977  1250 net.cpp:131] Top shape: 1 256 14 14 (50176)
I1014 18:27:48.367981  1250 net.cpp:139] Memory required for data: 337784864
I1014 18:27:48.367985  1250 layer_factory.hpp:77] Creating layer res4b22_branch2c
I1014 18:27:48.367996  1250 net.cpp:86] Creating Layer res4b22_branch2c
I1014 18:27:48.368001  1250 net.cpp:408] res4b22_branch2c <- res4b22_branch2b
I1014 18:27:48.368010  1250 net.cpp:382] res4b22_branch2c -> res4b22_branch2c
I1014 18:27:48.371577  1250 net.cpp:124] Setting up res4b22_branch2c
I1014 18:27:48.371595  1250 net.cpp:131] Top shape: 1 1024 14 14 (200704)
I1014 18:27:48.371600  1250 net.cpp:139] Memory required for data: 338587680
I1014 18:27:48.371606  1250 layer_factory.hpp:77] Creating layer bn4b22_branch2c
I1014 18:27:48.371619  1250 net.cpp:86] Creating Layer bn4b22_branch2c
I1014 18:27:48.371625  1250 net.cpp:408] bn4b22_branch2c <- res4b22_branch2c
I1014 18:27:48.371632  1250 net.cpp:369] bn4b22_branch2c -> res4b22_branch2c (in-place)
I1014 18:27:48.371949  1250 net.cpp:124] Setting up bn4b22_branch2c
I1014 18:27:48.371958  1250 net.cpp:131] Top shape: 1 1024 14 14 (200704)
I1014 18:27:48.371963  1250 net.cpp:139] Memory required for data: 339390496
I1014 18:27:48.371970  1250 layer_factory.hpp:77] Creating layer scale4b22_branch2c
I1014 18:27:48.371981  1250 net.cpp:86] Creating Layer scale4b22_branch2c
I1014 18:27:48.371986  1250 net.cpp:408] scale4b22_branch2c <- res4b22_branch2c
I1014 18:27:48.371994  1250 net.cpp:369] scale4b22_branch2c -> res4b22_branch2c (in-place)
I1014 18:27:48.372045  1250 layer_factory.hpp:77] Creating layer scale4b22_branch2c
I1014 18:27:48.372220  1250 net.cpp:124] Setting up scale4b22_branch2c
I1014 18:27:48.372227  1250 net.cpp:131] Top shape: 1 1024 14 14 (200704)
I1014 18:27:48.372231  1250 net.cpp:139] Memory required for data: 340193312
I1014 18:27:48.372237  1250 layer_factory.hpp:77] Creating layer res4b22
I1014 18:27:48.372246  1250 net.cpp:86] Creating Layer res4b22
I1014 18:27:48.372251  1250 net.cpp:408] res4b22 <- res4b21_res4b21_relu_0_split_1
I1014 18:27:48.372256  1250 net.cpp:408] res4b22 <- res4b22_branch2c
I1014 18:27:48.372265  1250 net.cpp:382] res4b22 -> res4b22
I1014 18:27:48.372305  1250 net.cpp:124] Setting up res4b22
I1014 18:27:48.372313  1250 net.cpp:131] Top shape: 1 1024 14 14 (200704)
I1014 18:27:48.372316  1250 net.cpp:139] Memory required for data: 340996128
I1014 18:27:48.372320  1250 layer_factory.hpp:77] Creating layer res4b22_relu
I1014 18:27:48.372336  1250 net.cpp:86] Creating Layer res4b22_relu
I1014 18:27:48.372341  1250 net.cpp:408] res4b22_relu <- res4b22
I1014 18:27:48.372347  1250 net.cpp:369] res4b22_relu -> res4b22 (in-place)
I1014 18:27:48.372684  1250 net.cpp:124] Setting up res4b22_relu
I1014 18:27:48.372694  1250 net.cpp:131] Top shape: 1 1024 14 14 (200704)
I1014 18:27:48.372699  1250 net.cpp:139] Memory required for data: 341798944
I1014 18:27:48.372702  1250 layer_factory.hpp:77] Creating layer roi_pool5
I1014 18:27:48.372714  1250 net.cpp:86] Creating Layer roi_pool5
I1014 18:27:48.372719  1250 net.cpp:408] roi_pool5 <- res4b22
I1014 18:27:48.372727  1250 net.cpp:408] roi_pool5 <- rois
I1014 18:27:48.372735  1250 net.cpp:382] roi_pool5 -> roipool5
I1014 18:27:48.372745  1250 roi_pooling_layer.cpp:25] Spatial scale: 0.0625
I1014 18:27:48.372822  1250 net.cpp:124] Setting up roi_pool5
I1014 18:27:48.372830  1250 net.cpp:131] Top shape: 1 1024 14 14 (200704)
I1014 18:27:48.372833  1250 net.cpp:139] Memory required for data: 342601760
I1014 18:27:48.372838  1250 layer_factory.hpp:77] Creating layer roipool5_roi_pool5_0_split
I1014 18:27:48.372845  1250 net.cpp:86] Creating Layer roipool5_roi_pool5_0_split
I1014 18:27:48.372849  1250 net.cpp:408] roipool5_roi_pool5_0_split <- roipool5
I1014 18:27:48.372855  1250 net.cpp:382] roipool5_roi_pool5_0_split -> roipool5_roi_pool5_0_split_0
I1014 18:27:48.372864  1250 net.cpp:382] roipool5_roi_pool5_0_split -> roipool5_roi_pool5_0_split_1
I1014 18:27:48.372921  1250 net.cpp:124] Setting up roipool5_roi_pool5_0_split
I1014 18:27:48.372927  1250 net.cpp:131] Top shape: 1 1024 14 14 (200704)
I1014 18:27:48.372932  1250 net.cpp:131] Top shape: 1 1024 14 14 (200704)
I1014 18:27:48.372936  1250 net.cpp:139] Memory required for data: 344207392
I1014 18:27:48.372939  1250 layer_factory.hpp:77] Creating layer res5a_branch1
I1014 18:27:48.372952  1250 net.cpp:86] Creating Layer res5a_branch1
I1014 18:27:48.372957  1250 net.cpp:408] res5a_branch1 <- roipool5_roi_pool5_0_split_0
I1014 18:27:48.372964  1250 net.cpp:382] res5a_branch1 -> res5a_branch1
I1014 18:27:48.381345  1250 net.cpp:124] Setting up res5a_branch1
I1014 18:27:48.381373  1250 net.cpp:131] Top shape: 1 2048 14 14 (401408)
I1014 18:27:48.381378  1250 net.cpp:139] Memory required for data: 345813024
I1014 18:27:48.381386  1250 layer_factory.hpp:77] Creating layer bn5a_branch1
I1014 18:27:48.381402  1250 net.cpp:86] Creating Layer bn5a_branch1
I1014 18:27:48.381407  1250 net.cpp:408] bn5a_branch1 <- res5a_branch1
I1014 18:27:48.381417  1250 net.cpp:369] bn5a_branch1 -> res5a_branch1 (in-place)
I1014 18:27:48.381927  1250 net.cpp:124] Setting up bn5a_branch1
I1014 18:27:48.381937  1250 net.cpp:131] Top shape: 1 2048 14 14 (401408)
I1014 18:27:48.381942  1250 net.cpp:139] Memory required for data: 347418656
I1014 18:27:48.381949  1250 layer_factory.hpp:77] Creating layer scale5a_branch1
I1014 18:27:48.381960  1250 net.cpp:86] Creating Layer scale5a_branch1
I1014 18:27:48.381965  1250 net.cpp:408] scale5a_branch1 <- res5a_branch1
I1014 18:27:48.381974  1250 net.cpp:369] scale5a_branch1 -> res5a_branch1 (in-place)
I1014 18:27:48.382118  1250 layer_factory.hpp:77] Creating layer scale5a_branch1
I1014 18:27:48.382392  1250 net.cpp:124] Setting up scale5a_branch1
I1014 18:27:48.382402  1250 net.cpp:131] Top shape: 1 2048 14 14 (401408)
I1014 18:27:48.382405  1250 net.cpp:139] Memory required for data: 349024288
I1014 18:27:48.382413  1250 layer_factory.hpp:77] Creating layer res5a_branch2a
I1014 18:27:48.382426  1250 net.cpp:86] Creating Layer res5a_branch2a
I1014 18:27:48.382432  1250 net.cpp:408] res5a_branch2a <- roipool5_roi_pool5_0_split_1
I1014 18:27:48.382441  1250 net.cpp:382] res5a_branch2a -> res5a_branch2a
I1014 18:27:48.386593  1250 net.cpp:124] Setting up res5a_branch2a
I1014 18:27:48.386611  1250 net.cpp:131] Top shape: 1 512 14 14 (100352)
I1014 18:27:48.386616  1250 net.cpp:139] Memory required for data: 349425696
I1014 18:27:48.386623  1250 layer_factory.hpp:77] Creating layer bn5a_branch2a
I1014 18:27:48.386633  1250 net.cpp:86] Creating Layer bn5a_branch2a
I1014 18:27:48.386646  1250 net.cpp:408] bn5a_branch2a <- res5a_branch2a
I1014 18:27:48.386654  1250 net.cpp:369] bn5a_branch2a -> res5a_branch2a (in-place)
I1014 18:27:48.386960  1250 net.cpp:124] Setting up bn5a_branch2a
I1014 18:27:48.386970  1250 net.cpp:131] Top shape: 1 512 14 14 (100352)
I1014 18:27:48.386973  1250 net.cpp:139] Memory required for data: 349827104
I1014 18:27:48.386981  1250 layer_factory.hpp:77] Creating layer scale5a_branch2a
I1014 18:27:48.386991  1250 net.cpp:86] Creating Layer scale5a_branch2a
I1014 18:27:48.386996  1250 net.cpp:408] scale5a_branch2a <- res5a_branch2a
I1014 18:27:48.387002  1250 net.cpp:369] scale5a_branch2a -> res5a_branch2a (in-place)
I1014 18:27:48.387058  1250 layer_factory.hpp:77] Creating layer scale5a_branch2a
I1014 18:27:48.387236  1250 net.cpp:124] Setting up scale5a_branch2a
I1014 18:27:48.387245  1250 net.cpp:131] Top shape: 1 512 14 14 (100352)
I1014 18:27:48.387248  1250 net.cpp:139] Memory required for data: 350228512
I1014 18:27:48.387255  1250 layer_factory.hpp:77] Creating layer res5a_branch2a_relu
I1014 18:27:48.387262  1250 net.cpp:86] Creating Layer res5a_branch2a_relu
I1014 18:27:48.387267  1250 net.cpp:408] res5a_branch2a_relu <- res5a_branch2a
I1014 18:27:48.387274  1250 net.cpp:369] res5a_branch2a_relu -> res5a_branch2a (in-place)
I1014 18:27:48.388785  1250 net.cpp:124] Setting up res5a_branch2a_relu
I1014 18:27:48.388805  1250 net.cpp:131] Top shape: 1 512 14 14 (100352)
I1014 18:27:48.388809  1250 net.cpp:139] Memory required for data: 350629920
I1014 18:27:48.388814  1250 layer_factory.hpp:77] Creating layer res5a_branch2b
I1014 18:27:48.388828  1250 net.cpp:86] Creating Layer res5a_branch2b
I1014 18:27:48.388833  1250 net.cpp:408] res5a_branch2b <- res5a_branch2a
I1014 18:27:48.388840  1250 net.cpp:382] res5a_branch2b -> res5a_branch2b
I1014 18:27:48.394999  1250 net.cpp:124] Setting up res5a_branch2b
I1014 18:27:48.395023  1250 net.cpp:131] Top shape: 1 512 14 14 (100352)
I1014 18:27:48.395027  1250 net.cpp:139] Memory required for data: 351031328
I1014 18:27:48.395035  1250 layer_factory.hpp:77] Creating layer bn5a_branch2b
I1014 18:27:48.395048  1250 net.cpp:86] Creating Layer bn5a_branch2b
I1014 18:27:48.395056  1250 net.cpp:408] bn5a_branch2b <- res5a_branch2b
I1014 18:27:48.395062  1250 net.cpp:369] bn5a_branch2b -> res5a_branch2b (in-place)
I1014 18:27:48.395366  1250 net.cpp:124] Setting up bn5a_branch2b
I1014 18:27:48.395375  1250 net.cpp:131] Top shape: 1 512 14 14 (100352)
I1014 18:27:48.395378  1250 net.cpp:139] Memory required for data: 351432736
I1014 18:27:48.395387  1250 layer_factory.hpp:77] Creating layer scale5a_branch2b
I1014 18:27:48.395397  1250 net.cpp:86] Creating Layer scale5a_branch2b
I1014 18:27:48.395401  1250 net.cpp:408] scale5a_branch2b <- res5a_branch2b
I1014 18:27:48.395407  1250 net.cpp:369] scale5a_branch2b -> res5a_branch2b (in-place)
I1014 18:27:48.395462  1250 layer_factory.hpp:77] Creating layer scale5a_branch2b
I1014 18:27:48.395654  1250 net.cpp:124] Setting up scale5a_branch2b
I1014 18:27:48.395665  1250 net.cpp:131] Top shape: 1 512 14 14 (100352)
I1014 18:27:48.395669  1250 net.cpp:139] Memory required for data: 351834144
I1014 18:27:48.395676  1250 layer_factory.hpp:77] Creating layer res5a_branch2b_relu
I1014 18:27:48.395685  1250 net.cpp:86] Creating Layer res5a_branch2b_relu
I1014 18:27:48.395689  1250 net.cpp:408] res5a_branch2b_relu <- res5a_branch2b
I1014 18:27:48.395695  1250 net.cpp:369] res5a_branch2b_relu -> res5a_branch2b (in-place)
I1014 18:27:48.396106  1250 net.cpp:124] Setting up res5a_branch2b_relu
I1014 18:27:48.396117  1250 net.cpp:131] Top shape: 1 512 14 14 (100352)
I1014 18:27:48.396121  1250 net.cpp:139] Memory required for data: 352235552
I1014 18:27:48.396126  1250 layer_factory.hpp:77] Creating layer res5a_branch2c
I1014 18:27:48.396136  1250 net.cpp:86] Creating Layer res5a_branch2c
I1014 18:27:48.396139  1250 net.cpp:408] res5a_branch2c <- res5a_branch2b
I1014 18:27:48.396147  1250 net.cpp:382] res5a_branch2c -> res5a_branch2c
I1014 18:27:48.402285  1250 net.cpp:124] Setting up res5a_branch2c
I1014 18:27:48.402315  1250 net.cpp:131] Top shape: 1 2048 14 14 (401408)
I1014 18:27:48.402320  1250 net.cpp:139] Memory required for data: 353841184
I1014 18:27:48.402329  1250 layer_factory.hpp:77] Creating layer bn5a_branch2c
I1014 18:27:48.402341  1250 net.cpp:86] Creating Layer bn5a_branch2c
I1014 18:27:48.402348  1250 net.cpp:408] bn5a_branch2c <- res5a_branch2c
I1014 18:27:48.402355  1250 net.cpp:369] bn5a_branch2c -> res5a_branch2c (in-place)
I1014 18:27:48.402834  1250 net.cpp:124] Setting up bn5a_branch2c
I1014 18:27:48.402848  1250 net.cpp:131] Top shape: 1 2048 14 14 (401408)
I1014 18:27:48.402854  1250 net.cpp:139] Memory required for data: 355446816
I1014 18:27:48.402865  1250 layer_factory.hpp:77] Creating layer scale5a_branch2c
I1014 18:27:48.402874  1250 net.cpp:86] Creating Layer scale5a_branch2c
I1014 18:27:48.402879  1250 net.cpp:408] scale5a_branch2c <- res5a_branch2c
I1014 18:27:48.402887  1250 net.cpp:369] scale5a_branch2c -> res5a_branch2c (in-place)
I1014 18:27:48.403005  1250 layer_factory.hpp:77] Creating layer scale5a_branch2c
I1014 18:27:48.403280  1250 net.cpp:124] Setting up scale5a_branch2c
I1014 18:27:48.403295  1250 net.cpp:131] Top shape: 1 2048 14 14 (401408)
I1014 18:27:48.403301  1250 net.cpp:139] Memory required for data: 357052448
I1014 18:27:48.403311  1250 layer_factory.hpp:77] Creating layer res5a
I1014 18:27:48.403321  1250 net.cpp:86] Creating Layer res5a
I1014 18:27:48.403326  1250 net.cpp:408] res5a <- res5a_branch1
I1014 18:27:48.403331  1250 net.cpp:408] res5a <- res5a_branch2c
I1014 18:27:48.403337  1250 net.cpp:382] res5a -> res5a
I1014 18:27:48.403376  1250 net.cpp:124] Setting up res5a
I1014 18:27:48.403383  1250 net.cpp:131] Top shape: 1 2048 14 14 (401408)
I1014 18:27:48.403388  1250 net.cpp:139] Memory required for data: 358658080
I1014 18:27:48.403391  1250 layer_factory.hpp:77] Creating layer res5a_relu
I1014 18:27:48.403400  1250 net.cpp:86] Creating Layer res5a_relu
I1014 18:27:48.403404  1250 net.cpp:408] res5a_relu <- res5a
I1014 18:27:48.403409  1250 net.cpp:369] res5a_relu -> res5a (in-place)
I1014 18:27:48.404414  1250 net.cpp:124] Setting up res5a_relu
I1014 18:27:48.404431  1250 net.cpp:131] Top shape: 1 2048 14 14 (401408)
I1014 18:27:48.404435  1250 net.cpp:139] Memory required for data: 360263712
I1014 18:27:48.404439  1250 layer_factory.hpp:77] Creating layer res5a_res5a_relu_0_split
I1014 18:27:48.404448  1250 net.cpp:86] Creating Layer res5a_res5a_relu_0_split
I1014 18:27:48.404453  1250 net.cpp:408] res5a_res5a_relu_0_split <- res5a
I1014 18:27:48.404460  1250 net.cpp:382] res5a_res5a_relu_0_split -> res5a_res5a_relu_0_split_0
I1014 18:27:48.404469  1250 net.cpp:382] res5a_res5a_relu_0_split -> res5a_res5a_relu_0_split_1
I1014 18:27:48.404537  1250 net.cpp:124] Setting up res5a_res5a_relu_0_split
I1014 18:27:48.404544  1250 net.cpp:131] Top shape: 1 2048 14 14 (401408)
I1014 18:27:48.404549  1250 net.cpp:131] Top shape: 1 2048 14 14 (401408)
I1014 18:27:48.404552  1250 net.cpp:139] Memory required for data: 363474976
I1014 18:27:48.404556  1250 layer_factory.hpp:77] Creating layer res5b_branch2a
I1014 18:27:48.404567  1250 net.cpp:86] Creating Layer res5b_branch2a
I1014 18:27:48.404572  1250 net.cpp:408] res5b_branch2a <- res5a_res5a_relu_0_split_0
I1014 18:27:48.404582  1250 net.cpp:382] res5b_branch2a -> res5b_branch2a
I1014 18:27:48.411784  1250 net.cpp:124] Setting up res5b_branch2a
I1014 18:27:48.411828  1250 net.cpp:131] Top shape: 1 512 14 14 (100352)
I1014 18:27:48.411839  1250 net.cpp:139] Memory required for data: 363876384
I1014 18:27:48.411855  1250 layer_factory.hpp:77] Creating layer bn5b_branch2a
I1014 18:27:48.411880  1250 net.cpp:86] Creating Layer bn5b_branch2a
I1014 18:27:48.411892  1250 net.cpp:408] bn5b_branch2a <- res5b_branch2a
I1014 18:27:48.411907  1250 net.cpp:369] bn5b_branch2a -> res5b_branch2a (in-place)
I1014 18:27:48.412525  1250 net.cpp:124] Setting up bn5b_branch2a
I1014 18:27:48.412544  1250 net.cpp:131] Top shape: 1 512 14 14 (100352)
I1014 18:27:48.412552  1250 net.cpp:139] Memory required for data: 364277792
I1014 18:27:48.412582  1250 layer_factory.hpp:77] Creating layer scale5b_branch2a
I1014 18:27:48.412600  1250 net.cpp:86] Creating Layer scale5b_branch2a
I1014 18:27:48.412609  1250 net.cpp:408] scale5b_branch2a <- res5b_branch2a
I1014 18:27:48.412623  1250 net.cpp:369] scale5b_branch2a -> res5b_branch2a (in-place)
I1014 18:27:48.412731  1250 layer_factory.hpp:77] Creating layer scale5b_branch2a
I1014 18:27:48.413074  1250 net.cpp:124] Setting up scale5b_branch2a
I1014 18:27:48.413091  1250 net.cpp:131] Top shape: 1 512 14 14 (100352)
I1014 18:27:48.413100  1250 net.cpp:139] Memory required for data: 364679200
I1014 18:27:48.413115  1250 layer_factory.hpp:77] Creating layer res5b_branch2a_relu
I1014 18:27:48.413127  1250 net.cpp:86] Creating Layer res5b_branch2a_relu
I1014 18:27:48.413137  1250 net.cpp:408] res5b_branch2a_relu <- res5b_branch2a
I1014 18:27:48.413156  1250 net.cpp:369] res5b_branch2a_relu -> res5b_branch2a (in-place)
I1014 18:27:48.415035  1250 net.cpp:124] Setting up res5b_branch2a_relu
I1014 18:27:48.415067  1250 net.cpp:131] Top shape: 1 512 14 14 (100352)
I1014 18:27:48.415079  1250 net.cpp:139] Memory required for data: 365080608
I1014 18:27:48.415092  1250 layer_factory.hpp:77] Creating layer res5b_branch2b
I1014 18:27:48.415117  1250 net.cpp:86] Creating Layer res5b_branch2b
I1014 18:27:48.415127  1250 net.cpp:408] res5b_branch2b <- res5b_branch2a
I1014 18:27:48.415144  1250 net.cpp:382] res5b_branch2b -> res5b_branch2b
I1014 18:27:48.428166  1250 net.cpp:124] Setting up res5b_branch2b
I1014 18:27:48.428207  1250 net.cpp:131] Top shape: 1 512 14 14 (100352)
I1014 18:27:48.428216  1250 net.cpp:139] Memory required for data: 365482016
I1014 18:27:48.428237  1250 layer_factory.hpp:77] Creating layer bn5b_branch2b
I1014 18:27:48.428253  1250 net.cpp:86] Creating Layer bn5b_branch2b
I1014 18:27:48.428277  1250 net.cpp:408] bn5b_branch2b <- res5b_branch2b
I1014 18:27:48.428292  1250 net.cpp:369] bn5b_branch2b -> res5b_branch2b (in-place)
I1014 18:27:48.428874  1250 net.cpp:124] Setting up bn5b_branch2b
I1014 18:27:48.428890  1250 net.cpp:131] Top shape: 1 512 14 14 (100352)
I1014 18:27:48.428899  1250 net.cpp:139] Memory required for data: 365883424
I1014 18:27:48.428917  1250 layer_factory.hpp:77] Creating layer scale5b_branch2b
I1014 18:27:48.428936  1250 net.cpp:86] Creating Layer scale5b_branch2b
I1014 18:27:48.428944  1250 net.cpp:408] scale5b_branch2b <- res5b_branch2b
I1014 18:27:48.428956  1250 net.cpp:369] scale5b_branch2b -> res5b_branch2b (in-place)
I1014 18:27:48.429057  1250 layer_factory.hpp:77] Creating layer scale5b_branch2b
I1014 18:27:48.429378  1250 net.cpp:124] Setting up scale5b_branch2b
I1014 18:27:48.429394  1250 net.cpp:131] Top shape: 1 512 14 14 (100352)
I1014 18:27:48.429401  1250 net.cpp:139] Memory required for data: 366284832
I1014 18:27:48.429415  1250 layer_factory.hpp:77] Creating layer res5b_branch2b_relu
I1014 18:27:48.429431  1250 net.cpp:86] Creating Layer res5b_branch2b_relu
I1014 18:27:48.429440  1250 net.cpp:408] res5b_branch2b_relu <- res5b_branch2b
I1014 18:27:48.429451  1250 net.cpp:369] res5b_branch2b_relu -> res5b_branch2b (in-place)
I1014 18:27:48.430152  1250 net.cpp:124] Setting up res5b_branch2b_relu
I1014 18:27:48.430173  1250 net.cpp:131] Top shape: 1 512 14 14 (100352)
I1014 18:27:48.430181  1250 net.cpp:139] Memory required for data: 366686240
I1014 18:27:48.430192  1250 layer_factory.hpp:77] Creating layer res5b_branch2c
I1014 18:27:48.430219  1250 net.cpp:86] Creating Layer res5b_branch2c
I1014 18:27:48.430229  1250 net.cpp:408] res5b_branch2c <- res5b_branch2b
I1014 18:27:48.430243  1250 net.cpp:382] res5b_branch2c -> res5b_branch2c
I1014 18:27:48.439399  1250 net.cpp:124] Setting up res5b_branch2c
I1014 18:27:48.439431  1250 net.cpp:131] Top shape: 1 2048 14 14 (401408)
I1014 18:27:48.439440  1250 net.cpp:139] Memory required for data: 368291872
I1014 18:27:48.439455  1250 layer_factory.hpp:77] Creating layer bn5b_branch2c
I1014 18:27:48.439477  1250 net.cpp:86] Creating Layer bn5b_branch2c
I1014 18:27:48.439496  1250 net.cpp:408] bn5b_branch2c <- res5b_branch2c
I1014 18:27:48.439510  1250 net.cpp:369] bn5b_branch2c -> res5b_branch2c (in-place)
I1014 18:27:48.440333  1250 net.cpp:124] Setting up bn5b_branch2c
I1014 18:27:48.440357  1250 net.cpp:131] Top shape: 1 2048 14 14 (401408)
I1014 18:27:48.440364  1250 net.cpp:139] Memory required for data: 369897504
I1014 18:27:48.440382  1250 layer_factory.hpp:77] Creating layer scale5b_branch2c
I1014 18:27:48.440403  1250 net.cpp:86] Creating Layer scale5b_branch2c
I1014 18:27:48.440412  1250 net.cpp:408] scale5b_branch2c <- res5b_branch2c
I1014 18:27:48.440423  1250 net.cpp:369] scale5b_branch2c -> res5b_branch2c (in-place)
I1014 18:27:48.440625  1250 layer_factory.hpp:77] Creating layer scale5b_branch2c
I1014 18:27:48.441112  1250 net.cpp:124] Setting up scale5b_branch2c
I1014 18:27:48.441129  1250 net.cpp:131] Top shape: 1 2048 14 14 (401408)
I1014 18:27:48.441136  1250 net.cpp:139] Memory required for data: 371503136
I1014 18:27:48.441151  1250 layer_factory.hpp:77] Creating layer res5b
I1014 18:27:48.441169  1250 net.cpp:86] Creating Layer res5b
I1014 18:27:48.441179  1250 net.cpp:408] res5b <- res5a_res5a_relu_0_split_1
I1014 18:27:48.441190  1250 net.cpp:408] res5b <- res5b_branch2c
I1014 18:27:48.441200  1250 net.cpp:382] res5b -> res5b
I1014 18:27:48.441272  1250 net.cpp:124] Setting up res5b
I1014 18:27:48.441288  1250 net.cpp:131] Top shape: 1 2048 14 14 (401408)
I1014 18:27:48.441298  1250 net.cpp:139] Memory required for data: 373108768
I1014 18:27:48.441309  1250 layer_factory.hpp:77] Creating layer res5b_relu
I1014 18:27:48.441334  1250 net.cpp:86] Creating Layer res5b_relu
I1014 18:27:48.441344  1250 net.cpp:408] res5b_relu <- res5b
I1014 18:27:48.441354  1250 net.cpp:369] res5b_relu -> res5b (in-place)
I1014 18:27:48.442906  1250 net.cpp:124] Setting up res5b_relu
I1014 18:27:48.442931  1250 net.cpp:131] Top shape: 1 2048 14 14 (401408)
I1014 18:27:48.442939  1250 net.cpp:139] Memory required for data: 374714400
I1014 18:27:48.442947  1250 layer_factory.hpp:77] Creating layer res5b_res5b_relu_0_split
I1014 18:27:48.442966  1250 net.cpp:86] Creating Layer res5b_res5b_relu_0_split
I1014 18:27:48.442976  1250 net.cpp:408] res5b_res5b_relu_0_split <- res5b
I1014 18:27:48.442991  1250 net.cpp:382] res5b_res5b_relu_0_split -> res5b_res5b_relu_0_split_0
I1014 18:27:48.443011  1250 net.cpp:382] res5b_res5b_relu_0_split -> res5b_res5b_relu_0_split_1
I1014 18:27:48.443128  1250 net.cpp:124] Setting up res5b_res5b_relu_0_split
I1014 18:27:48.443142  1250 net.cpp:131] Top shape: 1 2048 14 14 (401408)
I1014 18:27:48.443151  1250 net.cpp:131] Top shape: 1 2048 14 14 (401408)
I1014 18:27:48.443158  1250 net.cpp:139] Memory required for data: 377925664
I1014 18:27:48.443166  1250 layer_factory.hpp:77] Creating layer res5c_branch2a
I1014 18:27:48.443193  1250 net.cpp:86] Creating Layer res5c_branch2a
I1014 18:27:48.443203  1250 net.cpp:408] res5c_branch2a <- res5b_res5b_relu_0_split_0
I1014 18:27:48.443214  1250 net.cpp:382] res5c_branch2a -> res5c_branch2a
I1014 18:27:48.450515  1250 net.cpp:124] Setting up res5c_branch2a
I1014 18:27:48.450544  1250 net.cpp:131] Top shape: 1 512 14 14 (100352)
I1014 18:27:48.450552  1250 net.cpp:139] Memory required for data: 378327072
I1014 18:27:48.450565  1250 layer_factory.hpp:77] Creating layer bn5c_branch2a
I1014 18:27:48.450587  1250 net.cpp:86] Creating Layer bn5c_branch2a
I1014 18:27:48.450595  1250 net.cpp:408] bn5c_branch2a <- res5c_branch2a
I1014 18:27:48.450606  1250 net.cpp:369] bn5c_branch2a -> res5c_branch2a (in-place)
I1014 18:27:48.451086  1250 net.cpp:124] Setting up bn5c_branch2a
I1014 18:27:48.451099  1250 net.cpp:131] Top shape: 1 512 14 14 (100352)
I1014 18:27:48.451107  1250 net.cpp:139] Memory required for data: 378728480
I1014 18:27:48.451122  1250 layer_factory.hpp:77] Creating layer scale5c_branch2a
I1014 18:27:48.451138  1250 net.cpp:86] Creating Layer scale5c_branch2a
I1014 18:27:48.451146  1250 net.cpp:408] scale5c_branch2a <- res5c_branch2a
I1014 18:27:48.451158  1250 net.cpp:369] scale5c_branch2a -> res5c_branch2a (in-place)
I1014 18:27:48.451262  1250 layer_factory.hpp:77] Creating layer scale5c_branch2a
I1014 18:27:48.451550  1250 net.cpp:124] Setting up scale5c_branch2a
I1014 18:27:48.451578  1250 net.cpp:131] Top shape: 1 512 14 14 (100352)
I1014 18:27:48.451591  1250 net.cpp:139] Memory required for data: 379129888
I1014 18:27:48.451604  1250 layer_factory.hpp:77] Creating layer res5c_branch2a_relu
I1014 18:27:48.451620  1250 net.cpp:86] Creating Layer res5c_branch2a_relu
I1014 18:27:48.451628  1250 net.cpp:408] res5c_branch2a_relu <- res5c_branch2a
I1014 18:27:48.451639  1250 net.cpp:369] res5c_branch2a_relu -> res5c_branch2a (in-place)
I1014 18:27:48.453064  1250 net.cpp:124] Setting up res5c_branch2a_relu
I1014 18:27:48.453088  1250 net.cpp:131] Top shape: 1 512 14 14 (100352)
I1014 18:27:48.453094  1250 net.cpp:139] Memory required for data: 379531296
I1014 18:27:48.453101  1250 layer_factory.hpp:77] Creating layer res5c_branch2b
I1014 18:27:48.453122  1250 net.cpp:86] Creating Layer res5c_branch2b
I1014 18:27:48.453132  1250 net.cpp:408] res5c_branch2b <- res5c_branch2a
I1014 18:27:48.453145  1250 net.cpp:382] res5c_branch2b -> res5c_branch2b
I1014 18:27:48.461627  1250 net.cpp:124] Setting up res5c_branch2b
I1014 18:27:48.461657  1250 net.cpp:131] Top shape: 1 512 14 14 (100352)
I1014 18:27:48.461663  1250 net.cpp:139] Memory required for data: 379932704
I1014 18:27:48.461675  1250 layer_factory.hpp:77] Creating layer bn5c_branch2b
I1014 18:27:48.461694  1250 net.cpp:86] Creating Layer bn5c_branch2b
I1014 18:27:48.461702  1250 net.cpp:408] bn5c_branch2b <- res5c_branch2b
I1014 18:27:48.461712  1250 net.cpp:369] bn5c_branch2b -> res5c_branch2b (in-place)
I1014 18:27:48.462200  1250 net.cpp:124] Setting up bn5c_branch2b
I1014 18:27:48.462214  1250 net.cpp:131] Top shape: 1 512 14 14 (100352)
I1014 18:27:48.462220  1250 net.cpp:139] Memory required for data: 380334112
I1014 18:27:48.462234  1250 layer_factory.hpp:77] Creating layer scale5c_branch2b
I1014 18:27:48.462249  1250 net.cpp:86] Creating Layer scale5c_branch2b
I1014 18:27:48.462256  1250 net.cpp:408] scale5c_branch2b <- res5c_branch2b
I1014 18:27:48.462278  1250 net.cpp:369] scale5c_branch2b -> res5c_branch2b (in-place)
I1014 18:27:48.462378  1250 layer_factory.hpp:77] Creating layer scale5c_branch2b
I1014 18:27:48.462674  1250 net.cpp:124] Setting up scale5c_branch2b
I1014 18:27:48.462688  1250 net.cpp:131] Top shape: 1 512 14 14 (100352)
I1014 18:27:48.462694  1250 net.cpp:139] Memory required for data: 380735520
I1014 18:27:48.462707  1250 layer_factory.hpp:77] Creating layer res5c_branch2b_relu
I1014 18:27:48.462718  1250 net.cpp:86] Creating Layer res5c_branch2b_relu
I1014 18:27:48.462725  1250 net.cpp:408] res5c_branch2b_relu <- res5c_branch2b
I1014 18:27:48.462734  1250 net.cpp:369] res5c_branch2b_relu -> res5c_branch2b (in-place)
I1014 18:27:48.463282  1250 net.cpp:124] Setting up res5c_branch2b_relu
I1014 18:27:48.463300  1250 net.cpp:131] Top shape: 1 512 14 14 (100352)
I1014 18:27:48.463306  1250 net.cpp:139] Memory required for data: 381136928
I1014 18:27:48.463313  1250 layer_factory.hpp:77] Creating layer res5c_branch2c
I1014 18:27:48.463332  1250 net.cpp:86] Creating Layer res5c_branch2c
I1014 18:27:48.463340  1250 net.cpp:408] res5c_branch2c <- res5c_branch2b
I1014 18:27:48.463351  1250 net.cpp:382] res5c_branch2c -> res5c_branch2c
I1014 18:27:48.472343  1250 net.cpp:124] Setting up res5c_branch2c
I1014 18:27:48.472406  1250 net.cpp:131] Top shape: 1 2048 14 14 (401408)
I1014 18:27:48.472416  1250 net.cpp:139] Memory required for data: 382742560
I1014 18:27:48.472435  1250 layer_factory.hpp:77] Creating layer bn5c_branch2c
I1014 18:27:48.472456  1250 net.cpp:86] Creating Layer bn5c_branch2c
I1014 18:27:48.472470  1250 net.cpp:408] bn5c_branch2c <- res5c_branch2c
I1014 18:27:48.472486  1250 net.cpp:369] bn5c_branch2c -> res5c_branch2c (in-place)
I1014 18:27:48.473420  1250 net.cpp:124] Setting up bn5c_branch2c
I1014 18:27:48.473439  1250 net.cpp:131] Top shape: 1 2048 14 14 (401408)
I1014 18:27:48.473448  1250 net.cpp:139] Memory required for data: 384348192
I1014 18:27:48.473477  1250 layer_factory.hpp:77] Creating layer scale5c_branch2c
I1014 18:27:48.473500  1250 net.cpp:86] Creating Layer scale5c_branch2c
I1014 18:27:48.473510  1250 net.cpp:408] scale5c_branch2c <- res5c_branch2c
I1014 18:27:48.473526  1250 net.cpp:369] scale5c_branch2c -> res5c_branch2c (in-place)
I1014 18:27:48.473757  1250 layer_factory.hpp:77] Creating layer scale5c_branch2c
I1014 18:27:48.474303  1250 net.cpp:124] Setting up scale5c_branch2c
I1014 18:27:48.474331  1250 net.cpp:131] Top shape: 1 2048 14 14 (401408)
I1014 18:27:48.474339  1250 net.cpp:139] Memory required for data: 385953824
I1014 18:27:48.474354  1250 layer_factory.hpp:77] Creating layer res5c
I1014 18:27:48.474376  1250 net.cpp:86] Creating Layer res5c
I1014 18:27:48.474387  1250 net.cpp:408] res5c <- res5b_res5b_relu_0_split_1
I1014 18:27:48.474398  1250 net.cpp:408] res5c <- res5c_branch2c
I1014 18:27:48.474411  1250 net.cpp:382] res5c -> res5c
I1014 18:27:48.474491  1250 net.cpp:124] Setting up res5c
I1014 18:27:48.474506  1250 net.cpp:131] Top shape: 1 2048 14 14 (401408)
I1014 18:27:48.474514  1250 net.cpp:139] Memory required for data: 387559456
I1014 18:27:48.474522  1250 layer_factory.hpp:77] Creating layer res5c_relu
I1014 18:27:48.474539  1250 net.cpp:86] Creating Layer res5c_relu
I1014 18:27:48.474548  1250 net.cpp:408] res5c_relu <- res5c
I1014 18:27:48.474561  1250 net.cpp:369] res5c_relu -> res5c (in-place)
I1014 18:27:48.476322  1250 net.cpp:124] Setting up res5c_relu
I1014 18:27:48.476351  1250 net.cpp:131] Top shape: 1 2048 14 14 (401408)
I1014 18:27:48.476356  1250 net.cpp:139] Memory required for data: 389165088
I1014 18:27:48.476361  1250 layer_factory.hpp:77] Creating layer pool5
I1014 18:27:48.476373  1250 net.cpp:86] Creating Layer pool5
I1014 18:27:48.476380  1250 net.cpp:408] pool5 <- res5c
I1014 18:27:48.476393  1250 net.cpp:382] pool5 -> pool5
I1014 18:27:48.476757  1250 net.cpp:124] Setting up pool5
I1014 18:27:48.476768  1250 net.cpp:131] Top shape: 1 2048 1 1 (2048)
I1014 18:27:48.476771  1250 net.cpp:139] Memory required for data: 389173280
I1014 18:27:48.476775  1250 layer_factory.hpp:77] Creating layer pool5_pool5_0_split
I1014 18:27:48.476784  1250 net.cpp:86] Creating Layer pool5_pool5_0_split
I1014 18:27:48.476788  1250 net.cpp:408] pool5_pool5_0_split <- pool5
I1014 18:27:48.476795  1250 net.cpp:382] pool5_pool5_0_split -> pool5_pool5_0_split_0
I1014 18:27:48.476802  1250 net.cpp:382] pool5_pool5_0_split -> pool5_pool5_0_split_1
I1014 18:27:48.476809  1250 net.cpp:382] pool5_pool5_0_split -> pool5_pool5_0_split_2
I1014 18:27:48.476889  1250 net.cpp:124] Setting up pool5_pool5_0_split
I1014 18:27:48.476897  1250 net.cpp:131] Top shape: 1 2048 1 1 (2048)
I1014 18:27:48.476900  1250 net.cpp:131] Top shape: 1 2048 1 1 (2048)
I1014 18:27:48.476904  1250 net.cpp:131] Top shape: 1 2048 1 1 (2048)
I1014 18:27:48.476908  1250 net.cpp:139] Memory required for data: 389197856
I1014 18:27:48.476913  1250 layer_factory.hpp:77] Creating layer pool5_flat
I1014 18:27:48.476923  1250 net.cpp:86] Creating Layer pool5_flat
I1014 18:27:48.476927  1250 net.cpp:408] pool5_flat <- pool5_pool5_0_split_0
I1014 18:27:48.476933  1250 net.cpp:382] pool5_flat -> pool5_flat
I1014 18:27:48.476969  1250 net.cpp:124] Setting up pool5_flat
I1014 18:27:48.476974  1250 net.cpp:131] Top shape: 1 2048 (2048)
I1014 18:27:48.476979  1250 net.cpp:139] Memory required for data: 389206048
I1014 18:27:48.476981  1250 layer_factory.hpp:77] Creating layer cls_score
I1014 18:27:48.476992  1250 net.cpp:86] Creating Layer cls_score
I1014 18:27:48.476996  1250 net.cpp:408] cls_score <- pool5_pool5_0_split_1
I1014 18:27:48.477005  1250 net.cpp:382] cls_score -> cls_score
I1014 18:27:48.638070  1250 net.cpp:124] Setting up cls_score
I1014 18:27:48.638182  1250 net.cpp:131] Top shape: 1 1601 (1601)
I1014 18:27:48.638192  1250 net.cpp:139] Memory required for data: 389212452
I1014 18:27:48.638222  1250 layer_factory.hpp:77] Creating layer cls_score_cls_score_0_split
I1014 18:27:48.638244  1250 net.cpp:86] Creating Layer cls_score_cls_score_0_split
I1014 18:27:48.638272  1250 net.cpp:408] cls_score_cls_score_0_split <- cls_score
I1014 18:27:48.638289  1250 net.cpp:382] cls_score_cls_score_0_split -> cls_score_cls_score_0_split_0
I1014 18:27:48.638311  1250 net.cpp:382] cls_score_cls_score_0_split -> cls_score_cls_score_0_split_1
I1014 18:27:48.639912  1250 net.cpp:124] Setting up cls_score_cls_score_0_split
I1014 18:27:48.639945  1250 net.cpp:131] Top shape: 1 1601 (1601)
I1014 18:27:48.639955  1250 net.cpp:131] Top shape: 1 1601 (1601)
I1014 18:27:48.639962  1250 net.cpp:139] Memory required for data: 389225260
I1014 18:27:48.639971  1250 layer_factory.hpp:77] Creating layer bbox_pred
I1014 18:27:48.639993  1250 net.cpp:86] Creating Layer bbox_pred
I1014 18:27:48.640004  1250 net.cpp:408] bbox_pred <- pool5_pool5_0_split_2
I1014 18:27:48.640028  1250 net.cpp:382] bbox_pred -> bbox_pred
I1014 18:27:49.237375  1250 net.cpp:124] Setting up bbox_pred
I1014 18:27:49.237442  1250 net.cpp:131] Top shape: 1 6404 (6404)
I1014 18:27:49.237447  1250 net.cpp:139] Memory required for data: 389250876
I1014 18:27:49.237468  1250 layer_factory.hpp:77] Creating layer cls_prob
I1014 18:27:49.237488  1250 net.cpp:86] Creating Layer cls_prob
I1014 18:27:49.237498  1250 net.cpp:408] cls_prob <- cls_score_cls_score_0_split_0
I1014 18:27:49.237509  1250 net.cpp:382] cls_prob -> cls_prob
I1014 18:27:49.240157  1250 net.cpp:124] Setting up cls_prob
I1014 18:27:49.240175  1250 net.cpp:131] Top shape: 1 1601 (1601)
I1014 18:27:49.240180  1250 net.cpp:139] Memory required for data: 389257280
I1014 18:27:49.240185  1250 layer_factory.hpp:77] Creating layer predicted_cls
I1014 18:27:49.240200  1250 net.cpp:86] Creating Layer predicted_cls
I1014 18:27:49.240205  1250 net.cpp:408] predicted_cls <- cls_score_cls_score_0_split_1
I1014 18:27:49.240216  1250 net.cpp:382] predicted_cls -> predicted_cls
I1014 18:27:49.240249  1250 net.cpp:124] Setting up predicted_cls
I1014 18:27:49.240257  1250 net.cpp:131] Top shape: 1 1 (1)
I1014 18:27:49.240260  1250 net.cpp:139] Memory required for data: 389257284
I1014 18:27:49.240267  1250 layer_factory.hpp:77] Creating layer cls_embedding
I1014 18:27:49.240275  1250 net.cpp:86] Creating Layer cls_embedding
I1014 18:27:49.240280  1250 net.cpp:408] cls_embedding <- predicted_cls
I1014 18:27:49.240288  1250 net.cpp:382] cls_embedding -> cls_embedding
I1014 18:27:49.255556  1250 net.cpp:124] Setting up cls_embedding
I1014 18:27:49.255578  1250 net.cpp:131] Top shape: 1 256 (256)
I1014 18:27:49.255583  1250 net.cpp:139] Memory required for data: 389258308
I1014 18:27:49.255589  1250 layer_factory.hpp:77] Creating layer cls_embedding_flat
I1014 18:27:49.255599  1250 net.cpp:86] Creating Layer cls_embedding_flat
I1014 18:27:49.255605  1250 net.cpp:408] cls_embedding_flat <- cls_embedding
I1014 18:27:49.255612  1250 net.cpp:382] cls_embedding_flat -> cls_embedding_flat
I1014 18:27:49.255646  1250 net.cpp:124] Setting up cls_embedding_flat
I1014 18:27:49.255655  1250 net.cpp:131] Top shape: 1 256 (256)
I1014 18:27:49.255658  1250 net.cpp:139] Memory required for data: 389259332
I1014 18:27:49.255663  1250 layer_factory.hpp:77] Creating layer concat_pool5
I1014 18:27:49.255673  1250 net.cpp:86] Creating Layer concat_pool5
I1014 18:27:49.255678  1250 net.cpp:408] concat_pool5 <- pool5_flat
I1014 18:27:49.255683  1250 net.cpp:408] concat_pool5 <- cls_embedding_flat
I1014 18:27:49.255689  1250 net.cpp:382] concat_pool5 -> concat_pool5
I1014 18:27:49.255719  1250 net.cpp:124] Setting up concat_pool5
I1014 18:27:49.255726  1250 net.cpp:131] Top shape: 1 2304 (2304)
I1014 18:27:49.255729  1250 net.cpp:139] Memory required for data: 389268548
I1014 18:27:49.255733  1250 layer_factory.hpp:77] Creating layer fc_attr
I1014 18:27:49.255746  1250 net.cpp:86] Creating Layer fc_attr
I1014 18:27:49.255750  1250 net.cpp:408] fc_attr <- concat_pool5
I1014 18:27:49.255759  1250 net.cpp:382] fc_attr -> fc_attr
I1014 18:27:49.329850  1250 net.cpp:124] Setting up fc_attr
I1014 18:27:49.329870  1250 net.cpp:131] Top shape: 1 512 (512)
I1014 18:27:49.329875  1250 net.cpp:139] Memory required for data: 389270596
I1014 18:27:49.329900  1250 layer_factory.hpp:77] Creating layer relu_attr
I1014 18:27:49.329910  1250 net.cpp:86] Creating Layer relu_attr
I1014 18:27:49.329923  1250 net.cpp:408] relu_attr <- fc_attr
I1014 18:27:49.329931  1250 net.cpp:369] relu_attr -> fc_attr (in-place)
I1014 18:27:49.330550  1250 net.cpp:124] Setting up relu_attr
I1014 18:27:49.330562  1250 net.cpp:131] Top shape: 1 512 (512)
I1014 18:27:49.330566  1250 net.cpp:139] Memory required for data: 389272644
I1014 18:27:49.330570  1250 layer_factory.hpp:77] Creating layer attr_score
I1014 18:27:49.330585  1250 net.cpp:86] Creating Layer attr_score
I1014 18:27:49.330590  1250 net.cpp:408] attr_score <- fc_attr
I1014 18:27:49.330600  1250 net.cpp:382] attr_score -> attr_score
I1014 18:27:49.339447  1250 net.cpp:124] Setting up attr_score
I1014 18:27:49.339464  1250 net.cpp:131] Top shape: 1 401 (401)
I1014 18:27:49.339469  1250 net.cpp:139] Memory required for data: 389274248
I1014 18:27:49.339478  1250 layer_factory.hpp:77] Creating layer attr_prob
I1014 18:27:49.339486  1250 net.cpp:86] Creating Layer attr_prob
I1014 18:27:49.339491  1250 net.cpp:408] attr_prob <- attr_score
I1014 18:27:49.339498  1250 net.cpp:382] attr_prob -> attr_prob
I1014 18:27:49.340605  1250 net.cpp:124] Setting up attr_prob
I1014 18:27:49.340625  1250 net.cpp:131] Top shape: 1 401 (401)
I1014 18:27:49.340628  1250 net.cpp:139] Memory required for data: 389275852
I1014 18:27:49.340633  1250 net.cpp:202] attr_prob does not need backward computation.
I1014 18:27:49.340638  1250 net.cpp:202] attr_score does not need backward computation.
I1014 18:27:49.340642  1250 net.cpp:202] relu_attr does not need backward computation.
I1014 18:27:49.340646  1250 net.cpp:202] fc_attr does not need backward computation.
…
