…
I0629 17:31:12.454643 32089 upgrade_proto.cpp:77] Attempting to upgrade batch norm layers using deprecated params: models/vg/ResNet-101/faster_rcnn_end2end_final/train.prototxt
I0629 17:31:12.454695 32089 upgrade_proto.cpp:80] Successfully upgraded batch norm layers using deprecated params.
I0629 17:31:12.460453 32089 net.cpp:53] Initializing net from parameters: 
name: "ResNet-101"
state {
  phase: TRAIN
}
layer {
  name: "input-data"
  type: "Python"
  top: "data"
  top: "im_info"
  top: "gt_boxes"
  python_param {
    module: "roi_data_layer.layer"
    layer: "RoIDataLayer"
    param_str: "\'num_classes\': 1601"
  }
}
layer {
  name: "conv1"
  type: "Convolution"
  bottom: "data"
  top: "conv1"
  param {
    lr_mult: 0
    decay_mult: 0
  }
  convolution_param {
    num_output: 64
    bias_term: false
    pad: 3
    kernel_size: 7
    stride: 2
  }
}
layer {
  name: "bn_conv1"
  type: "BatchNorm"
  bottom: "conv1"
  top: "conv1"
  param {
    lr_mult: 0
    decay_mult: 0
  }
  param {
    lr_mult: 0
    decay_mult: 0
  }
  param {
    lr_mult: 0
    decay_mult: 0
  }
  batch_norm_param {
    use_global_stats: true
  }
}
layer {
  name: "scale_conv1"
  type: "Scale"
  bottom: "conv1"
  top: "conv1"
  param {
    lr_mult: 0
    decay_mult: 0
  }
  param {
    lr_mult: 0
    decay_mult: 0
  }
  scale_param {
    bias_term: true
  }
}
layer {
  name: "conv1_relu"
  type: "ReLU"
  bottom: "conv1"
  top: "conv1"
}
layer {
  name: "pool1"
  type: "Pooling"
  bottom: "conv1"
  top: "pool1"
  pooling_param {
    pool: MAX
    kernel_size: 3
    stride: 2
  }
}
layer {
  name: "res2a_branch1"
  type: "Convolution"
  bottom: "pool1"
  top: "res2a_branch1"
  param {
    lr_mult: 0
    decay_mult: 0
  }
  convolution_param {
    num_output: 256
    bias_term: false
    pad: 0
    kernel_size: 1
    stride: 1
  }
}
layer {
  name: "bn2a_branch1"
  type: "BatchNorm"
  bottom: "res2a_branch1"
  top: "res2a_branch1"
  param {
    lr_mult: 0
    decay_mult: 0
  }
  param {
    lr_mult: 0
    decay_mult: 0
  }
  param {
    lr_mult: 0
    decay_mult: 0
  }
  batch_norm_param {
    use_global_stats: true
  }
}
layer {
  name: "scale2a_branch1"
  type: "Scale"
  bottom: "res2a_branch1"
  top: "res2a_branch1"
  param {
    lr_mult: 0
    decay_mult: 0
  }
  param {
    lr_mult: 0
    decay_mult: 0
  }
  scale_param {
    bias_term: true
  }
}
layer {
  name: "res2a_branch2a"
  type: "Convolution"
  bottom: "pool1"
  top: "res2a_branch2a"
  param {
    lr_mult: 0
    decay_mult: 0
  }
  convolution_param {
    num_output: 64
    bias_term: false
    pad: 0
    kernel_size: 1
    stride: 1
  }
}
layer {
  name: "bn2a_branch2a"
  type: "BatchNorm"
  bottom: "res2a_branch2a"
  top: "res2a_branch2a"
  param {
    lr_mult: 0
    decay_mult: 0
  }
  param {
    lr_mult: 0
    decay_mult: 0
  }
  param {
    lr_mult: 0
    decay_mult: 0
  }
  batch_norm_param {
    use_global_stats: true
  }
}
layer {
  name: "scale2a_branch2a"
  type: "Scale"
  bottom: "res2a_branch2a"
  top: "res2a_branch2a"
  param {
    lr_mult: 0
    decay_mult: 0
  }
  param {
    lr_mult: 0
    decay_mult: 0
  }
  scale_param {
    bias_term: true
  }
}
layer {
  name: "res2a_branch2a_relu"
  type: "ReLU"
  bottom: "res2a_branch2a"
  top: "res2a_branch2a"
}
layer {
  name: "res2a_branch2b"
  type: "Convolution"
  bottom: "res2a_branch2a"
  top: "res2a_branch2b"
  param {
    lr_mult: 0
    decay_mult: 0
  }
  convolution_param {
    num_output: 64
    bias_term: false
    pad: 1
    kernel_size: 3
    stride: 1
  }
}
layer {
  name: "bn2a_branch2b"
  type: "BatchNorm"
  bottom: "res2a_branch2b"
  top: "res2a_branch2b"
  param {
    lr_mult: 0
    decay_mult: 0
  }
  param {
    lr_mult: 0
    decay_mult: 0
  }
  param {
    lr_mult: 0
    decay_mult: 0
  }
  batch_norm_param {
    use_global_stats: true
  }
}
layer {
  name: "scale2a_branch2b"
  type: "Scale"
  bottom: "res2a_branch2b"
  top: "res2a_branch2b"
  param {
    lr_mult: 0
    decay_mult: 0
  }
  param {
    lr_mult: 0
    decay_mult: 0
  }
  scale_param {
    bias_term: true
  }
}
layer {
  name: "res2a_branch2b_relu"
  type: "ReLU"
  bottom: "res2a_branch2b"
  top: "res2a_branch2b"
}
layer {
  name: "res2a_branch2c"
  type: "Convolution"
  bottom: "res2a_branch2b"
  top: "res2a_branch2c"
  param {
    lr_mult: 0
    decay_mult: 0
  }
  convolution_param {
    num_output: 256
    bias_term: false
    pad: 0
    kernel_size: 1
    stride: 1
  }
}
layer {
  name: "bn2a_branch2c"
  type: "BatchNorm"
  bottom: "res2a_branch2c"
  top: "res2a_branch2c"
  param {
    lr_mult: 0
    decay_mult: 0
  }
  param {
    lr_mult: 0
    decay_mult: 0
  }
  param {
    lr_mult: 0
    decay_mult: 0
  }
  batch_norm_param {
    use_global_stats: true
  }
}
layer {
  name: "scale2a_branch2c"
  type: "Scale"
  bottom: "res2a_branch2c"
  top: "res2a_branch2c"
  param {
    lr_mult: 0
    decay_mult: 0
  }
  param {
    lr_mult: 0
    decay_mult: 0
  }
  scale_param {
    bias_term: true
  }
}
layer {
  name: "res2a"
  type: "Eltwise"
  bottom: "res2a_branch1"
  bottom: "res2a_branch2c"
  top: "res2a"
}
layer {
  name: "res2a_relu"
  type: "ReLU"
  bottom: "res2a"
  top: "res2a"
}
layer {
  name: "res2b_branch2a"
  type: "Convolution"
  bottom: "res2a"
  top: "res2b_branch2a"
  param {
    lr_mult: 0
    decay_mult: 0
  }
  convolution_param {
    num_output: 64
    bias_term: false
    pad: 0
    kernel_size: 1
    stride: 1
  }
}
layer {
  name: "bn2b_branch2a"
  type: "BatchNorm"
  bottom: "res2b_branch2a"
  top: "res2b_branch2a"
  param {
    lr_mult: 0
    decay_mult: 0
  }
  param {
    lr_mult: 0
    decay_mult: 0
  }
  param {
    lr_mult: 0
    decay_mult: 0
  }
  batch_norm_param {
    use_global_stats: true
  }
}
layer {
  name: "scale2b_branch2a"
  type: "Scale"
  bottom: "res2b_branch2a"
  top: "res2b_branch2a"
  param {
    lr_mult: 0
    decay_mult: 0
  }
  param {
    lr_mult: 0
    decay_mult: 0
  }
  scale_param {
    bias_term: true
  }
}
layer {
  name: "res2b_branch2a_relu"
  type: "ReLU"
  bottom: "res2b_branch2a"
  top: "res2b_branch2a"
}
layer {
  name: "res2b_branch2b"
  type: "Convolution"
  bottom: "res2b_branch2a"
  top: "res2b_branch2b"
  param {
    lr_mult: 0
    decay_mult: 0
  }
  convolution_param {
    num_output: 64
    bias_term: false
    pad: 1
    kernel_size: 3
    stride: 1
  }
}
layer {
  name: "bn2b_branch2b"
  type: "BatchNorm"
  bottom: "res2b_branch2b"
  top: "res2b_branch2b"
  param {
    lr_mult: 0
    decay_mult: 0
  }
  param {
    lr_mult: 0
    decay_mult: 0
  }
  param {
    lr_mult: 0
    decay_mult: 0
  }
  batch_norm_param {
    use_global_stats: true
  }
}
layer {
  name: "scale2b_branch2b"
  type: "Scale"
  bottom: "res2b_branch2b"
  top: "res2b_branch2b"
  param {
    lr_mult: 0
    decay_mult: 0
  }
  param {
    lr_mult: 0
    decay_mult: 0
  }
  scale_param {
    bias_term: true
  }
}
layer {
  name: "res2b_branch2b_relu"
  type: "ReLU"
  bottom: "res2b_branch2b"
  top: "res2b_branch2b"
}
layer {
  name: "res2b_branch2c"
  type: "Convolution"
  bottom: "res2b_branch2b"
  top: "res2b_branch2c"
  param {
    lr_mult: 0
    decay_mult: 0
  }
  convolution_param {
    num_output: 256
    bias_term: false
    pad: 0
    kernel_size: 1
    stride: 1
  }
}
layer {
  name: "bn2b_branch2c"
  type: "BatchNorm"
  bottom: "res2b_branch2c"
  top: "res2b_branch2c"
  param {
    lr_mult: 0
    decay_mult: 0
  }
  param {
    lr_mult: 0
    decay_mult: 0
  }
  param {
    lr_mult: 0
    decay_mult: 0
  }
  batch_norm_param {
    use_global_stats: true
  }
}
layer {
  name: "scale2b_branch2c"
  type: "Scale"
  bottom: "res2b_branch2c"
  top: "res2b_branch2c"
  param {
    lr_mult: 0
    decay_mult: 0
  }
  param {
    lr_mult: 0
    decay_mult: 0
  }
  scale_param {
    bias_term: true
  }
}
layer {
  name: "res2b"
  type: "Eltwise"
  bottom: "res2a"
  bottom: "res2b_branch2c"
  top: "res2b"
}
layer {
  name: "res2b_relu"
  type: "ReLU"
  bottom: "res2b"
  top: "res2b"
}
layer {
  name: "res2c_branch2a"
  type: "Convolution"
  bottom: "res2b"
  top: "res2c_branch2a"
  param {
    lr_mult: 0
    decay_mult: 0
  }
  convolution_param {
    num_output: 64
    bias_term: false
    pad: 0
    kernel_size: 1
    stride: 1
  }
}
layer {
  name: "bn2c_branch2a"
  type: "BatchNorm"
  bottom: "res2c_branch2a"
  top: "res2c_branch2a"
  param {
    lr_mult: 0
    decay_mult: 0
  }
  param {
    lr_mult: 0
    decay_mult: 0
  }
  param {
    lr_mult: 0
    decay_mult: 0
  }
  batch_norm_param {
    use_global_stats: true
  }
}
layer {
  name: "scale2c_branch2a"
  type: "Scale"
  bottom: "res2c_branch2a"
  top: "res2c_branch2a"
  param {
    lr_mult: 0
    decay_mult: 0
  }
  param {
    lr_mult: 0
    decay_mult: 0
  }
  scale_param {
    bias_term: true
  }
}
layer {
  name: "res2c_branch2a_relu"
  type: "ReLU"
  bottom: "res2c_branch2a"
  top: "res2c_branch2a"
}
layer {
  name: "res2c_branch2b"
  type: "Convolution"
  bottom: "res2c_branch2a"
  top: "res2c_branch2b"
  param {
    lr_mult: 0
    decay_mult: 0
  }
  convolution_param {
    num_output: 64
    bias_term: false
    pad: 1
    kernel_size: 3
    stride: 1
  }
}
layer {
  name: "bn2c_branch2b"
  type: "BatchNorm"
  bottom: "res2c_branch2b"
  top: "res2c_branch2b"
  param {
    lr_mult: 0
    decay_mult: 0
  }
  param {
    lr_mult: 0
    decay_mult: 0
  }
  param {
    lr_mult: 0
    decay_mult: 0
  }
  batch_norm_param {
    use_global_stats: true
  }
}
layer {
  name: "scale2c_branch2b"
  type: "Scale"
  bottom: "res2c_branch2b"
  top: "res2c_branch2b"
  param {
    lr_mult: 0
    decay_mult: 0
  }
  param {
    lr_mult: 0
    decay_mult: 0
  }
  scale_param {
    bias_term: true
  }
}
layer {
  name: "res2c_branch2b_relu"
  type: "ReLU"
  bottom: "res2c_branch2b"
  top: "res2c_branch2b"
}
layer {
  name: "res2c_branch2c"
  type: "Convolution"
  bottom: "res2c_branch2b"
  top: "res2c_branch2c"
  param {
    lr_mult: 0
    decay_mult: 0
  }
  convolution_param {
    num_output: 256
    bias_term: false
    pad: 0
    kernel_size: 1
    stride: 1
  }
}
layer {
  name: "bn2c_branch2c"
  type: "BatchNorm"
  bottom: "res2c_branch2c"
  top: "res2c_branch2c"
  param {
    lr_mult: 0
    decay_mult: 0
  }
  param {
    lr_mult: 0
    decay_mult: 0
  }
  param {
    lr_mult: 0
    decay_mult: 0
  }
  batch_norm_param {
    use_global_stats: true
  }
}
layer {
  name: "scale2c_branch2c"
  type: "Scale"
  bottom: "res2c_branch2c"
  top: "res2c_branch2c"
  param {
    lr_mult: 0
    decay_mult: 0
  }
  param {
    lr_mult: 0
    decay_mult: 0
  }
  scale_param {
    bias_term: true
  }
}
layer {
  name: "res2c"
  type: "Eltwise"
  bottom: "res2b"
  bottom: "res2c_branch2c"
  top: "res2c"
}
layer {
  name: "res2c_relu"
  type: "ReLU"
  bottom: "res2c"
  top: "res2c"
}
layer {
  name: "res3a_branch1"
  type: "Convolution"
  bottom: "res2c"
  top: "res3a_branch1"
  param {
    lr_mult: 0
    decay_mult: 0
  }
  convolution_param {
    num_output: 512
    bias_term: false
    pad: 0
    kernel_size: 1
    stride: 2
  }
}
layer {
  name: "bn3a_branch1"
  type: "BatchNorm"
  bottom: "res3a_branch1"
  top: "res3a_branch1"
  param {
    lr_mult: 0
    decay_mult: 0
  }
  param {
    lr_mult: 0
    decay_mult: 0
  }
  param {
    lr_mult: 0
    decay_mult: 0
  }
  batch_norm_param {
    use_global_stats: true
  }
}
layer {
  name: "scale3a_branch1"
  type: "Scale"
  bottom: "res3a_branch1"
  top: "res3a_branch1"
  param {
    lr_mult: 0
    decay_mult: 0
  }
  param {
    lr_mult: 0
    decay_mult: 0
  }
  scale_param {
    bias_term: true
  }
}
layer {
  name: "res3a_branch2a"
  type: "Convolution"
  bottom: "res2c"
  top: "res3a_branch2a"
  param {
    lr_mult: 0
    decay_mult: 0
  }
  convolution_param {
    num_output: 128
    bias_term: false
    pad: 0
    kernel_size: 1
    stride: 2
  }
}
layer {
  name: "bn3a_branch2a"
  type: "BatchNorm"
  bottom: "res3a_branch2a"
  top: "res3a_branch2a"
  param {
    lr_mult: 0
    decay_mult: 0
  }
  param {
    lr_mult: 0
    decay_mult: 0
  }
  param {
    lr_mult: 0
    decay_mult: 0
  }
  batch_norm_param {
    use_global_stats: true
  }
}
layer {
  name: "scale3a_branch2a"
  type: "Scale"
  bottom: "res3a_branch2a"
  top: "res3a_branch2a"
  param {
    lr_mult: 0
    decay_mult: 0
  }
  param {
    lr_mult: 0
    decay_mult: 0
  }
  scale_param {
    bias_term: true
  }
}
layer {
  name: "res3a_branch2a_relu"
  type: "ReLU"
  bottom: "res3a_branch2a"
  top: "res3a_branch2a"
}
layer {
  name: "res3a_branch2b"
  type: "Convolution"
  bottom: "res3a_branch2a"
  top: "res3a_branch2b"
  param {
    lr_mult: 0
    decay_mult: 0
  }
  convolution_param {
    num_output: 128
    bias_term: false
    pad: 1
    kernel_size: 3
    stride: 1
  }
}
layer {
  name: "bn3a_branch2b"
  type: "BatchNorm"
  bottom: "res3a_branch2b"
  top: "res3a_branch2b"
  param {
    lr_mult: 0
    decay_mult: 0
  }
  param {
    lr_mult: 0
    decay_mult: 0
  }
  param {
    lr_mult: 0
    decay_mult: 0
  }
  batch_norm_param {
    use_global_stats: true
  }
}
layer {
  name: "scale3a_branch2b"
  type: "Scale"
  bottom: "res3a_branch2b"
  top: "res3a_branch2b"
  param {
    lr_mult: 0
    decay_mult: 0
  }
  param {
    lr_mult: 0
    decay_mult: 0
  }
  scale_param {
    bias_term: true
  }
}
layer {
  name: "res3a_branch2b_relu"
  type: "ReLU"
  bottom: "res3a_branch2b"
  top: "res3a_branch2b"
}
layer {
  name: "res3a_branch2c"
  type: "Convolution"
  bottom: "res3a_branch2b"
  top: "res3a_branch2c"
  param {
    lr_mult: 0
    decay_mult: 0
  }
  convolution_param {
    num_output: 512
    bias_term: false
    pad: 0
    kernel_size: 1
    stride: 1
  }
}
layer {
  name: "bn3a_branch2c"
  type: "BatchNorm"
  bottom: "res3a_branch2c"
  top: "res3a_branch2c"
  param {
    lr_mult: 0
    decay_mult: 0
  }
  param {
    lr_mult: 0
    decay_mult: 0
  }
  param {
    lr_mult: 0
    decay_mult: 0
  }
  batch_norm_param {
    use_global_stats: true
  }
}
layer {
  name: "scale3a_branch2c"
  type: "Scale"
  bottom: "res3a_branch2c"
  top: "res3a_branch2c"
  param {
    lr_mult: 0
    decay_mult: 0
  }
  param {
    lr_mult: 0
    decay_mult: 0
  }
  scale_param {
    bias_term: true
  }
}
layer {
  name: "res3a"
  type: "Eltwise"
  bottom: "res3a_branch1"
  bottom: "res3a_branch2c"
  top: "res3a"
}
layer {
  name: "res3a_relu"
  type: "ReLU"
  bottom: "res3a"
  top: "res3a"
}
layer {
  name: "res3b1_branch2a"
  type: "Convolution"
  bottom: "res3a"
  top: "res3b1_branch2a"
  param {
    lr_mult: 0
    decay_mult: 0
  }
  convolution_param {
    num_output: 128
    bias_term: false
    pad: 0
    kernel_size: 1
    stride: 1
  }
}
layer {
  name: "bn3b1_branch2a"
  type: "BatchNorm"
  bottom: "res3b1_branch2a"
  top: "res3b1_branch2a"
  param {
    lr_mult: 0
    decay_mult: 0
  }
  param {
    lr_mult: 0
    decay_mult: 0
  }
  param {
    lr_mult: 0
    decay_mult: 0
  }
  batch_norm_param {
    use_global_stats: true
  }
}
layer {
  name: "scale3b1_branch2a"
  type: "Scale"
  bottom: "res3b1_branch2a"
  top: "res3b1_branch2a"
  param {
    lr_mult: 0
    decay_mult: 0
  }
  param {
    lr_mult: 0
    decay_mult: 0
  }
  scale_param {
    bias_term: true
  }
}
layer {
  name: "res3b1_branch2a_relu"
  type: "ReLU"
  bottom: "res3b1_branch2a"
  top: "res3b1_branch2a"
}
layer {
  name: "res3b1_branch2b"
  type: "Convolution"
  bottom: "res3b1_branch2a"
  top: "res3b1_branch2b"
  param {
    lr_mult: 0
    decay_mult: 0
  }
  convolution_param {
    num_output: 128
    bias_term: false
    pad: 1
    kernel_size: 3
    stride: 1
  }
}
layer {
  name: "bn3b1_branch2b"
  type: "BatchNorm"
  bottom: "res3b1_branch2b"
  top: "res3b1_branch2b"
  param {
    lr_mult: 0
    decay_mult: 0
  }
  param {
    lr_mult: 0
    decay_mult: 0
  }
  param {
    lr_mult: 0
    decay_mult: 0
  }
  batch_norm_param {
    use_global_stats: true
  }
}
layer {
  name: "scale3b1_branch2b"
  type: "Scale"
  bottom: "res3b1_branch2b"
  top: "res3b1_branch2b"
  param {
    lr_mult: 0
    decay_mult: 0
  }
  param {
    lr_mult: 0
    decay_mult: 0
  }
  scale_param {
    bias_term: true
  }
}
layer {
  name: "res3b1_branch2b_relu"
  type: "ReLU"
  bottom: "res3b1_branch2b"
  top: "res3b1_branch2b"
}
layer {
  name: "res3b1_branch2c"
  type: "Convolution"
  bottom: "res3b1_branch2b"
  top: "res3b1_branch2c"
  param {
    lr_mult: 0
    decay_mult: 0
  }
  convolution_param {
    num_output: 512
    bias_term: false
    pad: 0
    kernel_size: 1
    stride: 1
  }
}
layer {
  name: "bn3b1_branch2c"
  type: "BatchNorm"
  bottom: "res3b1_branch2c"
  top: "res3b1_branch2c"
  param {
    lr_mult: 0
    decay_mult: 0
  }
  param {
    lr_mult: 0
    decay_mult: 0
  }
  param {
    lr_mult: 0
    decay_mult: 0
  }
  batch_norm_param {
    use_global_stats: true
  }
}
layer {
  name: "scale3b1_branch2c"
  type: "Scale"
  bottom: "res3b1_branch2c"
  top: "res3b1_branch2c"
  param {
    lr_mult: 0
    decay_mult: 0
  }
  param {
    lr_mult: 0
    decay_mult: 0
  }
  scale_param {
    bias_term: true
  }
}
layer {
  name: "res3b1"
  type: "Eltwise"
  bottom: "res3a"
  bottom: "res3b1_branch2c"
  top: "res3b1"
}
layer {
  name: "res3b1_relu"
  type: "ReLU"
  bottom: "res3b1"
  top: "res3b1"
}
layer {
  name: "res3b2_branch2a"
  type: "Convolution"
  bottom: "res3b1"
  top: "res3b2_branch2a"
  param {
    lr_mult: 0
    decay_mult: 0
  }
  convolution_param {
    num_output: 128
    bias_term: false
    pad: 0
    kernel_size: 1
    stride: 1
  }
}
layer {
  name: "bn3b2_branch2a"
  type: "BatchNorm"
  bottom: "res3b2_branch2a"
  top: "res3b2_branch2a"
  param {
    lr_mult: 0
    decay_mult: 0
  }
  param {
    lr_mult: 0
    decay_mult: 0
  }
  param {
    lr_mult: 0
    decay_mult: 0
  }
  batch_norm_param {
    use_global_stats: true
  }
}
layer {
  name: "scale3b2_branch2a"
  type: "Scale"
  bottom: "res3b2_branch2a"
  top: "res3b2_branch2a"
  param {
    lr_mult: 0
    decay_mult: 0
  }
  param {
    lr_mult: 0
    decay_mult: 0
  }
  scale_param {
    bias_term: true
  }
}
layer {
  name: "res3b2_branch2a_relu"
  type: "ReLU"
  bottom: "res3b2_branch2a"
  top: "res3b2_branch2a"
}
layer {
  name: "res3b2_branch2b"
  type: "Convolution"
  bottom: "res3b2_branch2a"
  top: "res3b2_branch2b"
  param {
    lr_mult: 0
    decay_mult: 0
  }
  convolution_param {
    num_output: 128
    bias_term: false
    pad: 1
    kernel_size: 3
    stride: 1
  }
}
layer {
  name: "bn3b2_branch2b"
  type: "BatchNorm"
  bottom: "res3b2_branch2b"
  top: "res3b2_branch2b"
  param {
    lr_mult: 0
    decay_mult: 0
  }
  param {
    lr_mult: 0
    decay_mult: 0
  }
  param {
    lr_mult: 0
    decay_mult: 0
  }
  batch_norm_param {
    use_global_stats: true
  }
}
layer {
  name: "scale3b2_branch2b"
  type: "Scale"
  bottom: "res3b2_branch2b"
  top: "res3b2_branch2b"
  param {
    lr_mult: 0
    decay_mult: 0
  }
  param {
    lr_mult: 0
    decay_mult: 0
  }
  scale_param {
    bias_term: true
  }
}
layer {
  name: "res3b2_branch2b_relu"
  type: "ReLU"
  bottom: "res3b2_branch2b"
  top: "res3b2_branch2b"
}
layer {
  name: "res3b2_branch2c"
  type: "Convolution"
  bottom: "res3b2_branch2b"
  top: "res3b2_branch2c"
  param {
    lr_mult: 0
    decay_mult: 0
  }
  convolution_param {
    num_output: 512
    bias_term: false
    pad: 0
    kernel_size: 1
    stride: 1
  }
}
layer {
  name: "bn3b2_branch2c"
  type: "BatchNorm"
  bottom: "res3b2_branch2c"
  top: "res3b2_branch2c"
  param {
    lr_mult: 0
    decay_mult: 0
  }
  param {
    lr_mult: 0
    decay_mult: 0
  }
  param {
    lr_mult: 0
    decay_mult: 0
  }
  batch_norm_param {
    use_global_stats: true
  }
}
layer {
  name: "scale3b2_branch2c"
  type: "Scale"
  bottom: "res3b2_branch2c"
  top: "res3b2_branch2c"
  param {
    lr_mult: 0
    decay_mult: 0
  }
  param {
    lr_mult: 0
    decay_mult: 0
  }
  scale_param {
    bias_term: true
  }
}
layer {
  name: "res3b2"
  type: "Eltwise"
  bottom: "res3b1"
  bottom: "res3b2_branch2c"
  top: "res3b2"
}
layer {
  name: "res3b2_relu"
  type: "ReLU"
  bottom: "res3b2"
  top: "res3b2"
}
layer {
  name: "res3b3_branch2a"
  type: "Convolution"
  bottom: "res3b2"
  top: "res3b3_branch2a"
  param {
    lr_mult: 0
    decay_mult: 0
  }
  convolution_param {
    num_output: 128
    bias_term: false
    pad: 0
    kernel_size: 1
    stride: 1
  }
}
layer {
  name: "bn3b3_branch2a"
  type: "BatchNorm"
  bottom: "res3b3_branch2a"
  top: "res3b3_branch2a"
  param {
    lr_mult: 0
    decay_mult: 0
  }
  param {
    lr_mult: 0
    decay_mult: 0
  }
  param {
    lr_mult: 0
    decay_mult: 0
  }
  batch_norm_param {
    use_global_stats: true
  }
}
layer {
  name: "scale3b3_branch2a"
  type: "Scale"
  bottom: "res3b3_branch2a"
  top: "res3b3_branch2a"
  param {
    lr_mult: 0
    decay_mult: 0
  }
  param {
    lr_mult: 0
    decay_mult: 0
  }
  scale_param {
    bias_term: true
  }
}
layer {
  name: "res3b3_branch2a_relu"
  type: "ReLU"
  bottom: "res3b3_branch2a"
  top: "res3b3_branch2a"
}
layer {
  name: "res3b3_branch2b"
  type: "Convolution"
  bottom: "res3b3_branch2a"
  top: "res3b3_branch2b"
  param {
    lr_mult: 0
    decay_mult: 0
  }
  convolution_param {
    num_output: 128
    bias_term: false
    pad: 1
    kernel_size: 3
    stride: 1
  }
}
layer {
  name: "bn3b3_branch2b"
  type: "BatchNorm"
  bottom: "res3b3_branch2b"
  top: "res3b3_branch2b"
  param {
    lr_mult: 0
    decay_mult: 0
  }
  param {
    lr_mult: 0
    decay_mult: 0
  }
  param {
    lr_mult: 0
    decay_mult: 0
  }
  batch_norm_param {
    use_global_stats: true
  }
}
layer {
  name: "scale3b3_branch2b"
  type: "Scale"
  bottom: "res3b3_branch2b"
  top: "res3b3_branch2b"
  param {
    lr_mult: 0
    decay_mult: 0
  }
  param {
    lr_mult: 0
    decay_mult: 0
  }
  scale_param {
    bias_term: true
  }
}
layer {
  name: "res3b3_branch2b_relu"
  type: "ReLU"
  bottom: "res3b3_branch2b"
  top: "res3b3_branch2b"
}
layer {
  name: "res3b3_branch2c"
  type: "Convolution"
  bottom: "res3b3_branch2b"
  top: "res3b3_branch2c"
  param {
    lr_mult: 0
    decay_mult: 0
  }
  convolution_param {
    num_output: 512
    bias_term: false
    pad: 0
    kernel_size: 1
    stride: 1
  }
}
layer {
  name: "bn3b3_branch2c"
  type: "BatchNorm"
  bottom: "res3b3_branch2c"
  top: "res3b3_branch2c"
  param {
    lr_mult: 0
    decay_mult: 0
  }
  param {
    lr_mult: 0
    decay_mult: 0
  }
  param {
    lr_mult: 0
    decay_mult: 0
  }
  batch_norm_param {
    use_global_stats: true
  }
}
layer {
  name: "scale3b3_branch2c"
  type: "Scale"
  bottom: "res3b3_branch2c"
  top: "res3b3_branch2c"
  param {
    lr_mult: 0
    decay_mult: 0
  }
  param {
    lr_mult: 0
    decay_mult: 0
  }
  scale_param {
    bias_term: true
  }
}
layer {
  name: "res3b3"
  type: "Eltwise"
  bottom: "res3b2"
  bottom: "res3b3_branch2c"
  top: "res3b3"
}
layer {
  name: "res3b3_relu"
  type: "ReLU"
  bottom: "res3b3"
  top: "res3b3"
}
layer {
  name: "res4a_branch1"
  type: "Convolution"
  bottom: "res3b3"
  top: "res4a_branch1"
  param {
    lr_mult: 0
    decay_mult: 0
  }
  convolution_param {
    num_output: 1024
    bias_term: false
    pad: 0
    kernel_size: 1
    stride: 2
  }
}
layer {
  name: "bn4a_branch1"
  type: "BatchNorm"
  bottom: "res4a_branch1"
  top: "res4a_branch1"
  param {
    lr_mult: 0
    decay_mult: 0
  }
  param {
    lr_mult: 0
    decay_mult: 0
  }
  param {
    lr_mult: 0
    decay_mult: 0
  }
  batch_norm_param {
    use_global_stats: true
  }
}
layer {
  name: "scale4a_branch1"
  type: "Scale"
  bottom: "res4a_branch1"
  top: "res4a_branch1"
  param {
    lr_mult: 0
    decay_mult: 0
  }
  param {
    lr_mult: 0
    decay_mult: 0
  }
  scale_param {
    bias_term: true
  }
}
layer {
  name: "res4a_branch2a"
  type: "Convolution"
  bottom: "res3b3"
  top: "res4a_branch2a"
  param {
    lr_mult: 1
  }
  convolution_param {
    num_output: 256
    bias_term: false
    pad: 0
    kernel_size: 1
    stride: 2
  }
}
layer {
  name: "bn4a_branch2a"
  type: "BatchNorm"
  bottom: "res4a_branch2a"
  top: "res4a_branch2a"
  param {
    lr_mult: 0
    decay_mult: 0
  }
  param {
    lr_mult: 0
    decay_mult: 0
  }
  param {
    lr_mult: 0
    decay_mult: 0
  }
  batch_norm_param {
    use_global_stats: true
  }
}
layer {
  name: "scale4a_branch2a"
  type: "Scale"
  bottom: "res4a_branch2a"
  top: "res4a_branch2a"
  param {
    lr_mult: 0
    decay_mult: 0
  }
  param {
    lr_mult: 0
    decay_mult: 0
  }
  scale_param {
    bias_term: true
  }
}
layer {
  name: "res4a_branch2a_relu"
  type: "ReLU"
  bottom: "res4a_branch2a"
  top: "res4a_branch2a"
}
layer {
  name: "res4a_branch2b"
  type: "Convolution"
  bottom: "res4a_branch2a"
  top: "res4a_branch2b"
  param {
    lr_mult: 1
  }
  convolution_param {
    num_output: 256
    bias_term: false
    pad: 1
    kernel_size: 3
    stride: 1
  }
}
layer {
  name: "bn4a_branch2b"
  type: "BatchNorm"
  bottom: "res4a_branch2b"
  top: "res4a_branch2b"
  param {
    lr_mult: 0
    decay_mult: 0
  }
  param {
    lr_mult: 0
    decay_mult: 0
  }
  param {
    lr_mult: 0
    decay_mult: 0
  }
  batch_norm_param {
    use_global_stats: true
  }
}
layer {
  name: "scale4a_branch2b"
  type: "Scale"
  bottom: "res4a_branch2b"
  top: "res4a_branch2b"
  param {
    lr_mult: 0
    decay_mult: 0
  }
  param {
    lr_mult: 0
    decay_mult: 0
  }
  scale_param {
    bias_term: true
  }
}
layer {
  name: "res4a_branch2b_relu"
  type: "ReLU"
  bottom: "res4a_branch2b"
  top: "res4a_branch2b"
}
layer {
  name: "res4a_branch2c"
  type: "Convolution"
  bottom: "res4a_branch2b"
  top: "res4a_branch2c"
  param {
    lr_mult: 1
  }
  convolution_param {
    num_output: 1024
    bias_term: false
    pad: 0
    kernel_size: 1
    stride: 1
  }
}
layer {
  name: "bn4a_branch2c"
  type: "BatchNorm"
  bottom: "res4a_branch2c"
  top: "res4a_branch2c"
  param {
    lr_mult: 0
    decay_mult: 0
  }
  param {
    lr_mult: 0
    decay_mult: 0
  }
  param {
    lr_mult: 0
    decay_mult: 0
  }
  batch_norm_param {
    use_global_stats: true
  }
}
layer {
  name: "scale4a_branch2c"
  type: "Scale"
  bottom: "res4a_branch2c"
  top: "res4a_branch2c"
  param {
    lr_mult: 0
    decay_mult: 0
  }
  param {
    lr_mult: 0
    decay_mult: 0
  }
  scale_param {
    bias_term: true
  }
}
layer {
  name: "res4a"
  type: "Eltwise"
  bottom: "res4a_branch1"
  bottom: "res4a_branch2c"
  top: "res4a"
}
layer {
  name: "res4a_relu"
  type: "ReLU"
  bottom: "res4a"
  top: "res4a"
}
layer {
  name: "res4b1_branch2a"
  type: "Convolution"
  bottom: "res4a"
  top: "res4b1_branch2a"
  param {
    lr_mult: 1
  }
  convolution_param {
    num_output: 256
    bias_term: false
    pad: 0
    kernel_size: 1
    stride: 1
  }
}
layer {
  name: "bn4b1_branch2a"
  type: "BatchNorm"
  bottom: "res4b1_branch2a"
  top: "res4b1_branch2a"
  param {
    lr_mult: 0
    decay_mult: 0
  }
  param {
    lr_mult: 0
    decay_mult: 0
  }
  param {
    lr_mult: 0
    decay_mult: 0
  }
  batch_norm_param {
    use_global_stats: true
  }
}
layer {
  name: "scale4b1_branch2a"
  type: "Scale"
  bottom: "res4b1_branch2a"
  top: "res4b1_branch2a"
  param {
    lr_mult: 0
    decay_mult: 0
  }
  param {
    lr_mult: 0
    decay_mult: 0
  }
  scale_param {
    bias_term: true
  }
}
layer {
  name: "res4b1_branch2a_relu"
  type: "ReLU"
  bottom: "res4b1_branch2a"
  top: "res4b1_branch2a"
}
layer {
  name: "res4b1_branch2b"
  type: "Convolution"
  bottom: "res4b1_branch2a"
  top: "res4b1_branch2b"
  param {
    lr_mult: 1
  }
  convolution_param {
    num_output: 256
    bias_term: false
    pad: 1
    kernel_size: 3
    stride: 1
  }
}
layer {
  name: "bn4b1_branch2b"
  type: "BatchNorm"
  bottom: "res4b1_branch2b"
  top: "res4b1_branch2b"
  param {
    lr_mult: 0
    decay_mult: 0
  }
  param {
    lr_mult: 0
    decay_mult: 0
  }
  param {
    lr_mult: 0
    decay_mult: 0
  }
  batch_norm_param {
    use_global_stats: true
  }
}
layer {
  name: "scale4b1_branch2b"
  type: "Scale"
  bottom: "res4b1_branch2b"
  top: "res4b1_branch2b"
  param {
    lr_mult: 0
    decay_mult: 0
  }
  param {
    lr_mult: 0
    decay_mult: 0
  }
  scale_param {
    bias_term: true
  }
}
layer {
  name: "res4b1_branch2b_relu"
  type: "ReLU"
  bottom: "res4b1_branch2b"
  top: "res4b1_branch2b"
}
layer {
  name: "res4b1_branch2c"
  type: "Convolution"
  bottom: "res4b1_branch2b"
  top: "res4b1_branch2c"
  param {
    lr_mult: 1
  }
  convolution_param {
    num_output: 1024
    bias_term: false
    pad: 0
    kernel_size: 1
    stride: 1
  }
}
layer {
  name: "bn4b1_branch2c"
  type: "BatchNorm"
  bottom: "res4b1_branch2c"
  top: "res4b1_branch2c"
  param {
    lr_mult: 0
    decay_mult: 0
  }
  param {
    lr_mult: 0
    decay_mult: 0
  }
  param {
    lr_mult: 0
    decay_mult: 0
  }
  batch_norm_param {
    use_global_stats: true
  }
}
layer {
  name: "scale4b1_branch2c"
  type: "Scale"
  bottom: "res4b1_branch2c"
  top: "res4b1_branch2c"
  param {
    lr_mult: 0
    decay_mult: 0
  }
  param {
    lr_mult: 0
    decay_mult: 0
  }
  scale_param {
    bias_term: true
  }
}
layer {
  name: "res4b1"
  type: "Eltwise"
  bottom: "res4a"
  bottom: "res4b1_branch2c"
  top: "res4b1"
}
layer {
  name: "res4b1_relu"
  type: "ReLU"
  bottom: "res4b1"
  top: "res4b1"
}
layer {
  name: "res4b2_branch2a"
  type: "Convolution"
  bottom: "res4b1"
  top: "res4b2_branch2a"
  param {
    lr_mult: 1
  }
  convolution_param {
    num_output: 256
    bias_term: false
    pad: 0
    kernel_size: 1
    stride: 1
  }
}
layer {
  name: "bn4b2_branch2a"
  type: "BatchNorm"
  bottom: "res4b2_branch2a"
  top: "res4b2_branch2a"
  param {
    lr_mult: 0
    decay_mult: 0
  }
  param {
    lr_mult: 0
    decay_mult: 0
  }
  param {
    lr_mult: 0
    decay_mult: 0
  }
  batch_norm_param {
    use_global_stats: true
  }
}
layer {
  name: "scale4b2_branch2a"
  type: "Scale"
  bottom: "res4b2_branch2a"
  top: "res4b2_branch2a"
  param {
    lr_mult: 0
    decay_mult: 0
  }
  param {
    lr_mult: 0
    decay_mult: 0
  }
  scale_param {
    bias_term: true
  }
}
layer {
  name: "res4b2_branch2a_relu"
  type: "ReLU"
  bottom: "res4b2_branch2a"
  top: "res4b2_branch2a"
}
layer {
  name: "res4b2_branch2b"
  type: "Convolution"
  bottom: "res4b2_branch2a"
  top: "res4b2_branch2b"
  param {
    lr_mult: 1
  }
  convolution_param {
    num_output: 256
    bias_term: false
    pad: 1
    kernel_size: 3
    stride: 1
  }
}
layer {
  n
I0629 17:31:12.463785 32089 layer_factory.hpp:77] Creating layer input-data
I0629 17:31:12.486690 32089 net.cpp:86] Creating Layer input-data
I0629 17:31:12.486719 32089 net.cpp:382] input-data -> data
I0629 17:31:12.486738 32089 net.cpp:382] input-data -> im_info
I0629 17:31:12.486749 32089 net.cpp:382] input-data -> gt_boxes
RoiDataLayer: name_to_top: {'gt_boxes': 2, 'data': 0, 'im_info': 1}
I0629 17:31:12.490628 32089 net.cpp:124] Setting up input-data
I0629 17:31:12.490648 32089 net.cpp:131] Top shape: 1 3 600 1000 (1800000)
I0629 17:31:12.490659 32089 net.cpp:131] Top shape: 1 3 (3)
I0629 17:31:12.490665 32089 net.cpp:131] Top shape: 1 4 (4)
I0629 17:31:12.490670 32089 net.cpp:139] Memory required for data: 7200028
I0629 17:31:12.490677 32089 layer_factory.hpp:77] Creating layer data_input-data_0_split
I0629 17:31:12.490695 32089 net.cpp:86] Creating Layer data_input-data_0_split
I0629 17:31:12.490701 32089 net.cpp:408] data_input-data_0_split <- data
I0629 17:31:12.490710 32089 net.cpp:382] data_input-data_0_split -> data_input-data_0_split_0
I0629 17:31:12.490726 32089 net.cpp:382] data_input-data_0_split -> data_input-data_0_split_1
I0629 17:31:12.490820 32089 net.cpp:124] Setting up data_input-data_0_split
I0629 17:31:12.490831 32089 net.cpp:131] Top shape: 1 3 600 1000 (1800000)
I0629 17:31:12.490844 32089 net.cpp:131] Top shape: 1 3 600 1000 (1800000)
I0629 17:31:12.490859 32089 net.cpp:139] Memory required for data: 21600028
I0629 17:31:12.490864 32089 layer_factory.hpp:77] Creating layer im_info_input-data_1_split
I0629 17:31:12.490871 32089 net.cpp:86] Creating Layer im_info_input-data_1_split
I0629 17:31:12.490878 32089 net.cpp:408] im_info_input-data_1_split <- im_info
I0629 17:31:12.490885 32089 net.cpp:382] im_info_input-data_1_split -> im_info_input-data_1_split_0
I0629 17:31:12.490895 32089 net.cpp:382] im_info_input-data_1_split -> im_info_input-data_1_split_1
I0629 17:31:12.490973 32089 net.cpp:124] Setting up im_info_input-data_1_split
I0629 17:31:12.490983 32089 net.cpp:131] Top shape: 1 3 (3)
I0629 17:31:12.490989 32089 net.cpp:131] Top shape: 1 3 (3)
I0629 17:31:12.490994 32089 net.cpp:139] Memory required for data: 21600052
I0629 17:31:12.490999 32089 layer_factory.hpp:77] Creating layer gt_boxes_input-data_2_split
I0629 17:31:12.491008 32089 net.cpp:86] Creating Layer gt_boxes_input-data_2_split
I0629 17:31:12.491014 32089 net.cpp:408] gt_boxes_input-data_2_split <- gt_boxes
I0629 17:31:12.491022 32089 net.cpp:382] gt_boxes_input-data_2_split -> gt_boxes_input-data_2_split_0
I0629 17:31:12.491034 32089 net.cpp:382] gt_boxes_input-data_2_split -> gt_boxes_input-data_2_split_1
I0629 17:31:12.491112 32089 net.cpp:124] Setting up gt_boxes_input-data_2_split
I0629 17:31:12.491123 32089 net.cpp:131] Top shape: 1 4 (4)
I0629 17:31:12.491129 32089 net.cpp:131] Top shape: 1 4 (4)
I0629 17:31:12.491137 32089 net.cpp:139] Memory required for data: 21600084
I0629 17:31:12.491142 32089 layer_factory.hpp:77] Creating layer conv1
I0629 17:31:12.491161 32089 net.cpp:86] Creating Layer conv1
I0629 17:31:12.491169 32089 net.cpp:408] conv1 <- data_input-data_0_split_0
I0629 17:31:12.491178 32089 net.cpp:382] conv1 -> conv1
I0629 17:31:15.131111 32089 net.cpp:124] Setting up conv1
I0629 17:31:15.131157 32089 net.cpp:131] Top shape: 1 64 300 500 (9600000)
I0629 17:31:15.131160 32089 net.cpp:139] Memory required for data: 60000084
I0629 17:31:15.131171 32089 layer_factory.hpp:77] Creating layer bn_conv1
I0629 17:31:15.131186 32089 net.cpp:86] Creating Layer bn_conv1
I0629 17:31:15.131189 32089 net.cpp:408] bn_conv1 <- conv1
I0629 17:31:15.131196 32089 net.cpp:369] bn_conv1 -> conv1 (in-place)
I0629 17:31:15.132823 32089 net.cpp:124] Setting up bn_conv1
I0629 17:31:15.132845 32089 net.cpp:131] Top shape: 1 64 300 500 (9600000)
I0629 17:31:15.132848 32089 net.cpp:139] Memory required for data: 98400084
I0629 17:31:15.132859 32089 layer_factory.hpp:77] Creating layer scale_conv1
I0629 17:31:15.132871 32089 net.cpp:86] Creating Layer scale_conv1
I0629 17:31:15.132877 32089 net.cpp:408] scale_conv1 <- conv1
I0629 17:31:15.132894 32089 net.cpp:369] scale_conv1 -> conv1 (in-place)
I0629 17:31:15.132959 32089 layer_factory.hpp:77] Creating layer scale_conv1
I0629 17:31:15.135435 32089 net.cpp:124] Setting up scale_conv1
I0629 17:31:15.135447 32089 net.cpp:131] Top shape: 1 64 300 500 (9600000)
I0629 17:31:15.135459 32089 net.cpp:139] Memory required for data: 136800084
I0629 17:31:15.135468 32089 layer_factory.hpp:77] Creating layer conv1_relu
I0629 17:31:15.135474 32089 net.cpp:86] Creating Layer conv1_relu
I0629 17:31:15.135483 32089 net.cpp:408] conv1_relu <- conv1
I0629 17:31:15.135488 32089 net.cpp:369] conv1_relu -> conv1 (in-place)
I0629 17:31:15.135706 32089 net.cpp:124] Setting up conv1_relu
I0629 17:31:15.135715 32089 net.cpp:131] Top shape: 1 64 300 500 (9600000)
I0629 17:31:15.135717 32089 net.cpp:139] Memory required for data: 175200084
I0629 17:31:15.135720 32089 layer_factory.hpp:77] Creating layer pool1
I0629 17:31:15.135731 32089 net.cpp:86] Creating Layer pool1
I0629 17:31:15.135735 32089 net.cpp:408] pool1 <- conv1
I0629 17:31:15.135740 32089 net.cpp:382] pool1 -> pool1
I0629 17:31:15.135800 32089 net.cpp:124] Setting up pool1
I0629 17:31:15.135807 32089 net.cpp:131] Top shape: 1 64 150 250 (2400000)
I0629 17:31:15.135809 32089 net.cpp:139] Memory required for data: 184800084
I0629 17:31:15.135812 32089 layer_factory.hpp:77] Creating layer pool1_pool1_0_split
I0629 17:31:15.135818 32089 net.cpp:86] Creating Layer pool1_pool1_0_split
I0629 17:31:15.135823 32089 net.cpp:408] pool1_pool1_0_split <- pool1
I0629 17:31:15.135839 32089 net.cpp:382] pool1_pool1_0_split -> pool1_pool1_0_split_0
I0629 17:31:15.135844 32089 net.cpp:382] pool1_pool1_0_split -> pool1_pool1_0_split_1
I0629 17:31:15.135893 32089 net.cpp:124] Setting up pool1_pool1_0_split
I0629 17:31:15.135900 32089 net.cpp:131] Top shape: 1 64 150 250 (2400000)
I0629 17:31:15.135903 32089 net.cpp:131] Top shape: 1 64 150 250 (2400000)
I0629 17:31:15.135906 32089 net.cpp:139] Memory required for data: 204000084
I0629 17:31:15.135910 32089 layer_factory.hpp:77] Creating layer res2a_branch1
I0629 17:31:15.135918 32089 net.cpp:86] Creating Layer res2a_branch1
I0629 17:31:15.135921 32089 net.cpp:408] res2a_branch1 <- pool1_pool1_0_split_0
I0629 17:31:15.135926 32089 net.cpp:382] res2a_branch1 -> res2a_branch1
I0629 17:31:15.138509 32089 net.cpp:124] Setting up res2a_branch1
I0629 17:31:15.138532 32089 net.cpp:131] Top shape: 1 256 150 250 (9600000)
I0629 17:31:15.138535 32089 net.cpp:139] Memory required for data: 242400084
I0629 17:31:15.138540 32089 layer_factory.hpp:77] Creating layer bn2a_branch1
I0629 17:31:15.138548 32089 net.cpp:86] Creating Layer bn2a_branch1
I0629 17:31:15.138551 32089 net.cpp:408] bn2a_branch1 <- res2a_branch1
I0629 17:31:15.138556 32089 net.cpp:369] bn2a_branch1 -> res2a_branch1 (in-place)
I0629 17:31:15.139978 32089 net.cpp:124] Setting up bn2a_branch1
I0629 17:31:15.139989 32089 net.cpp:131] Top shape: 1 256 150 250 (9600000)
I0629 17:31:15.140002 32089 net.cpp:139] Memory required for data: 280800084
I0629 17:31:15.140012 32089 layer_factory.hpp:77] Creating layer scale2a_branch1
I0629 17:31:15.140018 32089 net.cpp:86] Creating Layer scale2a_branch1
I0629 17:31:15.140023 32089 net.cpp:408] scale2a_branch1 <- res2a_branch1
I0629 17:31:15.140038 32089 net.cpp:369] scale2a_branch1 -> res2a_branch1 (in-place)
I0629 17:31:15.140115 32089 layer_factory.hpp:77] Creating layer scale2a_branch1
I0629 17:31:15.140342 32089 net.cpp:124] Setting up scale2a_branch1
I0629 17:31:15.140349 32089 net.cpp:131] Top shape: 1 256 150 250 (9600000)
I0629 17:31:15.140352 32089 net.cpp:139] Memory required for data: 319200084
I0629 17:31:15.140357 32089 layer_factory.hpp:77] Creating layer res2a_branch2a
I0629 17:31:15.140378 32089 net.cpp:86] Creating Layer res2a_branch2a
I0629 17:31:15.140381 32089 net.cpp:408] res2a_branch2a <- pool1_pool1_0_split_1
I0629 17:31:15.140388 32089 net.cpp:382] res2a_branch2a -> res2a_branch2a
I0629 17:31:15.144404 32089 net.cpp:124] Setting up res2a_branch2a
I0629 17:31:15.144428 32089 net.cpp:131] Top shape: 1 64 150 250 (2400000)
I0629 17:31:15.144431 32089 net.cpp:139] Memory required for data: 328800084
I0629 17:31:15.144438 32089 layer_factory.hpp:77] Creating layer bn2a_branch2a
I0629 17:31:15.144445 32089 net.cpp:86] Creating Layer bn2a_branch2a
I0629 17:31:15.144448 32089 net.cpp:408] bn2a_branch2a <- res2a_branch2a
I0629 17:31:15.144454 32089 net.cpp:369] bn2a_branch2a -> res2a_branch2a (in-place)
I0629 17:31:15.144798 32089 net.cpp:124] Setting up bn2a_branch2a
I0629 17:31:15.144816 32089 net.cpp:131] Top shape: 1 64 150 250 (2400000)
I0629 17:31:15.144819 32089 net.cpp:139] Memory required for data: 338400084
I0629 17:31:15.144836 32089 layer_factory.hpp:77] Creating layer scale2a_branch2a
I0629 17:31:15.144853 32089 net.cpp:86] Creating Layer scale2a_branch2a
I0629 17:31:15.144856 32089 net.cpp:408] scale2a_branch2a <- res2a_branch2a
I0629 17:31:15.144861 32089 net.cpp:369] scale2a_branch2a -> res2a_branch2a (in-place)
I0629 17:31:15.144927 32089 layer_factory.hpp:77] Creating layer scale2a_branch2a
I0629 17:31:15.145159 32089 net.cpp:124] Setting up scale2a_branch2a
I0629 17:31:15.145167 32089 net.cpp:131] Top shape: 1 64 150 250 (2400000)
I0629 17:31:15.145169 32089 net.cpp:139] Memory required for data: 348000084
I0629 17:31:15.145193 32089 layer_factory.hpp:77] Creating layer res2a_branch2a_relu
I0629 17:31:15.145203 32089 net.cpp:86] Creating Layer res2a_branch2a_relu
I0629 17:31:15.145206 32089 net.cpp:408] res2a_branch2a_relu <- res2a_branch2a
I0629 17:31:15.145215 32089 net.cpp:369] res2a_branch2a_relu -> res2a_branch2a (in-place)
I0629 17:31:15.145406 32089 net.cpp:124] Setting up res2a_branch2a_relu
I0629 17:31:15.145416 32089 net.cpp:131] Top shape: 1 64 150 250 (2400000)
I0629 17:31:15.145418 32089 net.cpp:139] Memory required for data: 357600084
I0629 17:31:15.145421 32089 layer_factory.hpp:77] Creating layer res2a_branch2b
I0629 17:31:15.145429 32089 net.cpp:86] Creating Layer res2a_branch2b
I0629 17:31:15.145434 32089 net.cpp:408] res2a_branch2b <- res2a_branch2a
I0629 17:31:15.145440 32089 net.cpp:382] res2a_branch2b -> res2a_branch2b
I0629 17:31:15.148020 32089 net.cpp:124] Setting up res2a_branch2b
I0629 17:31:15.148030 32089 net.cpp:131] Top shape: 1 64 150 250 (2400000)
I0629 17:31:15.148046 32089 net.cpp:139] Memory required for data: 367200084
I0629 17:31:15.148049 32089 layer_factory.hpp:77] Creating layer bn2a_branch2b
I0629 17:31:15.148056 32089 net.cpp:86] Creating Layer bn2a_branch2b
I0629 17:31:15.148059 32089 net.cpp:408] bn2a_branch2b <- res2a_branch2b
I0629 17:31:15.148064 32089 net.cpp:369] bn2a_branch2b -> res2a_branch2b (in-place)
I0629 17:31:15.149456 32089 net.cpp:124] Setting up bn2a_branch2b
I0629 17:31:15.149468 32089 net.cpp:131] Top shape: 1 64 150 250 (2400000)
I0629 17:31:15.149482 32089 net.cpp:139] Memory required for data: 376800084
I0629 17:31:15.149497 32089 layer_factory.hpp:77] Creating layer scale2a_branch2b
I0629 17:31:15.149505 32089 net.cpp:86] Creating Layer scale2a_branch2b
I0629 17:31:15.149508 32089 net.cpp:408] scale2a_branch2b <- res2a_branch2b
I0629 17:31:15.149513 32089 net.cpp:369] scale2a_branch2b -> res2a_branch2b (in-place)
I0629 17:31:15.149570 32089 layer_factory.hpp:77] Creating layer scale2a_branch2b
I0629 17:31:15.149842 32089 net.cpp:124] Setting up scale2a_branch2b
I0629 17:31:15.149850 32089 net.cpp:131] Top shape: 1 64 150 250 (2400000)
I0629 17:31:15.149852 32089 net.cpp:139] Memory required for data: 386400084
I0629 17:31:15.149858 32089 layer_factory.hpp:77] Creating layer res2a_branch2b_relu
I0629 17:31:15.149863 32089 net.cpp:86] Creating Layer res2a_branch2b_relu
I0629 17:31:15.149868 32089 net.cpp:408] res2a_branch2b_relu <- res2a_branch2b
I0629 17:31:15.149873 32089 net.cpp:369] res2a_branch2b_relu -> res2a_branch2b (in-place)
I0629 17:31:15.150710 32089 net.cpp:124] Setting up res2a_branch2b_relu
I0629 17:31:15.150722 32089 net.cpp:131] Top shape: 1 64 150 250 (2400000)
I0629 17:31:15.150724 32089 net.cpp:139] Memory required for data: 396000084
I0629 17:31:15.150727 32089 layer_factory.hpp:77] Creating layer res2a_branch2c
I0629 17:31:15.150734 32089 net.cpp:86] Creating Layer res2a_branch2c
I0629 17:31:15.150738 32089 net.cpp:408] res2a_branch2c <- res2a_branch2b
I0629 17:31:15.150743 32089 net.cpp:382] res2a_branch2c -> res2a_branch2c
I0629 17:31:15.153586 32089 net.cpp:124] Setting up res2a_branch2c
I0629 17:31:15.153599 32089 net.cpp:131] Top shape: 1 256 150 250 (9600000)
I0629 17:31:15.153614 32089 net.cpp:139] Memory required for data: 434400084
I0629 17:31:15.153621 32089 layer_factory.hpp:77] Creating layer bn2a_branch2c
I0629 17:31:15.153627 32089 net.cpp:86] Creating Layer bn2a_branch2c
I0629 17:31:15.153631 32089 net.cpp:408] bn2a_branch2c <- res2a_branch2c
I0629 17:31:15.153636 32089 net.cpp:369] bn2a_branch2c -> res2a_branch2c (in-place)
I0629 17:31:15.153990 32089 net.cpp:124] Setting up bn2a_branch2c
I0629 17:31:15.153996 32089 net.cpp:131] Top shape: 1 256 150 250 (9600000)
I0629 17:31:15.154000 32089 net.cpp:139] Memory required for data: 472800084
I0629 17:31:15.154018 32089 layer_factory.hpp:77] Creating layer scale2a_branch2c
I0629 17:31:15.154024 32089 net.cpp:86] Creating Layer scale2a_branch2c
I0629 17:31:15.154039 32089 net.cpp:408] scale2a_branch2c <- res2a_branch2c
I0629 17:31:15.154044 32089 net.cpp:369] scale2a_branch2c -> res2a_branch2c (in-place)
I0629 17:31:15.154117 32089 layer_factory.hpp:77] Creating layer scale2a_branch2c
I0629 17:31:15.154335 32089 net.cpp:124] Setting up scale2a_branch2c
I0629 17:31:15.154342 32089 net.cpp:131] Top shape: 1 256 150 250 (9600000)
I0629 17:31:15.154345 32089 net.cpp:139] Memory required for data: 511200084
I0629 17:31:15.154350 32089 layer_factory.hpp:77] Creating layer res2a
I0629 17:31:15.154374 32089 net.cpp:86] Creating Layer res2a
I0629 17:31:15.154378 32089 net.cpp:408] res2a <- res2a_branch1
I0629 17:31:15.154381 32089 net.cpp:408] res2a <- res2a_branch2c
I0629 17:31:15.154386 32089 net.cpp:382] res2a -> res2a
I0629 17:31:15.154425 32089 net.cpp:124] Setting up res2a
I0629 17:31:15.154433 32089 net.cpp:131] Top shape: 1 256 150 250 (9600000)
I0629 17:31:15.154435 32089 net.cpp:139] Memory required for data: 549600084
I0629 17:31:15.154438 32089 layer_factory.hpp:77] Creating layer res2a_relu
I0629 17:31:15.154446 32089 net.cpp:86] Creating Layer res2a_relu
I0629 17:31:15.154449 32089 net.cpp:408] res2a_relu <- res2a
I0629 17:31:15.154454 32089 net.cpp:369] res2a_relu -> res2a (in-place)
I0629 17:31:15.154649 32089 net.cpp:124] Setting up res2a_relu
I0629 17:31:15.154659 32089 net.cpp:131] Top shape: 1 256 150 250 (9600000)
I0629 17:31:15.154661 32089 net.cpp:139] Memory required for data: 588000084
I0629 17:31:15.154664 32089 layer_factory.hpp:77] Creating layer res2a_res2a_relu_0_split
I0629 17:31:15.154670 32089 net.cpp:86] Creating Layer res2a_res2a_relu_0_split
I0629 17:31:15.154675 32089 net.cpp:408] res2a_res2a_relu_0_split <- res2a
I0629 17:31:15.154680 32089 net.cpp:382] res2a_res2a_relu_0_split -> res2a_res2a_relu_0_split_0
I0629 17:31:15.154686 32089 net.cpp:382] res2a_res2a_relu_0_split -> res2a_res2a_relu_0_split_1
I0629 17:31:15.154747 32089 net.cpp:124] Setting up res2a_res2a_relu_0_split
I0629 17:31:15.154752 32089 net.cpp:131] Top shape: 1 256 150 250 (9600000)
I0629 17:31:15.154757 32089 net.cpp:131] Top shape: 1 256 150 250 (9600000)
I0629 17:31:15.154758 32089 net.cpp:139] Memory required for data: 664800084
I0629 17:31:15.154762 32089 layer_factory.hpp:77] Creating layer res2b_branch2a
I0629 17:31:15.154768 32089 net.cpp:86] Creating Layer res2b_branch2a
I0629 17:31:15.154773 32089 net.cpp:408] res2b_branch2a <- res2a_res2a_relu_0_split_0
I0629 17:31:15.154778 32089 net.cpp:382] res2b_branch2a -> res2b_branch2a
I0629 17:31:15.157508 32089 net.cpp:124] Setting up res2b_branch2a
I0629 17:31:15.157537 32089 net.cpp:131] Top shape: 1 64 150 250 (2400000)
I0629 17:31:15.157541 32089 net.cpp:139] Memory required for data: 674400084
I0629 17:31:15.157546 32089 layer_factory.hpp:77] Creating layer bn2b_branch2a
I0629 17:31:15.157559 32089 net.cpp:86] Creating Layer bn2b_branch2a
I0629 17:31:15.157562 32089 net.cpp:408] bn2b_branch2a <- res2b_branch2a
I0629 17:31:15.157567 32089 net.cpp:369] bn2b_branch2a -> res2b_branch2a (in-place)
I0629 17:31:15.158910 32089 net.cpp:124] Setting up bn2b_branch2a
I0629 17:31:15.158921 32089 net.cpp:131] Top shape: 1 64 150 250 (2400000)
I0629 17:31:15.158924 32089 net.cpp:139] Memory required for data: 684000084
I0629 17:31:15.158946 32089 layer_factory.hpp:77] Creating layer scale2b_branch2a
I0629 17:31:15.158953 32089 net.cpp:86] Creating Layer scale2b_branch2a
I0629 17:31:15.158957 32089 net.cpp:408] scale2b_branch2a <- res2b_branch2a
I0629 17:31:15.158962 32089 net.cpp:369] scale2b_branch2a -> res2b_branch2a (in-place)
I0629 17:31:15.159030 32089 layer_factory.hpp:77] Creating layer scale2b_branch2a
I0629 17:31:15.159273 32089 net.cpp:124] Setting up scale2b_branch2a
I0629 17:31:15.159281 32089 net.cpp:131] Top shape: 1 64 150 250 (2400000)
I0629 17:31:15.159283 32089 net.cpp:139] Memory required for data: 693600084
I0629 17:31:15.159289 32089 layer_factory.hpp:77] Creating layer res2b_branch2a_relu
I0629 17:31:15.159296 32089 net.cpp:86] Creating Layer res2b_branch2a_relu
I0629 17:31:15.159310 32089 net.cpp:408] res2b_branch2a_relu <- res2b_branch2a
I0629 17:31:15.159314 32089 net.cpp:369] res2b_branch2a_relu -> res2b_branch2a (in-place)
I0629 17:31:15.159518 32089 net.cpp:124] Setting up res2b_branch2a_relu
I0629 17:31:15.159528 32089 net.cpp:131] Top shape: 1 64 150 250 (2400000)
I0629 17:31:15.159530 32089 net.cpp:139] Memory required for data: 703200084
I0629 17:31:15.159533 32089 layer_factory.hpp:77] Creating layer res2b_branch2b
I0629 17:31:15.159540 32089 net.cpp:86] Creating Layer res2b_branch2b
I0629 17:31:15.159548 32089 net.cpp:408] res2b_branch2b <- res2b_branch2a
I0629 17:31:15.159553 32089 net.cpp:382] res2b_branch2b -> res2b_branch2b
I0629 17:31:15.162215 32089 net.cpp:124] Setting up res2b_branch2b
I0629 17:31:15.162227 32089 net.cpp:131] Top shape: 1 64 150 250 (2400000)
I0629 17:31:15.162242 32089 net.cpp:139] Memory required for data: 712800084
I0629 17:31:15.162247 32089 layer_factory.hpp:77] Creating layer bn2b_branch2b
I0629 17:31:15.162256 32089 net.cpp:86] Creating Layer bn2b_branch2b
I0629 17:31:15.162258 32089 net.cpp:408] bn2b_branch2b <- res2b_branch2b
I0629 17:31:15.162263 32089 net.cpp:369] bn2b_branch2b -> res2b_branch2b (in-place)
I0629 17:31:15.162614 32089 net.cpp:124] Setting up bn2b_branch2b
I0629 17:31:15.162621 32089 net.cpp:131] Top shape: 1 64 150 250 (2400000)
I0629 17:31:15.162636 32089 net.cpp:139] Memory required for data: 722400084
I0629 17:31:15.162642 32089 layer_factory.hpp:77] Creating layer scale2b_branch2b
I0629 17:31:15.162648 32089 net.cpp:86] Creating Layer scale2b_branch2b
I0629 17:31:15.162652 32089 net.cpp:408] scale2b_branch2b <- res2b_branch2b
I0629 17:31:15.162655 32089 net.cpp:369] scale2b_branch2b -> res2b_branch2b (in-place)
I0629 17:31:15.162734 32089 layer_factory.hpp:77] Creating layer scale2b_branch2b
I0629 17:31:15.162961 32089 net.cpp:124] Setting up scale2b_branch2b
I0629 17:31:15.162967 32089 net.cpp:131] Top shape: 1 64 150 250 (2400000)
I0629 17:31:15.162971 32089 net.cpp:139] Memory required for data: 732000084
I0629 17:31:15.162976 32089 layer_factory.hpp:77] Creating layer res2b_branch2b_relu
I0629 17:31:15.162988 32089 net.cpp:86] Creating Layer res2b_branch2b_relu
I0629 17:31:15.162992 32089 net.cpp:408] res2b_branch2b_relu <- res2b_branch2b
I0629 17:31:15.163007 32089 net.cpp:369] res2b_branch2b_relu -> res2b_branch2b (in-place)
I0629 17:31:15.163830 32089 net.cpp:124] Setting up res2b_branch2b_relu
I0629 17:31:15.163841 32089 net.cpp:131] Top shape: 1 64 150 250 (2400000)
I0629 17:31:15.163856 32089 net.cpp:139] Memory required for data: 741600084
I0629 17:31:15.163858 32089 layer_factory.hpp:77] Creating layer res2b_branch2c
I0629 17:31:15.163866 32089 net.cpp:86] Creating Layer res2b_branch2c
I0629 17:31:15.163869 32089 net.cpp:408] res2b_branch2c <- res2b_branch2b
I0629 17:31:15.163874 32089 net.cpp:382] res2b_branch2c -> res2b_branch2c
I0629 17:31:15.166535 32089 net.cpp:124] Setting up res2b_branch2c
I0629 17:31:15.166548 32089 net.cpp:131] Top shape: 1 256 150 250 (9600000)
I0629 17:31:15.166561 32089 net.cpp:139] Memory required for data: 780000084
I0629 17:31:15.166566 32089 layer_factory.hpp:77] Creating layer bn2b_branch2c
I0629 17:31:15.166574 32089 net.cpp:86] Creating Layer bn2b_branch2c
I0629 17:31:15.166576 32089 net.cpp:408] bn2b_branch2c <- res2b_branch2c
I0629 17:31:15.166580 32089 net.cpp:369] bn2b_branch2c -> res2b_branch2c (in-place)
I0629 17:31:15.167909 32089 net.cpp:124] Setting up bn2b_branch2c
I0629 17:31:15.167920 32089 net.cpp:131] Top shape: 1 256 150 250 (9600000)
I0629 17:31:15.167934 32089 net.cpp:139] Memory required for data: 818400084
I0629 17:31:15.167940 32089 layer_factory.hpp:77] Creating layer scale2b_branch2c
I0629 17:31:15.167948 32089 net.cpp:86] Creating Layer scale2b_branch2c
I0629 17:31:15.167950 32089 net.cpp:408] scale2b_branch2c <- res2b_branch2c
I0629 17:31:15.167955 32089 net.cpp:369] scale2b_branch2c -> res2b_branch2c (in-place)
I0629 17:31:15.168022 32089 layer_factory.hpp:77] Creating layer scale2b_branch2c
I0629 17:31:15.168253 32089 net.cpp:124] Setting up scale2b_branch2c
I0629 17:31:15.168262 32089 net.cpp:131] Top shape: 1 256 150 250 (9600000)
I0629 17:31:15.168263 32089 net.cpp:139] Memory required for data: 856800084
I0629 17:31:15.168268 32089 layer_factory.hpp:77] Creating layer res2b
I0629 17:31:15.168273 32089 net.cpp:86] Creating Layer res2b
I0629 17:31:15.168280 32089 net.cpp:408] res2b <- res2a_res2a_relu_0_split_1
I0629 17:31:15.168295 32089 net.cpp:408] res2b <- res2b_branch2c
I0629 17:31:15.168299 32089 net.cpp:382] res2b -> res2b
I0629 17:31:15.168336 32089 net.cpp:124] Setting up res2b
I0629 17:31:15.168344 32089 net.cpp:131] Top shape: 1 256 150 250 (9600000)
I0629 17:31:15.168346 32089 net.cpp:139] Memory required for data: 895200084
I0629 17:31:15.168349 32089 layer_factory.hpp:77] Creating layer res2b_relu
I0629 17:31:15.168354 32089 net.cpp:86] Creating Layer res2b_relu
I0629 17:31:15.168356 32089 net.cpp:408] res2b_relu <- res2b
I0629 17:31:15.168361 32089 net.cpp:369] res2b_relu -> res2b (in-place)
I0629 17:31:15.168556 32089 net.cpp:124] Setting up res2b_relu
I0629 17:31:15.168566 32089 net.cpp:131] Top shape: 1 256 150 250 (9600000)
I0629 17:31:15.168568 32089 net.cpp:139] Memory required for data: 933600084
I0629 17:31:15.168571 32089 layer_factory.hpp:77] Creating layer res2b_res2b_relu_0_split
I0629 17:31:15.168577 32089 net.cpp:86] Creating Layer res2b_res2b_relu_0_split
I0629 17:31:15.168581 32089 net.cpp:408] res2b_res2b_relu_0_split <- res2b
I0629 17:31:15.168586 32089 net.cpp:382] res2b_res2b_relu_0_split -> res2b_res2b_relu_0_split_0
I0629 17:31:15.168593 32089 net.cpp:382] res2b_res2b_relu_0_split -> res2b_res2b_relu_0_split_1
I0629 17:31:15.168656 32089 net.cpp:124] Setting up res2b_res2b_relu_0_split
I0629 17:31:15.168663 32089 net.cpp:131] Top shape: 1 256 150 250 (9600000)
I0629 17:31:15.168666 32089 net.cpp:131] Top shape: 1 256 150 250 (9600000)
I0629 17:31:15.168669 32089 net.cpp:139] Memory required for data: 1010400084
I0629 17:31:15.168671 32089 layer_factory.hpp:77] Creating layer res2c_branch2a
I0629 17:31:15.168679 32089 net.cpp:86] Creating Layer res2c_branch2a
I0629 17:31:15.168684 32089 net.cpp:408] res2c_branch2a <- res2b_res2b_relu_0_split_0
I0629 17:31:15.168689 32089 net.cpp:382] res2c_branch2a -> res2c_branch2a
I0629 17:31:15.171937 32089 net.cpp:124] Setting up res2c_branch2a
I0629 17:31:15.171949 32089 net.cpp:131] Top shape: 1 64 150 250 (2400000)
I0629 17:31:15.171963 32089 net.cpp:139] Memory required for data: 1020000084
I0629 17:31:15.171968 32089 layer_factory.hpp:77] Creating layer bn2c_branch2a
I0629 17:31:15.171975 32089 net.cpp:86] Creating Layer bn2c_branch2a
I0629 17:31:15.171978 32089 net.cpp:408] bn2c_branch2a <- res2c_branch2a
I0629 17:31:15.171983 32089 net.cpp:369] bn2c_branch2a -> res2c_branch2a (in-place)
I0629 17:31:15.172356 32089 net.cpp:124] Setting up bn2c_branch2a
I0629 17:31:15.172363 32089 net.cpp:131] Top shape: 1 64 150 250 (2400000)
I0629 17:31:15.172377 32089 net.cpp:139] Memory required for data: 1029600084
I0629 17:31:15.172384 32089 layer_factory.hpp:77] Creating layer scale2c_branch2a
I0629 17:31:15.172401 32089 net.cpp:86] Creating Layer scale2c_branch2a
I0629 17:31:15.172405 32089 net.cpp:408] scale2c_branch2a <- res2c_branch2a
I0629 17:31:15.172410 32089 net.cpp:369] scale2c_branch2a -> res2c_branch2a (in-place)
I0629 17:31:15.172488 32089 layer_factory.hpp:77] Creating layer scale2c_branch2a
I0629 17:31:15.172736 32089 net.cpp:124] Setting up scale2c_branch2a
I0629 17:31:15.172744 32089 net.cpp:131] Top shape: 1 64 150 250 (2400000)
I0629 17:31:15.172746 32089 net.cpp:139] Memory required for data: 1039200084
I0629 17:31:15.172751 32089 layer_factory.hpp:77] Creating layer res2c_branch2a_relu
I0629 17:31:15.172760 32089 net.cpp:86] Creating Layer res2c_branch2a_relu
I0629 17:31:15.172775 32089 net.cpp:408] res2c_branch2a_relu <- res2c_branch2a
I0629 17:31:15.172778 32089 net.cpp:369] res2c_branch2a_relu -> res2c_branch2a (in-place)
I0629 17:31:15.172974 32089 net.cpp:124] Setting up res2c_branch2a_relu
I0629 17:31:15.172983 32089 net.cpp:131] Top shape: 1 64 150 250 (2400000)
I0629 17:31:15.172986 32089 net.cpp:139] Memory required for data: 1048800084
I0629 17:31:15.172989 32089 layer_factory.hpp:77] Creating layer res2c_branch2b
I0629 17:31:15.172996 32089 net.cpp:86] Creating Layer res2c_branch2b
I0629 17:31:15.173002 32089 net.cpp:408] res2c_branch2b <- res2c_branch2a
I0629 17:31:15.173007 32089 net.cpp:382] res2c_branch2b -> res2c_branch2b
I0629 17:31:15.175719 32089 net.cpp:124] Setting up res2c_branch2b
I0629 17:31:15.175729 32089 net.cpp:131] Top shape: 1 64 150 250 (2400000)
I0629 17:31:15.175745 32089 net.cpp:139] Memory required for data: 1058400084
I0629 17:31:15.175750 32089 layer_factory.hpp:77] Creating layer bn2c_branch2b
I0629 17:31:15.175755 32089 net.cpp:86] Creating Layer bn2c_branch2b
I0629 17:31:15.175758 32089 net.cpp:408] bn2c_branch2b <- res2c_branch2b
I0629 17:31:15.175763 32089 net.cpp:369] bn2c_branch2b -> res2c_branch2b (in-place)
I0629 17:31:15.177163 32089 net.cpp:124] Setting up bn2c_branch2b
I0629 17:31:15.177175 32089 net.cpp:131] Top shape: 1 64 150 250 (2400000)
I0629 17:31:15.177222 32089 net.cpp:139] Memory required for data: 1068000084
I0629 17:31:15.177228 32089 layer_factory.hpp:77] Creating layer scale2c_branch2b
I0629 17:31:15.177234 32089 net.cpp:86] Creating Layer scale2c_branch2b
I0629 17:31:15.177249 32089 net.cpp:408] scale2c_branch2b <- res2c_branch2b
I0629 17:31:15.177258 32089 net.cpp:369] scale2c_branch2b -> res2c_branch2b (in-place)
I0629 17:31:15.177333 32089 layer_factory.hpp:77] Creating layer scale2c_branch2b
I0629 17:31:15.177578 32089 net.cpp:124] Setting up scale2c_branch2b
I0629 17:31:15.177590 32089 net.cpp:131] Top shape: 1 64 150 250 (2400000)
I0629 17:31:15.177593 32089 net.cpp:139] Memory required for data: 1077600084
I0629 17:31:15.177599 32089 layer_factory.hpp:77] Creating layer res2c_branch2b_relu
I0629 17:31:15.177606 32089 net.cpp:86] Creating Layer res2c_branch2b_relu
I0629 17:31:15.177620 32089 net.cpp:408] res2c_branch2b_relu <- res2c_branch2b
I0629 17:31:15.177624 32089 net.cpp:369] res2c_branch2b_relu -> res2c_branch2b (in-place)
I0629 17:31:15.178464 32089 net.cpp:124] Setting up res2c_branch2b_relu
I0629 17:31:15.178475 32089 net.cpp:131] Top shape: 1 64 150 250 (2400000)
I0629 17:31:15.178489 32089 net.cpp:139] Memory required for data: 1087200084
I0629 17:31:15.178493 32089 layer_factory.hpp:77] Creating layer res2c_branch2c
I0629 17:31:15.178499 32089 net.cpp:86] Creating Layer res2c_branch2c
I0629 17:31:15.178503 32089 net.cpp:408] res2c_branch2c <- res2c_branch2b
I0629 17:31:15.178514 32089 net.cpp:382] res2c_branch2c -> res2c_branch2c
I0629 17:31:15.181175 32089 net.cpp:124] Setting up res2c_branch2c
I0629 17:31:15.181191 32089 net.cpp:131] Top shape: 1 256 150 250 (9600000)
I0629 17:31:15.181206 32089 net.cpp:139] Memory required for data: 1125600084
I0629 17:31:15.181211 32089 layer_factory.hpp:77] Creating layer bn2c_branch2c
I0629 17:31:15.181217 32089 net.cpp:86] Creating Layer bn2c_branch2c
I0629 17:31:15.181221 32089 net.cpp:408] bn2c_branch2c <- res2c_branch2c
I0629 17:31:15.181226 32089 net.cpp:369] bn2c_branch2c -> res2c_branch2c (in-place)
I0629 17:31:15.181602 32089 net.cpp:124] Setting up bn2c_branch2c
I0629 17:31:15.181609 32089 net.cpp:131] Top shape: 1 256 150 250 (9600000)
I0629 17:31:15.181623 32089 net.cpp:139] Memory required for data: 1164000084
I0629 17:31:15.181630 32089 layer_factory.hpp:77] Creating layer scale2c_branch2c
I0629 17:31:15.181648 32089 net.cpp:86] Creating Layer scale2c_branch2c
I0629 17:31:15.181651 32089 net.cpp:408] scale2c_branch2c <- res2c_branch2c
I0629 17:31:15.181656 32089 net.cpp:369] scale2c_branch2c -> res2c_branch2c (in-place)
I0629 17:31:15.181736 32089 layer_factory.hpp:77] Creating layer scale2c_branch2c
I0629 17:31:15.181979 32089 net.cpp:124] Setting up scale2c_branch2c
I0629 17:31:15.181988 32089 net.cpp:131] Top shape: 1 256 150 250 (9600000)
I0629 17:31:15.181990 32089 net.cpp:139] Memory required for data: 1202400084
I0629 17:31:15.181999 32089 layer_factory.hpp:77] Creating layer res2c
I0629 17:31:15.182008 32089 net.cpp:86] Creating Layer res2c
I0629 17:31:15.182023 32089 net.cpp:408] res2c <- res2b_res2b_relu_0_split_1
I0629 17:31:15.182026 32089 net.cpp:408] res2c <- res2c_branch2c
I0629 17:31:15.182030 32089 net.cpp:382] res2c -> res2c
I0629 17:31:15.182078 32089 net.cpp:124] Setting up res2c
I0629 17:31:15.182085 32089 net.cpp:131] Top shape: 1 256 150 250 (9600000)
I0629 17:31:15.182087 32089 net.cpp:139] Memory required for data: 1240800084
I0629 17:31:15.182090 32089 layer_factory.hpp:77] Creating layer res2c_relu
I0629 17:31:15.182096 32089 net.cpp:86] Creating Layer res2c_relu
I0629 17:31:15.182098 32089 net.cpp:408] res2c_relu <- res2c
I0629 17:31:15.182102 32089 net.cpp:369] res2c_relu -> res2c (in-place)
I0629 17:31:15.182317 32089 net.cpp:124] Setting up res2c_relu
I0629 17:31:15.182325 32089 net.cpp:131] Top shape: 1 256 150 250 (9600000)
I0629 17:31:15.182328 32089 net.cpp:139] Memory required for data: 1279200084
I0629 17:31:15.182332 32089 layer_factory.hpp:77] Creating layer res2c_res2c_relu_0_split
I0629 17:31:15.182337 32089 net.cpp:86] Creating Layer res2c_res2c_relu_0_split
I0629 17:31:15.182339 32089 net.cpp:408] res2c_res2c_relu_0_split <- res2c
I0629 17:31:15.182344 32089 net.cpp:382] res2c_res2c_relu_0_split -> res2c_res2c_relu_0_split_0
I0629 17:31:15.182350 32089 net.cpp:382] res2c_res2c_relu_0_split -> res2c_res2c_relu_0_split_1
I0629 17:31:15.182413 32089 net.cpp:124] Setting up res2c_res2c_relu_0_split
I0629 17:31:15.182420 32089 net.cpp:131] Top shape: 1 256 150 250 (9600000)
I0629 17:31:15.182425 32089 net.cpp:131] Top shape: 1 256 150 250 (9600000)
I0629 17:31:15.182426 32089 net.cpp:139] Memory required for data: 1356000084
I0629 17:31:15.182430 32089 layer_factory.hpp:77] Creating layer res3a_branch1
I0629 17:31:15.182436 32089 net.cpp:86] Creating Layer res3a_branch1
I0629 17:31:15.182441 32089 net.cpp:408] res3a_branch1 <- res2c_res2c_relu_0_split_0
I0629 17:31:15.182446 32089 net.cpp:382] res3a_branch1 -> res3a_branch1
I0629 17:31:15.186131 32089 net.cpp:124] Setting up res3a_branch1
I0629 17:31:15.186156 32089 net.cpp:131] Top shape: 1 512 75 125 (4800000)
I0629 17:31:15.186158 32089 net.cpp:139] Memory required for data: 1375200084
I0629 17:31:15.186163 32089 layer_factory.hpp:77] Creating layer bn3a_branch1
I0629 17:31:15.186170 32089 net.cpp:86] Creating Layer bn3a_branch1
I0629 17:31:15.186185 32089 net.cpp:408] bn3a_branch1 <- res3a_branch1
I0629 17:31:15.186192 32089 net.cpp:369] bn3a_branch1 -> res3a_branch1 (in-place)
I0629 17:31:15.187558 32089 net.cpp:124] Setting up bn3a_branch1
I0629 17:31:15.187569 32089 net.cpp:131] Top shape: 1 512 75 125 (4800000)
I0629 17:31:15.187583 32089 net.cpp:139] Memory required for data: 1394400084
I0629 17:31:15.187590 32089 layer_factory.hpp:77] Creating layer scale3a_branch1
I0629 17:31:15.187597 32089 net.cpp:86] Creating Layer scale3a_branch1
I0629 17:31:15.187599 32089 net.cpp:408] scale3a_branch1 <- res3a_branch1
I0629 17:31:15.187604 32089 net.cpp:369] scale3a_branch1 -> res3a_branch1 (in-place)
I0629 17:31:15.187669 32089 layer_factory.hpp:77] Creating layer scale3a_branch1
I0629 17:31:15.187891 32089 net.cpp:124] Setting up scale3a_branch1
I0629 17:31:15.187898 32089 net.cpp:131] Top shape: 1 512 75 125 (4800000)
I0629 17:31:15.187901 32089 net.cpp:139] Memory required for data: 1413600084
I0629 17:31:15.187906 32089 layer_factory.hpp:77] Creating layer res3a_branch2a
I0629 17:31:15.187913 32089 net.cpp:86] Creating Layer res3a_branch2a
I0629 17:31:15.187918 32089 net.cpp:408] res3a_branch2a <- res2c_res2c_relu_0_split_1
I0629 17:31:15.187924 32089 net.cpp:382] res3a_branch2a -> res3a_branch2a
I0629 17:31:15.190140 32089 net.cpp:124] Setting up res3a_branch2a
I0629 17:31:15.190165 32089 net.cpp:131] Top shape: 1 128 75 125 (1200000)
I0629 17:31:15.190167 32089 net.cpp:139] Memory required for data: 1418400084
I0629 17:31:15.190172 32089 layer_factory.hpp:77] Creating layer bn3a_branch2a
I0629 17:31:15.190191 32089 net.cpp:86] Creating Layer bn3a_branch2a
I0629 17:31:15.190193 32089 net.cpp:408] bn3a_branch2a <- res3a_branch2a
I0629 17:31:15.190198 32089 net.cpp:369] bn3a_branch2a -> res3a_branch2a (in-place)
I0629 17:31:15.190580 32089 net.cpp:124] Setting up bn3a_branch2a
I0629 17:31:15.190587 32089 net.cpp:131] Top shape: 1 128 75 125 (1200000)
I0629 17:31:15.190601 32089 net.cpp:139] Memory required for data: 1423200084
I0629 17:31:15.190608 32089 layer_factory.hpp:77] Creating layer scale3a_branch2a
I0629 17:31:15.190626 32089 net.cpp:86] Creating Layer scale3a_branch2a
I0629 17:31:15.190629 32089 net.cpp:408] scale3a_branch2a <- res3a_branch2a
I0629 17:31:15.190634 32089 net.cpp:369] scale3a_branch2a -> res3a_branch2a (in-place)
I0629 17:31:15.190713 32089 layer_factory.hpp:77] Creating layer scale3a_branch2a
I0629 17:31:15.190939 32089 net.cpp:124] Setting up scale3a_branch2a
I0629 17:31:15.190948 32089 net.cpp:131] Top shape: 1 128 75 125 (1200000)
I0629 17:31:15.190950 32089 net.cpp:139] Memory required for data: 1428000084
I0629 17:31:15.190955 32089 layer_factory.hpp:77] Creating layer res3a_branch2a_relu
I0629 17:31:15.190961 32089 net.cpp:86] Creating Layer res3a_branch2a_relu
I0629 17:31:15.190964 32089 net.cpp:408] res3a_branch2a_relu <- res3a_branch2a
I0629 17:31:15.190968 32089 net.cpp:369] res3a_branch2a_relu -> res3a_branch2a (in-place)
I0629 17:31:15.191166 32089 net.cpp:124] Setting up res3a_branch2a_relu
I0629 17:31:15.191174 32089 net.cpp:131] Top shape: 1 128 75 125 (1200000)
I0629 17:31:15.191177 32089 net.cpp:139] Memory required for data: 1432800084
I0629 17:31:15.191181 32089 layer_factory.hpp:77] Creating layer res3a_branch2b
I0629 17:31:15.191190 32089 net.cpp:86] Creating Layer res3a_branch2b
I0629 17:31:15.191195 32089 net.cpp:408] res3a_branch2b <- res3a_branch2a
I0629 17:31:15.191211 32089 net.cpp:382] res3a_branch2b -> res3a_branch2b
I0629 17:31:15.194919 32089 net.cpp:124] Setting up res3a_branch2b
I0629 17:31:15.194942 32089 net.cpp:131] Top shape: 1 128 75 125 (1200000)
I0629 17:31:15.194946 32089 net.cpp:139] Memory required for data: 1437600084
I0629 17:31:15.194950 32089 layer_factory.hpp:77] Creating layer bn3a_branch2b
I0629 17:31:15.194957 32089 net.cpp:86] Creating Layer bn3a_branch2b
I0629 17:31:15.194969 32089 net.cpp:408] bn3a_branch2b <- res3a_branch2b
I0629 17:31:15.194975 32089 net.cpp:369] bn3a_branch2b -> res3a_branch2b (in-place)
I0629 17:31:15.195319 32089 net.cpp:124] Setting up bn3a_branch2b
I0629 17:31:15.195327 32089 net.cpp:131] Top shape: 1 128 75 125 (1200000)
I0629 17:31:15.195340 32089 net.cpp:139] Memory required for data: 1442400084
I0629 17:31:15.195346 32089 layer_factory.hpp:77] Creating layer scale3a_branch2b
I0629 17:31:15.195354 32089 net.cpp:86] Creating Layer scale3a_branch2b
I0629 17:31:15.195369 32089 net.cpp:408] scale3a_branch2b <- res3a_branch2b
I0629 17:31:15.195379 32089 net.cpp:369] scale3a_branch2b -> res3a_branch2b (in-place)
I0629 17:31:15.195456 32089 layer_factory.hpp:77] Creating layer scale3a_branch2b
I0629 17:31:15.195682 32089 net.cpp:124] Setting up scale3a_branch2b
I0629 17:31:15.195689 32089 net.cpp:131] Top shape: 1 128 75 125 (1200000)
I0629 17:31:15.195691 32089 net.cpp:139] Memory required for data: 1447200084
I0629 17:31:15.195698 32089 layer_factory.hpp:77] Creating layer res3a_branch2b_relu
I0629 17:31:15.195705 32089 net.cpp:86] Creating Layer res3a_branch2b_relu
I0629 17:31:15.195708 32089 net.cpp:408] res3a_branch2b_relu <- res3a_branch2b
I0629 17:31:15.195713 32089 net.cpp:369] res3a_branch2b_relu -> res3a_branch2b (in-place)
I0629 17:31:15.196552 32089 net.cpp:124] Setting up res3a_branch2b_relu
I0629 17:31:15.196578 32089 net.cpp:131] Top shape: 1 128 75 125 (1200000)
I0629 17:31:15.196580 32089 net.cpp:139] Memory required for data: 1452000084
I0629 17:31:15.196583 32089 layer_factory.hpp:77] Creating layer res3a_branch2c
I0629 17:31:15.196590 32089 net.cpp:86] Creating Layer res3a_branch2c
I0629 17:31:15.196594 32089 net.cpp:408] res3a_branch2c <- res3a_branch2b
I0629 17:31:15.196599 32089 net.cpp:382] res3a_branch2c -> res3a_branch2c
I0629 17:31:15.199424 32089 net.cpp:124] Setting up res3a_branch2c
I0629 17:31:15.199448 32089 net.cpp:131] Top shape: 1 512 75 125 (4800000)
I0629 17:31:15.199451 32089 net.cpp:139] Memory required for data: 1471200084
I0629 17:31:15.199455 32089 layer_factory.hpp:77] Creating layer bn3a_branch2c
I0629 17:31:15.199462 32089 net.cpp:86] Creating Layer bn3a_branch2c
I0629 17:31:15.199465 32089 net.cpp:408] bn3a_branch2c <- res3a_branch2c
I0629 17:31:15.199470 32089 net.cpp:369] bn3a_branch2c -> res3a_branch2c (in-place)
I0629 17:31:15.199833 32089 net.cpp:124] Setting up bn3a_branch2c
I0629 17:31:15.199856 32089 net.cpp:131] Top shape: 1 512 75 125 (4800000)
I0629 17:31:15.199859 32089 net.cpp:139] Memory required for data: 1490400084
I0629 17:31:15.199877 32089 layer_factory.hpp:77] Creating layer scale3a_branch2c
I0629 17:31:15.199882 32089 net.cpp:86] Creating Layer scale3a_branch2c
I0629 17:31:15.199885 32089 net.cpp:408] scale3a_branch2c <- res3a_branch2c
I0629 17:31:15.199889 32089 net.cpp:369] scale3a_branch2c -> res3a_branch2c (in-place)
I0629 17:31:15.199962 32089 layer_factory.hpp:77] Creating layer scale3a_branch2c
I0629 17:31:15.200199 32089 net.cpp:124] Setting up scale3a_branch2c
I0629 17:31:15.200206 32089 net.cpp:131] Top shape: 1 512 75 125 (4800000)
I0629 17:31:15.200209 32089 net.cpp:139] Memory required for data: 1509600084
I0629 17:31:15.200215 32089 layer_factory.hpp:77] Creating layer res3a
I0629 17:31:15.200223 32089 net.cpp:86] Creating Layer res3a
I0629 17:31:15.200227 32089 net.cpp:408] res3a <- res3a_branch1
I0629 17:31:15.200232 32089 net.cpp:408] res3a <- res3a_branch2c
I0629 17:31:15.200235 32089 net.cpp:382] res3a -> res3a
I0629 17:31:15.200273 32089 net.cpp:124] Setting up res3a
I0629 17:31:15.200280 32089 net.cpp:131] Top shape: 1 512 75 125 (4800000)
I0629 17:31:15.200284 32089 net.cpp:139] Memory required for data: 1528800084
I0629 17:31:15.200285 32089 layer_factory.hpp:77] Creating layer res3a_relu
I0629 17:31:15.200291 32089 net.cpp:86] Creating Layer res3a_relu
I0629 17:31:15.200294 32089 net.cpp:408] res3a_relu <- res3a
I0629 17:31:15.200299 32089 net.cpp:369] res3a_relu -> res3a (in-place)
I0629 17:31:15.201118 32089 net.cpp:124] Setting up res3a_relu
I0629 17:31:15.201129 32089 net.cpp:131] Top shape: 1 512 75 125 (4800000)
I0629 17:31:15.201143 32089 net.cpp:139] Memory required for data: 1548000084
I0629 17:31:15.201146 32089 layer_factory.hpp:77] Creating layer res3a_res3a_relu_0_split
I0629 17:31:15.201151 32089 net.cpp:86] Creating Layer res3a_res3a_relu_0_split
I0629 17:31:15.201154 32089 net.cpp:408] res3a_res3a_relu_0_split <- res3a
I0629 17:31:15.201160 32089 net.cpp:382] res3a_res3a_relu_0_split -> res3a_res3a_relu_0_split_0
I0629 17:31:15.201165 32089 net.cpp:382] res3a_res3a_relu_0_split -> res3a_res3a_relu_0_split_1
I0629 17:31:15.201256 32089 net.cpp:124] Setting up res3a_res3a_relu_0_split
I0629 17:31:15.201266 32089 net.cpp:131] Top shape: 1 512 75 125 (4800000)
I0629 17:31:15.201268 32089 net.cpp:131] Top shape: 1 512 75 125 (4800000)
I0629 17:31:15.201272 32089 net.cpp:139] Memory required for data: 1586400084
I0629 17:31:15.201273 32089 layer_factory.hpp:77] Creating layer res3b1_branch2a
I0629 17:31:15.201282 32089 net.cpp:86] Creating Layer res3b1_branch2a
I0629 17:31:15.201295 32089 net.cpp:408] res3b1_branch2a <- res3a_res3a_relu_0_split_0
I0629 17:31:15.201300 32089 net.cpp:382] res3b1_branch2a -> res3b1_branch2a
I0629 17:31:15.203620 32089 net.cpp:124] Setting up res3b1_branch2a
I0629 17:31:15.203631 32089 net.cpp:131] Top shape: 1 128 75 125 (1200000)
I0629 17:31:15.203645 32089 net.cpp:139] Memory required for data: 1591200084
I0629 17:31:15.203650 32089 layer_factory.hpp:77] Creating layer bn3b1_branch2a
I0629 17:31:15.203657 32089 net.cpp:86] Creating Layer bn3b1_branch2a
I0629 17:31:15.203661 32089 net.cpp:408] bn3b1_branch2a <- res3b1_branch2a
I0629 17:31:15.203666 32089 net.cpp:369] bn3b1_branch2a -> res3b1_branch2a (in-place)
I0629 17:31:15.204030 32089 net.cpp:124] Setting up bn3b1_branch2a
I0629 17:31:15.204037 32089 net.cpp:131] Top shape: 1 128 75 125 (1200000)
I0629 17:31:15.204040 32089 net.cpp:139] Memory required for data: 1596000084
I0629 17:31:15.204057 32089 layer_factory.hpp:77] Creating layer scale3b1_branch2a
I0629 17:31:15.204074 32089 net.cpp:86] Creating Layer scale3b1_branch2a
I0629 17:31:15.204077 32089 net.cpp:408] scale3b1_branch2a <- res3b1_branch2a
I0629 17:31:15.204082 32089 net.cpp:369] scale3b1_branch2a -> res3b1_branch2a (in-place)
I0629 17:31:15.204160 32089 layer_factory.hpp:77] Creating layer scale3b1_branch2a
I0629 17:31:15.204393 32089 net.cpp:124] Setting up scale3b1_branch2a
I0629 17:31:15.204401 32089 net.cpp:131] Top shape: 1 128 75 125 (1200000)
I0629 17:31:15.204403 32089 net.cpp:139] Memory required for data: 1600800084
I0629 17:31:15.204408 32089 layer_factory.hpp:77] Creating layer res3b1_branch2a_relu
I0629 17:31:15.204416 32089 net.cpp:86] Creating Layer res3b1_branch2a_relu
I0629 17:31:15.204417 32089 net.cpp:408] res3b1_branch2a_relu <- res3b1_branch2a
I0629 17:31:15.204421 32089 net.cpp:369] res3b1_branch2a_relu -> res3b1_branch2a (in-place)
I0629 17:31:15.204630 32089 net.cpp:124] Setting up res3b1_branch2a_relu
I0629 17:31:15.204639 32089 net.cpp:131] Top shape: 1 128 75 125 (1200000)
I0629 17:31:15.204641 32089 net.cpp:139] Memory required for data: 1605600084
I0629 17:31:15.204644 32089 layer_factory.hpp:77] Creating layer res3b1_branch2b
I0629 17:31:15.204653 32089 net.cpp:86] Creating Layer res3b1_branch2b
I0629 17:31:15.204658 32089 net.cpp:408] res3b1_branch2b <- res3b1_branch2a
I0629 17:31:15.204661 32089 net.cpp:382] res3b1_branch2b -> res3b1_branch2b
I0629 17:31:15.209136 32089 net.cpp:124] Setting up res3b1_branch2b
I0629 17:31:15.209148 32089 net.cpp:131] Top shape: 1 128 75 125 (1200000)
I0629 17:31:15.209162 32089 net.cpp:139] Memory required for data: 1610400084
I0629 17:31:15.209167 32089 layer_factory.hpp:77] Creating layer bn3b1_branch2b
I0629 17:31:15.209173 32089 net.cpp:86] Creating Layer bn3b1_branch2b
I0629 17:31:15.209177 32089 net.cpp:408] bn3b1_branch2b <- res3b1_branch2b
I0629 17:31:15.209193 32089 net.cpp:369] bn3b1_branch2b -> res3b1_branch2b (in-place)
I0629 17:31:15.209568 32089 net.cpp:124] Setting up bn3b1_branch2b
I0629 17:31:15.209576 32089 net.cpp:131] Top shape: 1 128 75 125 (1200000)
I0629 17:31:15.209590 32089 net.cpp:139] Memory required for data: 1615200084
I0629 17:31:15.209597 32089 layer_factory.hpp:77] Creating layer scale3b1_branch2b
I0629 17:31:15.209616 32089 net.cpp:86] Creating Layer scale3b1_branch2b
I0629 17:31:15.209619 32089 net.cpp:408] scale3b1_branch2b <- res3b1_branch2b
I0629 17:31:15.209625 32089 net.cpp:369] scale3b1_branch2b -> res3b1_branch2b (in-place)
I0629 17:31:15.209713 32089 layer_factory.hpp:77] Creating layer scale3b1_branch2b
I0629 17:31:15.211052 32089 net.cpp:124] Setting up scale3b1_branch2b
I0629 17:31:15.211063 32089 net.cpp:131] Top shape: 1 128 75 125 (1200000)
I0629 17:31:15.211077 32089 net.cpp:139] Memory required for data: 1620000084
I0629 17:31:15.211082 32089 layer_factory.hpp:77] Creating layer res3b1_branch2b_relu
I0629 17:31:15.211098 32089 net.cpp:86] Creating Layer res3b1_branch2b_relu
I0629 17:31:15.211102 32089 net.cpp:408] res3b1_branch2b_relu <- res3b1_branch2b
I0629 17:31:15.211105 32089 net.cpp:369] res3b1_branch2b_relu -> res3b1_branch2b (in-place)
I0629 17:31:15.211953 32089 net.cpp:124] Setting up res3b1_branch2b_relu
I0629 17:31:15.211964 32089 net.cpp:131] Top shape: 1 128 75 125 (1200000)
I0629 17:31:15.211966 32089 net.cpp:139] Memory required for data: 1624800084
I0629 17:31:15.211980 32089 layer_factory.hpp:77] Creating layer res3b1_branch2c
I0629 17:31:15.211989 32089 net.cpp:86] Creating Layer res3b1_branch2c
I0629 17:31:15.211992 32089 net.cpp:408] res3b1_branch2c <- res3b1_branch2b
I0629 17:31:15.211998 32089 net.cpp:382] res3b1_branch2c -> res3b1_branch2c
I0629 17:31:15.213616 32089 net.cpp:124] Setting up res3b1_branch2c
I0629 17:31:15.213627 32089 net.cpp:131] Top shape: 1 512 75 125 (4800000)
I0629 17:31:15.213641 32089 net.cpp:139] Memory required for data: 1644000084
I0629 17:31:15.213646 32089 layer_factory.hpp:77] Creating layer bn3b1_branch2c
I0629 17:31:15.213654 32089 net.cpp:86] Creating Layer bn3b1_branch2c
I0629 17:31:15.213656 32089 net.cpp:408] bn3b1_branch2c <- res3b1_branch2c
I0629 17:31:15.213662 32089 net.cpp:369] bn3b1_branch2c -> res3b1_branch2c (in-place)
I0629 17:31:15.214031 32089 net.cpp:124] Setting up bn3b1_branch2c
I0629 17:31:15.214038 32089 net.cpp:131] Top shape: 1 512 75 125 (4800000)
I0629 17:31:15.214040 32089 net.cpp:139] Memory required for data: 1663200084
I0629 17:31:15.214064 32089 layer_factory.hpp:77] Creating layer scale3b1_branch2c
I0629 17:31:15.214071 32089 net.cpp:86] Creating Layer scale3b1_branch2c
I0629 17:31:15.214073 32089 net.cpp:408] scale3b1_branch2c <- res3b1_branch2c
I0629 17:31:15.214078 32089 net.cpp:369] scale3b1_branch2c -> res3b1_branch2c (in-place)
I0629 17:31:15.214135 32089 layer_factory.hpp:77] Creating layer scale3b1_branch2c
I0629 17:31:15.214341 32089 net.cpp:124] Setting up scale3b1_branch2c
I0629 17:31:15.214349 32089 net.cpp:131] Top shape: 1 512 75 125 (4800000)
I0629 17:31:15.214351 32089 net.cpp:139] Memory required for data: 1682400084
I0629 17:31:15.214356 32089 layer_factory.hpp:77] Creating layer res3b1
I0629 17:31:15.214360 32089 net.cpp:86] Creating Layer res3b1
I0629 17:31:15.214363 32089 net.cpp:408] res3b1 <- res3a_res3a_relu_0_split_1
I0629 17:31:15.214366 32089 net.cpp:408] res3b1 <- res3b1_branch2c
I0629 17:31:15.214370 32089 net.cpp:382] res3b1 -> res3b1
I0629 17:31:15.214411 32089 net.cpp:124] Setting up res3b1
I0629 17:31:15.214418 32089 net.cpp:131] Top shape: 1 512 75 125 (4800000)
I0629 17:31:15.214421 32089 net.cpp:139] Memory required for data: 1701600084
I0629 17:31:15.214423 32089 layer_factory.hpp:77] Creating layer res3b1_relu
I0629 17:31:15.214427 32089 net.cpp:86] Creating Layer res3b1_relu
I0629 17:31:15.214431 32089 net.cpp:408] res3b1_relu <- res3b1
I0629 17:31:15.214434 32089 net.cpp:369] res3b1_relu -> res3b1 (in-place)
I0629 17:31:15.215237 32089 net.cpp:124] Setting up res3b1_relu
I0629 17:31:15.215248 32089 net.cpp:131] Top shape: 1 512 75 125 (4800000)
I0629 17:31:15.215262 32089 net.cpp:139] Memory required for data: 1720800084
I0629 17:31:15.215265 32089 layer_factory.hpp:77] Creating layer res3b1_res3b1_relu_0_split
I0629 17:31:15.215271 32089 net.cpp:86] Creating Layer res3b1_res3b1_relu_0_split
I0629 17:31:15.215275 32089 net.cpp:408] res3b1_res3b1_relu_0_split <- res3b1
I0629 17:31:15.215281 32089 net.cpp:382] res3b1_res3b1_relu_0_split -> res3b1_res3b1_relu_0_split_0
I0629 17:31:15.215286 32089 net.cpp:382] res3b1_res3b1_relu_0_split -> res3b1_res3b1_relu_0_split_1
I0629 17:31:15.215366 32089 net.cpp:124] Setting up res3b1_res3b1_relu_0_split
I0629 17:31:15.215373 32089 net.cpp:131] Top shape: 1 512 75 125 (4800000)
I0629 17:31:15.215376 32089 net.cpp:131] Top shape: 1 512 75 125 (4800000)
I0629 17:31:15.215379 32089 net.cpp:139] Memory required for data: 1759200084
I0629 17:31:15.215381 32089 layer_factory.hpp:77] Creating layer res3b2_branch2a
I0629 17:31:15.215390 32089 net.cpp:86] Creating Layer res3b2_branch2a
I0629 17:31:15.215394 32089 net.cpp:408] res3b2_branch2a <- res3b1_res3b1_relu_0_split_0
I0629 17:31:15.215399 32089 net.cpp:382] res3b2_branch2a -> res3b2_branch2a
I0629 17:31:15.217576 32089 net.cpp:124] Setting up res3b2_branch2a
I0629 17:31:15.217588 32089 net.cpp:131] Top shape: 1 128 75 125 (1200000)
I0629 17:31:15.217602 32089 net.cpp:139] Memory required for data: 1764000084
I0629 17:31:15.217607 32089 layer_factory.hpp:77] Creating layer bn3b2_branch2a
I0629 17:31:15.217614 32089 net.cpp:86] Creating Layer bn3b2_branch2a
I0629 17:31:15.217618 32089 net.cpp:408] bn3b2_branch2a <- res3b2_branch2a
I0629 17:31:15.217622 32089 net.cpp:369] bn3b2_branch2a -> res3b2_branch2a (in-place)
I0629 17:31:15.217979 32089 net.cpp:124] Setting up bn3b2_branch2a
I0629 17:31:15.217986 32089 net.cpp:131] Top shape: 1 128 75 125 (1200000)
I0629 17:31:15.217989 32089 net.cpp:139] Memory required for data: 1768800084
I0629 17:31:15.218008 32089 layer_factory.hpp:77] Creating layer scale3b2_branch2a
I0629 17:31:15.218025 32089 net.cpp:86] Creating Layer scale3b2_branch2a
I0629 17:31:15.218029 32089 net.cpp:408] scale3b2_branch2a <- res3b2_branch2a
I0629 17:31:15.218034 32089 net.cpp:369] scale3b2_branch2a -> res3b2_branch2a (in-place)
I0629 17:31:15.218127 32089 layer_factory.hpp:77] Creating layer scale3b2_branch2a
I0629 17:31:15.218323 32089 net.cpp:124] Setting up scale3b2_branch2a
I0629 17:31:15.218330 32089 net.cpp:131] Top shape: 1 128 75 125 (1200000)
I0629 17:31:15.218333 32089 net.cpp:139] Memory required for data: 1773600084
I0629 17:31:15.218338 32089 layer_factory.hpp:77] Creating layer res3b2_branch2a_relu
I0629 17:31:15.218343 32089 net.cpp:86] Creating Layer res3b2_branch2a_relu
I0629 17:31:15.218345 32089 net.cpp:408] res3b2_branch2a_relu <- res3b2_branch2a
I0629 17:31:15.218350 32089 net.cpp:369] res3b2_branch2a_relu -> res3b2_branch2a (in-place)
I0629 17:31:15.218560 32089 net.cpp:124] Setting up res3b2_branch2a_relu
I0629 17:31:15.218569 32089 net.cpp:131] Top shape: 1 128 75 125 (1200000)
I0629 17:31:15.218571 32089 net.cpp:139] Memory required for data: 1778400084
I0629 17:31:15.218575 32089 layer_factory.hpp:77] Creating layer res3b2_branch2b
I0629 17:31:15.218582 32089 net.cpp:86] Creating Layer res3b2_branch2b
I0629 17:31:15.218585 32089 net.cpp:408] res3b2_branch2b <- res3b2_branch2a
I0629 17:31:15.218591 32089 net.cpp:382] res3b2_branch2b -> res3b2_branch2b
I0629 17:31:15.222472 32089 net.cpp:124] Setting up res3b2_branch2b
I0629 17:31:15.222484 32089 net.cpp:131] Top shape: 1 128 75 125 (1200000)
I0629 17:31:15.222498 32089 net.cpp:139] Memory required for data: 1783200084
I0629 17:31:15.222503 32089 layer_factory.hpp:77] Creating layer bn3b2_branch2b
I0629 17:31:15.222512 32089 net.cpp:86] Creating Layer bn3b2_branch2b
I0629 17:31:15.222514 32089 net.cpp:408] bn3b2_branch2b <- res3b2_branch2b
I0629 17:31:15.222520 32089 net.cpp:369] bn3b2_branch2b -> res3b2_branch2b (in-place)
I0629 17:31:15.222921 32089 net.cpp:124] Setting up bn3b2_branch2b
I0629 17:31:15.222929 32089 net.cpp:131] Top shape: 1 128 75 125 (1200000)
I0629 17:31:15.222931 32089 net.cpp:139] Memory required for data: 1788000084
I0629 17:31:15.222949 32089 layer_factory.hpp:77] Creating layer scale3b2_branch2b
I0629 17:31:15.222957 32089 net.cpp:86] Creating Layer scale3b2_branch2b
I0629 17:31:15.222960 32089 net.cpp:408] scale3b2_branch2b <- res3b2_branch2b
I0629 17:31:15.222965 32089 net.cpp:369] scale3b2_branch2b -> res3b2_branch2b (in-place)
I0629 17:31:15.223031 32089 layer_factory.hpp:77] Creating layer scale3b2_branch2b
I0629 17:31:15.223240 32089 net.cpp:124] Setting up scale3b2_branch2b
I0629 17:31:15.223248 32089 net.cpp:131] Top shape: 1 128 75 125 (1200000)
I0629 17:31:15.223249 32089 net.cpp:139] Memory required for data: 1792800084
I0629 17:31:15.223254 32089 layer_factory.hpp:77] Creating layer res3b2_branch2b_relu
I0629 17:31:15.223259 32089 net.cpp:86] Creating Layer res3b2_branch2b_relu
I0629 17:31:15.223263 32089 net.cpp:408] res3b2_branch2b_relu <- res3b2_branch2b
I0629 17:31:15.223268 32089 net.cpp:369] res3b2_branch2b_relu -> res3b2_branch2b (in-place)
I0629 17:31:15.224113 32089 net.cpp:124] Setting up res3b2_branch2b_relu
I0629 17:31:15.224136 32089 net.cpp:131] Top shape: 1 128 75 125 (1200000)
I0629 17:31:15.224139 32089 net.cpp:139] Memory required for data: 1797600084
I0629 17:31:15.224143 32089 layer_factory.hpp:77] Creating layer res3b2_branch2c
I0629 17:31:15.224148 32089 net.cpp:86] Creating Layer res3b2_branch2c
I0629 17:31:15.224153 32089 net.cpp:408] res3b2_branch2c <- res3b2_branch2b
I0629 17:31:15.224159 32089 net.cpp:382] res3b2_branch2c -> res3b2_branch2c
I0629 17:31:15.227427 32089 net.cpp:124] Setting up res3b2_branch2c
I0629 17:31:15.227452 32089 net.cpp:131] Top shape: 1 512 75 125 (4800000)
I0629 17:31:15.227453 32089 net.cpp:139] Memory required for data: 1816800084
I0629 17:31:15.227458 32089 layer_factory.hpp:77] Creating layer bn3b2_branch2c
I0629 17:31:15.227466 32089 net.cpp:86] Creating Layer bn3b2_branch2c
I0629 17:31:15.227469 32089 net.cpp:408] bn3b2_branch2c <- res3b2_branch2c
I0629 17:31:15.227475 32089 net.cpp:369] bn3b2_branch2c -> res3b2_branch2c (in-place)
I0629 17:31:15.227865 32089 net.cpp:124] Setting up bn3b2_branch2c
I0629 17:31:15.227872 32089 net.cpp:131] Top shape: 1 512 75 125 (4800000)
I0629 17:31:15.227875 32089 net.cpp:139] Memory required for data: 1836000084
I0629 17:31:15.227893 32089 layer_factory.hpp:77] Creating layer scale3b2_branch2c
I0629 17:31:15.227898 32089 net.cpp:86] Creating Layer scale3b2_branch2c
I0629 17:31:15.227902 32089 net.cpp:408] scale3b2_branch2c <- res3b2_branch2c
I0629 17:31:15.227907 32089 net.cpp:369] scale3b2_branch2c -> res3b2_branch2c (in-place)
I0629 17:31:15.227977 32089 layer_factory.hpp:77] Creating layer scale3b2_branch2c
I0629 17:31:15.228194 32089 net.cpp:124] Setting up scale3b2_branch2c
I0629 17:31:15.228202 32089 net.cpp:131] Top shape: 1 512 75 125 (4800000)
I0629 17:31:15.228205 32089 net.cpp:139] Memory required for data: 1855200084
I0629 17:31:15.228210 32089 layer_factory.hpp:77] Creating layer res3b2
I0629 17:31:15.228215 32089 net.cpp:86] Creating Layer res3b2
I0629 17:31:15.228219 32089 net.cpp:408] res3b2 <- res3b1_res3b1_relu_0_split_1
I0629 17:31:15.228221 32089 net.cpp:408] res3b2 <- res3b2_branch2c
I0629 17:31:15.228225 32089 net.cpp:382] res3b2 -> res3b2
I0629 17:31:15.228267 32089 net.cpp:124] Setting up res3b2
I0629 17:31:15.228273 32089 net.cpp:131] Top shape: 1 512 75 125 (4800000)
I0629 17:31:15.228276 32089 net.cpp:139] Memory required for data: 1874400084
I0629 17:31:15.228278 32089 layer_factory.hpp:77] Creating layer res3b2_relu
I0629 17:31:15.228283 32089 net.cpp:86] Creating Layer res3b2_relu
I0629 17:31:15.228286 32089 net.cpp:408] res3b2_relu <- res3b2
I0629 17:31:15.228291 32089 net.cpp:369] res3b2_relu -> res3b2 (in-place)
I0629 17:31:15.229115 32089 net.cpp:124] Setting up res3b2_relu
I0629 17:31:15.229126 32089 net.cpp:131] Top shape: 1 512 75 125 (4800000)
I0629 17:31:15.229140 32089 net.cpp:139] Memory required for data: 1893600084
I0629 17:31:15.229142 32089 layer_factory.hpp:77] Creating layer res3b2_res3b2_relu_0_split
I0629 17:31:15.229146 32089 net.cpp:86] Creating Layer res3b2_res3b2_relu_0_split
I0629 17:31:15.229149 32089 net.cpp:408] res3b2_res3b2_relu_0_split <- res3b2
I0629 17:31:15.229166 32089 net.cpp:382] res3b2_res3b2_relu_0_split -> res3b2_res3b2_relu_0_split_0
I0629 17:31:15.229172 32089 net.cpp:382] res3b2_res3b2_relu_0_split -> res3b2_res3b2_relu_0_split_1
I0629 17:31:15.229254 32089 net.cpp:124] Setting up res3b2_res3b2_relu_0_split
I0629 17:31:15.229261 32089 net.cpp:131] Top shape: 1 512 75 125 (4800000)
I0629 17:31:15.229265 32089 net.cpp:131] Top shape: 1 512 75 125 (4800000)
I0629 17:31:15.229267 32089 net.cpp:139] Memory required for data: 1932000084
I0629 17:31:15.229270 32089 layer_factory.hpp:77] Creating layer res3b3_branch2a
I0629 17:31:15.229280 32089 net.cpp:86] Creating Layer res3b3_branch2a
I0629 17:31:15.229284 32089 net.cpp:408] res3b3_branch2a <- res3b2_res3b2_relu_0_split_0
I0629 17:31:15.229287 32089 net.cpp:382] res3b3_branch2a -> res3b3_branch2a
I0629 17:31:15.231415 32089 net.cpp:124] Setting up res3b3_branch2a
I0629 17:31:15.231427 32089 net.cpp:131] Top shape: 1 128 75 125 (1200000)
I0629 17:31:15.231439 32089 net.cpp:139] Memory required for data: 1936800084
I0629 17:31:15.231444 32089 layer_factory.hpp:77] Creating layer bn3b3_branch2a
I0629 17:31:15.231452 32089 net.cpp:86] Creating Layer bn3b3_branch2a
I0629 17:31:15.231467 32089 net.cpp:408] bn3b3_branch2a <- res3b3_branch2a
I0629 17:31:15.231473 32089 net.cpp:369] bn3b3_branch2a -> res3b3_branch2a (in-place)
I0629 17:31:15.231820 32089 net.cpp:124] Setting up bn3b3_branch2a
I0629 17:31:15.231837 32089 net.cpp:131] Top shape: 1 128 75 125 (1200000)
I0629 17:31:15.231840 32089 net.cpp:139] Memory required for data: 1941600084
I0629 17:31:15.231868 32089 layer_factory.hpp:77] Creating layer scale3b3_branch2a
I0629 17:31:15.231873 32089 net.cpp:86] Creating Layer scale3b3_branch2a
I0629 17:31:15.231875 32089 net.cpp:408] scale3b3_branch2a <- res3b3_branch2a
I0629 17:31:15.231879 32089 net.cpp:369] scale3b3_branch2a -> res3b3_branch2a (in-place)
I0629 17:31:15.231966 32089 layer_factory.hpp:77] Creating layer scale3b3_branch2a
I0629 17:31:15.232194 32089 net.cpp:124] Setting up scale3b3_branch2a
I0629 17:31:15.232201 32089 net.cpp:131] Top shape: 1 128 75 125 (1200000)
I0629 17:31:15.232204 32089 net.cpp:139] Memory required for data: 1946400084
I0629 17:31:15.232209 32089 layer_factory.hpp:77] Creating layer res3b3_branch2a_relu
I0629 17:31:15.232215 32089 net.cpp:86] Creating Layer res3b3_branch2a_relu
I0629 17:31:15.232218 32089 net.cpp:408] res3b3_branch2a_relu <- res3b3_branch2a
I0629 17:31:15.232223 32089 net.cpp:369] res3b3_branch2a_relu -> res3b3_branch2a (in-place)
I0629 17:31:15.232430 32089 net.cpp:124] Setting up res3b3_branch2a_relu
I0629 17:31:15.232439 32089 net.cpp:131] Top shape: 1 128 75 125 (1200000)
I0629 17:31:15.232441 32089 net.cpp:139] Memory required for data: 1951200084
I0629 17:31:15.232445 32089 layer_factory.hpp:77] Creating layer res3b3_branch2b
I0629 17:31:15.232451 32089 net.cpp:86] Creating Layer res3b3_branch2b
I0629 17:31:15.232458 32089 net.cpp:408] res3b3_branch2b <- res3b3_branch2a
I0629 17:31:15.232462 32089 net.cpp:382] res3b3_branch2b -> res3b3_branch2b
I0629 17:31:15.236218 32089 net.cpp:124] Setting up res3b3_branch2b
I0629 17:31:15.236243 32089 net.cpp:131] Top shape: 1 128 75 125 (1200000)
I0629 17:31:15.236245 32089 net.cpp:139] Memory required for data: 1956000084
I0629 17:31:15.236250 32089 layer_factory.hpp:77] Creating layer bn3b3_branch2b
I0629 17:31:15.236258 32089 net.cpp:86] Creating Layer bn3b3_branch2b
I0629 17:31:15.236261 32089 net.cpp:408] bn3b3_branch2b <- res3b3_branch2b
I0629 17:31:15.236265 32089 net.cpp:369] bn3b3_branch2b -> res3b3_branch2b (in-place)
I0629 17:31:15.236665 32089 net.cpp:124] Setting up bn3b3_branch2b
I0629 17:31:15.236671 32089 net.cpp:131] Top shape: 1 128 75 125 (1200000)
I0629 17:31:15.236673 32089 net.cpp:139] Memory required for data: 1960800084
I0629 17:31:15.236691 32089 layer_factory.hpp:77] Creating layer scale3b3_branch2b
I0629 17:31:15.236698 32089 net.cpp:86] Creating Layer scale3b3_branch2b
I0629 17:31:15.236701 32089 net.cpp:408] scale3b3_branch2b <- res3b3_branch2b
I0629 17:31:15.236706 32089 net.cpp:369] scale3b3_branch2b -> res3b3_branch2b (in-place)
I0629 17:31:15.236783 32089 layer_factory.hpp:77] Creating layer scale3b3_branch2b
I0629 17:31:15.237023 32089 net.cpp:124] Setting up scale3b3_branch2b
I0629 17:31:15.237031 32089 net.cpp:131] Top shape: 1 128 75 125 (1200000)
I0629 17:31:15.237035 32089 net.cpp:139] Memory required for data: 1965600084
I0629 17:31:15.237040 32089 layer_factory.hpp:77] Creating layer res3b3_branch2b_relu
I0629 17:31:15.237045 32089 net.cpp:86] Creating Layer res3b3_branch2b_relu
I0629 17:31:15.237047 32089 net.cpp:408] res3b3_branch2b_relu <- res3b3_branch2b
I0629 17:31:15.237052 32089 net.cpp:369] res3b3_branch2b_relu -> res3b3_branch2b (in-place)
I0629 17:31:15.237918 32089 net.cpp:124] Setting up res3b3_branch2b_relu
I0629 17:31:15.237929 32089 net.cpp:131] Top shape: 1 128 75 125 (1200000)
I0629 17:31:15.237943 32089 net.cpp:139] Memory required for data: 1970400084
I0629 17:31:15.237946 32089 layer_factory.hpp:77] Creating layer res3b3_branch2c
I0629 17:31:15.237953 32089 net.cpp:86] Creating Layer res3b3_branch2c
I0629 17:31:15.237957 32089 net.cpp:408] res3b3_branch2c <- res3b3_branch2b
I0629 17:31:15.237962 32089 net.cpp:382] res3b3_branch2c -> res3b3_branch2c
I0629 17:31:15.239573 32089 net.cpp:124] Setting up res3b3_branch2c
I0629 17:31:15.239583 32089 net.cpp:131] Top shape: 1 512 75 125 (4800000)
I0629 17:31:15.239595 32089 net.cpp:139] Memory required for data: 1989600084
I0629 17:31:15.239600 32089 layer_factory.hpp:77] Creating layer bn3b3_branch2c
I0629 17:31:15.239608 32089 net.cpp:86] Creating Layer bn3b3_branch2c
I0629 17:31:15.239610 32089 net.cpp:408] bn3b3_branch2c <- res3b3_branch2c
I0629 17:31:15.239624 32089 net.cpp:369] bn3b3_branch2c -> res3b3_branch2c (in-place)
I0629 17:31:15.240010 32089 net.cpp:124] Setting up bn3b3_branch2c
I0629 17:31:15.240015 32089 net.cpp:131] Top shape: 1 512 75 125 (4800000)
I0629 17:31:15.240018 32089 net.cpp:139] Memory required for data: 2008800084
I0629 17:31:15.240036 32089 layer_factory.hpp:77] Creating layer scale3b3_branch2c
I0629 17:31:15.240041 32089 net.cpp:86] Creating Layer scale3b3_branch2c
I0629 17:31:15.240044 32089 net.cpp:408] scale3b3_branch2c <- res3b3_branch2c
I0629 17:31:15.240049 32089 net.cpp:369] scale3b3_branch2c -> res3b3_branch2c (in-place)
I0629 17:31:15.240115 32089 layer_factory.hpp:77] Creating layer scale3b3_branch2c
I0629 17:31:15.240365 32089 net.cpp:124] Setting up scale3b3_branch2c
I0629 17:31:15.240373 32089 net.cpp:131] Top shape: 1 512 75 125 (4800000)
I0629 17:31:15.240376 32089 net.cpp:139] Memory required for data: 2028000084
I0629 17:31:15.240381 32089 layer_factory.hpp:77] Creating layer res3b3
I0629 17:31:15.240386 32089 net.cpp:86] Creating Layer res3b3
I0629 17:31:15.240388 32089 net.cpp:408] res3b3 <- res3b2_res3b2_relu_0_split_1
I0629 17:31:15.240392 32089 net.cpp:408] res3b3 <- res3b3_branch2c
I0629 17:31:15.240396 32089 net.cpp:382] res3b3 -> res3b3
I0629 17:31:15.240437 32089 net.cpp:124] Setting up res3b3
I0629 17:31:15.240444 32089 net.cpp:131] Top shape: 1 512 75 125 (4800000)
I0629 17:31:15.240447 32089 net.cpp:139] Memory required for data: 2047200084
I0629 17:31:15.240449 32089 layer_factory.hpp:77] Creating layer res3b3_relu
I0629 17:31:15.240453 32089 net.cpp:86] Creating Layer res3b3_relu
I0629 17:31:15.240456 32089 net.cpp:408] res3b3_relu <- res3b3
I0629 17:31:15.240459 32089 net.cpp:369] res3b3_relu -> res3b3 (in-place)
I0629 17:31:15.241356 32089 net.cpp:124] Setting up res3b3_relu
I0629 17:31:15.241374 32089 net.cpp:131] Top shape: 1 512 75 125 (4800000)
I0629 17:31:15.241387 32089 net.cpp:139] Memory required for data: 2066400084
I0629 17:31:15.241390 32089 layer_factory.hpp:77] Creating layer res3b3_res3b3_relu_0_split
I0629 17:31:15.241410 32089 net.cpp:86] Creating Layer res3b3_res3b3_relu_0_split
I0629 17:31:15.241412 32089 net.cpp:408] res3b3_res3b3_relu_0_split <- res3b3
I0629 17:31:15.241416 32089 net.cpp:382] res3b3_res3b3_relu_0_split -> res3b3_res3b3_relu_0_split_0
I0629 17:31:15.241422 32089 net.cpp:382] res3b3_res3b3_relu_0_split -> res3b3_res3b3_relu_0_split_1
I0629 17:31:15.241530 32089 net.cpp:124] Setting up res3b3_res3b3_relu_0_split
I0629 17:31:15.241538 32089 net.cpp:131] Top shape: 1 512 75 125 (4800000)
I0629 17:31:15.241551 32089 net.cpp:131] Top shape: 1 512 75 125 (4800000)
I0629 17:31:15.241554 32089 net.cpp:139] Memory required for data: 2104800084
I0629 17:31:15.241556 32089 layer_factory.hpp:77] Creating layer res4a_branch1
I0629 17:31:15.241566 32089 net.cpp:86] Creating Layer res4a_branch1
I0629 17:31:15.241569 32089 net.cpp:408] res4a_branch1 <- res3b3_res3b3_relu_0_split_0
I0629 17:31:15.241575 32089 net.cpp:382] res4a_branch1 -> res4a_branch1
I0629 17:31:15.245801 32089 net.cpp:124] Setting up res4a_branch1
I0629 17:31:15.245813 32089 net.cpp:131] Top shape: 1 1024 38 63 (2451456)
I0629 17:31:15.245827 32089 net.cpp:139] Memory required for data: 2114605908
I0629 17:31:15.245832 32089 layer_factory.hpp:77] Creating layer bn4a_branch1
I0629 17:31:15.245839 32089 net.cpp:86] Creating Layer bn4a_branch1
I0629 17:31:15.245843 32089 net.cpp:408] bn4a_branch1 <- res4a_branch1
I0629 17:31:15.245848 32089 net.cpp:369] bn4a_branch1 -> res4a_branch1 (in-place)
I0629 17:31:15.246210 32089 net.cpp:124] Setting up bn4a_branch1
I0629 17:31:15.246217 32089 net.cpp:131] Top shape: 1 1024 38 63 (2451456)
I0629 17:31:15.246219 32089 net.cpp:139] Memory required for data: 2124411732
I0629 17:31:15.246237 32089 layer_factory.hpp:77] Creating layer scale4a_branch1
I0629 17:31:15.246255 32089 net.cpp:86] Creating Layer scale4a_branch1
I0629 17:31:15.246258 32089 net.cpp:408] scale4a_branch1 <- res4a_branch1
I0629 17:31:15.246263 32089 net.cpp:369] scale4a_branch1 -> res4a_branch1 (in-place)
I0629 17:31:15.246343 32089 layer_factory.hpp:77] Creating layer scale4a_branch1
I0629 17:31:15.246644 32089 net.cpp:124] Setting up scale4a_branch1
I0629 17:31:15.246662 32089 net.cpp:131] Top shape: 1 1024 38 63 (2451456)
I0629 17:31:15.246665 32089 net.cpp:139] Memory required for data: 2134217556
I0629 17:31:15.246670 32089 layer_factory.hpp:77] Creating layer res4a_branch2a
I0629 17:31:15.246690 32089 net.cpp:86] Creating Layer res4a_branch2a
I0629 17:31:15.246692 32089 net.cpp:408] res4a_branch2a <- res3b3_res3b3_relu_0_split_1
I0629 17:31:15.246696 32089 net.cpp:382] res4a_branch2a -> res4a_branch2a
I0629 17:31:15.248451 32089 net.cpp:124] Setting up res4a_branch2a
I0629 17:31:15.248462 32089 net.cpp:131] Top shape: 1 256 38 63 (612864)
I0629 17:31:15.248476 32089 net.cpp:139] Memory required for data: 2136669012
I0629 17:31:15.248481 32089 layer_factory.hpp:77] Creating layer bn4a_branch2a
I0629 17:31:15.248488 32089 net.cpp:86] Creating Layer bn4a_branch2a
I0629 17:31:15.248492 32089 net.cpp:408] bn4a_branch2a <- res4a_branch2a
I0629 17:31:15.248497 32089 net.cpp:369] bn4a_branch2a -> res4a_branch2a (in-place)
I0629 17:31:15.248879 32089 net.cpp:124] Setting up bn4a_branch2a
I0629 17:31:15.248886 32089 net.cpp:131] Top shape: 1 256 38 63 (612864)
I0629 17:31:15.248888 32089 net.cpp:139] Memory required for data: 2139120468
I0629 17:31:15.248895 32089 layer_factory.hpp:77] Creating layer scale4a_branch2a
I0629 17:31:15.248914 32089 net.cpp:86] Creating Layer scale4a_branch2a
I0629 17:31:15.248916 32089 net.cpp:408] scale4a_branch2a <- res4a_branch2a
I0629 17:31:15.248919 32089 net.cpp:369] scale4a_branch2a -> res4a_branch2a (in-place)
I0629 17:31:15.248993 32089 layer_factory.hpp:77] Creating layer scale4a_branch2a
I0629 17:31:15.249231 32089 net.cpp:124] Setting up scale4a_branch2a
I0629 17:31:15.249240 32089 net.cpp:131] Top shape: 1 256 38 63 (612864)
I0629 17:31:15.249243 32089 net.cpp:139] Memory required for data: 2141571924
I0629 17:31:15.249248 32089 layer_factory.hpp:77] Creating layer res4a_branch2a_relu
I0629 17:31:15.249254 32089 net.cpp:86] Creating Layer res4a_branch2a_relu
I0629 17:31:15.249258 32089 net.cpp:408] res4a_branch2a_relu <- res4a_branch2a
I0629 17:31:15.249261 32089 net.cpp:369] res4a_branch2a_relu -> res4a_branch2a (in-place)
I0629 17:31:15.250120 32089 net.cpp:124] Setting up res4a_branch2a_relu
I0629 17:31:15.250131 32089 net.cpp:131] Top shape: 1 256 38 63 (612864)
I0629 17:31:15.250145 32089 net.cpp:139] Memory required for data: 2144023380
I0629 17:31:15.250149 32089 layer_factory.hpp:77] Creating layer res4a_branch2b
I0629 17:31:15.250161 32089 net.cpp:86] Creating Layer res4a_branch2b
I0629 17:31:15.250164 32089 net.cpp:408] res4a_branch2b <- res4a_branch2a
I0629 17:31:15.250169 32089 net.cpp:382] res4a_branch2b -> res4a_branch2b
I0629 17:31:15.254746 32089 net.cpp:124] Setting up res4a_branch2b
I0629 17:31:15.254768 32089 net.cpp:131] Top shape: 1 256 38 63 (612864)
I0629 17:31:15.254771 32089 net.cpp:139] Memory required for data: 2146474836
I0629 17:31:15.254776 32089 layer_factory.hpp:77] Creating layer bn4a_branch2b
I0629 17:31:15.254781 32089 net.cpp:86] Creating Layer bn4a_branch2b
I0629 17:31:15.254784 32089 net.cpp:408] bn4a_branch2b <- res4a_branch2b
I0629 17:31:15.254791 32089 net.cpp:369] bn4a_branch2b -> res4a_branch2b (in-place)
I0629 17:31:15.255192 32089 net.cpp:124] Setting up bn4a_branch2b
I0629 17:31:15.255200 32089 net.cpp:131] Top shape: 1 256 38 63 (612864)
I0629 17:31:15.255213 32089 net.cpp:139] Memory required for data: 2148926292
I0629 17:31:15.255218 32089 layer_factory.hpp:77] Creating layer scale4a_branch2b
I0629 17:31:15.255236 32089 net.cpp:86] Creating Layer scale4a_branch2b
I0629 17:31:15.255239 32089 net.cpp:408] scale4a_branch2b <- res4a_branch2b
I0629 17:31:15.255254 32089 net.cpp:369] scale4a_branch2b -> res4a_branch2b (in-place)
I0629 17:31:15.255318 32089 layer_factory.hpp:77] Creating layer scale4a_branch2b
I0629 17:31:15.255555 32089 net.cpp:124] Setting up scale4a_branch2b
I0629 17:31:15.255563 32089 net.cpp:131] Top shape: 1 256 38 63 (612864)
I0629 17:31:15.255565 32089 net.cpp:139] Memory required for data: 2151377748
I0629 17:31:15.255571 32089 layer_factory.hpp:77] Creating layer res4a_branch2b_relu
I0629 17:31:15.255576 32089 net.cpp:86] Creating Layer res4a_branch2b_relu
I0629 17:31:15.255579 32089 net.cpp:408] res4a_branch2b_relu <- res4a_branch2b
I0629 17:31:15.255585 32089 net.cpp:369] res4a_branch2b_relu -> res4a_branch2b (in-place)
I0629 17:31:15.255808 32089 net.cpp:124] Setting up res4a_branch2b_relu
I0629 17:31:15.255816 32089 net.cpp:131] Top shape: 1 256 38 63 (612864)
I0629 17:31:15.255820 32089 net.cpp:139] Memory required for data: 2153829204
I0629 17:31:15.255822 32089 layer_factory.hpp:77] Creating layer res4a_branch2c
I0629 17:31:15.255830 32089 net.cpp:86] Creating Layer res4a_branch2c
I0629 17:31:15.255833 32089 net.cpp:408] res4a_branch2c <- res4a_branch2b
I0629 17:31:15.255838 32089 net.cpp:382] res4a_branch2c -> res4a_branch2c
I0629 17:31:15.259131 32089 net.cpp:124] Setting up res4a_branch2c
I0629 17:31:15.259155 32089 net.cpp:131] Top shape: 1 1024 38 63 (2451456)
I0629 17:31:15.259157 32089 net.cpp:139] Memory required for data: 2163635028
I0629 17:31:15.259162 32089 layer_factory.hpp:77] Creating layer bn4a_branch2c
I0629 17:31:15.259171 32089 net.cpp:86] Creating Layer bn4a_branch2c
I0629 17:31:15.259173 32089 net.cpp:408] bn4a_branch2c <- res4a_branch2c
I0629 17:31:15.259178 32089 net.cpp:369] bn4a_branch2c -> res4a_branch2c (in-place)
I0629 17:31:15.259565 32089 net.cpp:124] Setting up bn4a_branch2c
I0629 17:31:15.259572 32089 net.cpp:131] Top shape: 1 1024 38 63 (2451456)
I0629 17:31:15.259585 32089 net.cpp:139] Memory required for data: 2173440852
I0629 17:31:15.259591 32089 layer_factory.hpp:77] Creating layer scale4a_branch2c
I0629 17:31:15.259598 32089 net.cpp:86] Creating Layer scale4a_branch2c
I0629 17:31:15.259601 32089 net.cpp:408] scale4a_branch2c <- res4a_branch2c
I0629 17:31:15.259605 32089 net.cpp:369] scale4a_branch2c -> res4a_branch2c (in-place)
I0629 17:31:15.259685 32089 layer_factory.hpp:77] Creating layer scale4a_branch2c
I0629 17:31:15.259937 32089 net.cpp:124] Setting up scale4a_branch2c
I0629 17:31:15.259943 32089 net.cpp:131] Top shape: 1 1024 38 63 (2451456)
I0629 17:31:15.259946 32089 net.cpp:139] Memory required for data: 2183246676
I0629 17:31:15.259951 32089 layer_factory.hpp:77] Creating layer res4a
I0629 17:31:15.259960 32089 net.cpp:86] Creating Layer res4a
I0629 17:31:15.259963 32089 net.cpp:408] res4a <- res4a_branch1
I0629 17:31:15.259968 32089 net.cpp:408] res4a <- res4a_branch2c
I0629 17:31:15.259971 32089 net.cpp:382] res4a -> res4a
I0629 17:31:15.260013 32089 net.cpp:124] Setting up res4a
I0629 17:31:15.260020 32089 net.cpp:131] Top shape: 1 1024 38 63 (2451456)
I0629 17:31:15.260022 32089 net.cpp:139] Memory required for data: 2193052500
I0629 17:31:15.260025 32089 layer_factory.hpp:77] Creating layer res4a_relu
I0629 17:31:15.260031 32089 net.cpp:86] Creating Layer res4a_relu
I0629 17:31:15.260035 32089 net.cpp:408] res4a_relu <- res4a
I0629 17:31:15.260037 32089 net.cpp:369] res4a_relu -> res4a (in-place)
I0629 17:31:15.261011 32089 net.cpp:124] Setting up res4a_relu
I0629 17:31:15.261023 32089 net.cpp:131] Top shape: 1 1024 38 63 (2451456)
I0629 17:31:15.261036 32089 net.cpp:139] Memory required for data: 2202858324
I0629 17:31:15.261039 32089 layer_factory.hpp:77] Creating layer res4a_res4a_relu_0_split
I0629 17:31:15.261050 32089 net.cpp:86] Creating Layer res4a_res4a_relu_0_split
I0629 17:31:15.261054 32089 net.cpp:408] res4a_res4a_relu_0_split <- res4a
I0629 17:31:15.261057 32089 net.cpp:382] res4a_res4a_relu_0_split -> res4a_res4a_relu_0_split_0
I0629 17:31:15.261065 32089 net.cpp:382] res4a_res4a_relu_0_split -> res4a_res4a_relu_0_split_1
I0629 17:31:15.261152 32089 net.cpp:124] Setting up res4a_res4a_relu_0_split
I0629 17:31:15.261162 32089 net.cpp:131] Top shape: 1 1024 38 63 (2451456)
I0629 17:31:15.261164 32089 net.cpp:131] Top shape: 1 1024 38 63 (2451456)
I0629 17:31:15.261168 32089 net.cpp:139] Memory required for data: 2222469972
I0629 17:31:15.261169 32089 layer_factory.hpp:77] Creating layer res4b1_branch2a
I0629 17:31:15.261176 32089 net.cpp:86] Creating Layer res4b1_branch2a
I0629 17:31:15.261191 32089 net.cpp:408] res4b1_branch2a <- res4a_res4a_relu_0_split_0
I0629 17:31:15.261198 32089 net.cpp:382] res4b1_branch2a -> res4b1_branch2a
I0629 17:31:15.263962 32089 net.cpp:124] Setting up res4b1_branch2a
I0629 17:31:15.263973 32089 net.cpp:131] Top shape: 1 256 38 63 (612864)
I0629 17:31:15.263988 32089 net.cpp:139] Memory required for data: 2224921428
I0629 17:31:15.263993 32089 layer_factory.hpp:77] Creating layer bn4b1_branch2a
I0629 17:31:15.263999 32089 net.cpp:86] Creating Layer bn4b1_branch2a
I0629 17:31:15.264004 32089 net.cpp:408] bn4b1_branch2a <- res4b1_branch2a
I0629 17:31:15.264008 32089 net.cpp:369] bn4b1_branch2a -> res4b1_branch2a (in-place)
I0629 17:31:15.264569 32089 net.cpp:124] Setting up bn4b1_branch2a
I0629 17:31:15.264578 32089 net.cpp:131] Top shape: 1 256 38 63 (612864)
I0629 17:31:15.264580 32089 net.cpp:139] Memory required for data: 2227372884
I0629 17:31:15.264601 32089 layer_factory.hpp:77] Creating layer scale4b1_branch2a
I0629 17:31:15.264611 32089 net.cpp:86] Creating Layer scale4b1_branch2a
I0629 17:31:15.264616 32089 net.cpp:408] scale4b1_branch2a <- res4b1_branch2a
I0629 17:31:15.264619 32089 net.cpp:369] scale4b1_branch2a -> res4b1_branch2a (in-place)
I0629 17:31:15.264727 32089 layer_factory.hpp:77] Creating layer scale4b1_branch2a
I0629 17:31:15.264992 32089 net.cpp:124] Setting up scale4b1_branch2a
I0629 17:31:15.265002 32089 net.cpp:131] Top shape: 1 256 38 63 (612864)
I0629 17:31:15.265004 32089 net.cpp:139] Memory required for data: 2229824340
I0629 17:31:15.265012 32089 layer_factory.hpp:77] Creating layer res4b1_branch2a_relu
I0629 17:31:15.265017 32089 net.cpp:86] Creating Layer res4b1_branch2a_relu
I0629 17:31:15.265022 32089 net.cpp:408] res4b1_branch2a_relu <- res4b1_branch2a
I0629 17:31:15.265027 32089 net.cpp:369] res4b1_branch2a_relu -> res4b1_branch2a (in-place)
I0629 17:31:15.265885 32089 net.cpp:124] Setting up res4b1_branch2a_relu
I0629 17:31:15.265897 32089 net.cpp:131] Top shape: 1 256 38 63 (612864)
I0629 17:31:15.265910 32089 net.cpp:139] Memory required for data: 2232275796
I0629 17:31:15.265913 32089 layer_factory.hpp:77] Creating layer res4b1_branch2b
I0629 17:31:15.265921 32089 net.cpp:86] Creating Layer res4b1_branch2b
I0629 17:31:15.265925 32089 net.cpp:408] res4b1_branch2b <- res4b1_branch2a
I0629 17:31:15.265931 32089 net.cpp:382] res4b1_branch2b -> res4b1_branch2b
I0629 17:31:15.270483 32089 net.cpp:124] Setting up res4b1_branch2b
I0629 17:31:15.270506 32089 net.cpp:131] Top shape: 1 256 38 63 (612864)
I0629 17:31:15.270509 32089 net.cpp:139] Memory required for data: 2234727252
I0629 17:31:15.270514 32089 layer_factory.hpp:77] Creating layer bn4b1_branch2b
I0629 17:31:15.270521 32089 net.cpp:86] Creating Layer bn4b1_branch2b
I0629 17:31:15.270525 32089 net.cpp:408] bn4b1_branch2b <- res4b1_branch2b
I0629 17:31:15.270529 32089 net.cpp:369] bn4b1_branch2b -> res4b1_branch2b (in-place)
I0629 17:31:15.270933 32089 net.cpp:124] Setting up bn4b1_branch2b
I0629 17:31:15.270941 32089 net.cpp:131] Top shape: 1 256 38 63 (612864)
I0629 17:31:15.270943 32089 net.cpp:139] Memory required for data: 2237178708
I0629 17:31:15.270961 32089 layer_factory.hpp:77] Creating layer scale4b1_branch2b
I0629 17:31:15.270968 32089 net.cpp:86] Creating Layer scale4b1_branch2b
I0629 17:31:15.270970 32089 net.cpp:408] scale4b1_branch2b <- res4b1_branch2b
I0629 17:31:15.270977 32089 net.cpp:369] scale4b1_branch2b -> res4b1_branch2b (in-place)
I0629 17:31:15.271064 32089 layer_factory.hpp:77] Creating layer scale4b1_branch2b
I0629 17:31:15.271304 32089 net.cpp:124] Setting up scale4b1_branch2b
I0629 17:31:15.271312 32089 net.cpp:131] Top shape: 1 256 38 63 (612864)
I0629 17:31:15.271315 32089 net.cpp:139] Memory required for data: 2239630164
I0629 17:31:15.271320 32089 layer_factory.hpp:77] Creating layer res4b1_branch2b_relu
I0629 17:31:15.271325 32089 net.cpp:86] Creating Layer res4b1_branch2b_relu
I0629 17:31:15.271328 32089 net.cpp:408] res4b1_branch2b_relu <- res4b1_branch2b
I0629 17:31:15.271333 32089 net.cpp:369] res4b1_branch2b_relu -> res4b1_branch2b (in-place)
I0629 17:31:15.271576 32089 net.cpp:124] Setting up res4b1_branch2b_relu
I0629 17:31:15.271585 32089 net.cpp:131] Top shape: 1 256 38 63 (612864)
I0629 17:31:15.271587 32089 net.cpp:139] Memory required for data: 2242081620
I0629 17:31:15.271590 32089 layer_factory.hpp:77] Creating layer res4b1_branch2c
I0629 17:31:15.271598 32089 net.cpp:86] Creating Layer res4b1_branch2c
I0629 17:31:15.271601 32089 net.cpp:408] res4b1_branch2c <- res4b1_branch2b
I0629 17:31:15.271620 32089 net.cpp:382] res4b1_branch2c -> res4b1_branch2c
I0629 17:31:15.275378 32089 net.cpp:124] Setting up res4b1_branch2c
I0629 17:31:15.275390 32089 net.cpp:131] Top shape: 1 1024 38 63 (2451456)
I0629 17:31:15.275404 32089 net.cpp:139] Memory required for data: 2251887444
I0629 17:31:15.275409 32089 layer_factory.hpp:77] Creating layer bn4b1_branch2c
I0629 17:31:15.275416 32089 net.cpp:86] Creating Layer bn4b1_branch2c
I0629 17:31:15.275419 32089 net.cpp:408] bn4b1_branch2c <- res4b1_branch2c
I0629 17:31:15.275424 32089 net.cpp:369] bn4b1_branch2c -> res4b1_branch2c (in-place)
I0629 17:31:15.275838 32089 net.cpp:124] Setting up bn4b1_branch2c
I0629 17:31:15.275846 32089 net.cpp:131] Top shape: 1 1024 38 63 (2451456)
I0629 17:31:15.275848 32089 net.cpp:139] Memory required for data: 2261693268
I0629 17:31:15.275866 32089 layer_factory.hpp:77] Creating layer scale4b1_branch2c
I0629 17:31:15.275872 32089 net.cpp:86] Creating Layer scale4b1_branch2c
I0629 17:31:15.275876 32089 net.cpp:408] scale4b1_branch2c <- res4b1_branch2c
I0629 17:31:15.275882 32089 net.cpp:369] scale4b1_branch2c -> res4b1_branch2c (in-place)
I0629 17:31:15.275954 32089 layer_factory.hpp:77] Creating layer scale4b1_branch2c
I0629 17:31:15.276196 32089 net.cpp:124] Setting up scale4b1_branch2c
I0629 17:31:15.276203 32089 net.cpp:131] Top shape: 1 1024 38 63 (2451456)
I0629 17:31:15.276206 32089 net.cpp:139] Memory required for data: 2271499092
I0629 17:31:15.276211 32089 layer_factory.hpp:77] Creating layer res4b1
I0629 17:31:15.276216 32089 net.cpp:86] Creating Layer res4b1
I0629 17:31:15.276218 32089 net.cpp:408] res4b1 <- res4a_res4a_relu_0_split_1
I0629 17:31:15.276222 32089 net.cpp:408] res4b1 <- res4b1_branch2c
I0629 17:31:15.276227 32089 net.cpp:382] res4b1 -> res4b1
I0629 17:31:15.276268 32089 net.cpp:124] Setting up res4b1
I0629 17:31:15.276275 32089 net.cpp:131] Top shape: 1 1024 38 63 (2451456)
I0629 17:31:15.276278 32089 net.cpp:139] Memory required for data: 2281304916
I0629 17:31:15.276280 32089 layer_factory.hpp:77] Creating layer res4b1_relu
I0629 17:31:15.276286 32089 net.cpp:86] Creating Layer res4b1_relu
I0629 17:31:15.276289 32089 net.cpp:408] res4b1_relu <- res4b1
I0629 17:31:15.276293 32089 net.cpp:369] res4b1_relu -> res4b1 (in-place)
I0629 17:31:15.277170 32089 net.cpp:124] Setting up res4b1_relu
I0629 17:31:15.277204 32089 net.cpp:131] Top shape: 1 1024 38 63 (2451456)
I0629 17:31:15.277207 32089 net.cpp:139] Memory required for data: 2291110740
I0629 17:31:15.277210 32089 layer_factory.hpp:77] Creating layer res4b1_res4b1_relu_0_split
I0629 17:31:15.277215 32089 net.cpp:86] Creating Layer res4b1_res4b1_relu_0_split
I0629 17:31:15.277217 32089 net.cpp:408] res4b1_res4b1_relu_0_split <- res4b1
I0629 17:31:15.277221 32089 net.cpp:382] res4b1_res4b1_relu_0_split -> res4b1_res4b1_relu_0_split_0
I0629 17:31:15.277227 32089 net.cpp:382] res4b1_res4b1_relu_0_split -> res4b1_res4b1_relu_0_split_1
I0629 17:31:15.277328 32089 net.cpp:124] Setting up res4b1_res4b1_relu_0_split
I0629 17:31:15.277336 32089 net.cpp:131] Top shape: 1 1024 38 63 (2451456)
I0629 17:31:15.277340 32089 net.cpp:131] Top shape: 1 1024 38 63 (2451456)
I0629 17:31:15.277343 32089 net.cpp:139] Memory required for data: 2310722388
I0629 17:31:15.277345 32089 layer_factory.hpp:77] Creating layer res4b2_branch2a
I0629 17:31:15.277353 32089 net.cpp:86] Creating Layer res4b2_branch2a
I0629 17:31:15.277355 32089 net.cpp:408] res4b2_branch2a <- res4b1_res4b1_relu_0_split_0
I0629 17:31:15.277362 32089 net.cpp:382] res4b2_branch2a -> res4b2_branch2a
I0629 17:31:15.280040 32089 net.cpp:124] Setting up res4b2_branch2a
I0629 17:31:15.280053 32089 net.cpp:131] Top shape: 1 256 38 63 (612864)
I0629 17:31:15.280067 32089 net.cpp:139] Memory required for data: 2313173844
I0629 17:31:15.280072 32089 layer_factory.hpp:77] Creating layer bn4b2_branch2a
I0629 17:31:15.280078 32089 net.cpp:86] Creating Layer bn4b2_branch2a
I0629 17:31:15.280081 32089 net.cpp:408] bn4b2_branch2a <- res4b2_branch2a
I0629 17:31:15.280087 32089 net.cpp:369] bn4b2_branch2a -> res4b2_branch2a (in-place)
I0629 17:31:15.280493 32089 net.cpp:124] Setting up bn4b2_branch2a
I0629 17:31:15.280499 32089 net.cpp:131] Top shape: 1 256 38 63 (612864)
I0629 17:31:15.280514 32089 net.cpp:139] Memory required for data: 2315625300
I0629 17:31:15.280519 32089 layer_factory.hpp:77] Creating layer scale4b2_branch2a
I0629 17:31:15.280526 32089 net.cpp:86] Creating Layer scale4b2_branch2a
I0629 17:31:15.280529 32089 net.cpp:408] scale4b2_branch2a <- res4b2_branch2a
I0629 17:31:15.280532 32089 net.cpp:369] scale4b2_branch2a -> res4b2_branch2a (in-place)
I0629 17:31:15.280624 32089 layer_factory.hpp:77] Creating layer scale4b2_branch2a
I0629 17:31:15.280872 32089 net.cpp:124] Setting up scale4b2_branch2a
I0629 17:31:15.280879 32089 net.cpp:131] Top shape: 1 256 38 63 (612864)
I0629 17:31:15.280882 32089 net.cpp:139] Memory required for data: 2318076756
I0629 17:31:15.280887 32089 layer_factory.hpp:77] Creating layer res4b2_branch2a_relu
I0629 17:31:15.280892 32089 net.cpp:86] Creating Layer res4b2_branch2a_relu
I0629 17:31:15.280895 32089 net.cpp:408] res4b2_branch2a_relu <- res4b2_branch2a
I0629 17:31:15.280900 32089 net.cpp:369] res4b2_branch2a_relu -> res4b2_branch2a (in-place)
I0629 17:31:15.281822 32089 net.cpp:124] Setting up res4b2_branch2a_relu
I0629 17:31:15.281844 32089 net.cpp:131] Top shape: 1 256 38 63 (612864)
I0629 17:31:15.281847 32089 net.cpp:139] Memory required for data: 2320528212
I0629 17:31:15.281849 32089 layer_factory.hpp:77] Creating layer res4b2_branch2b
I0629 17:31:15.281868 32089 net.cpp:86] Creating Layer res4b2_branch2b
I0629 17:31:15.281872 32089 net.cpp:408] res4b2_branch2b <- res4b2_branch2a
I0629 17:31:15.281877 32089 net.cpp:382] res4b2_branch2b -> res4b2_branch2b
I0629 17:31:15.286381 32089 net.cpp:124] Setting up res4b2_branch2b
I0629 17:31:15.286401 32089 net.cpp:131] Top shape: 1 256 38 63 (612864)
I0629 17:31:15.286404 32089 net.cpp:139] Memory required for data: 2322979668
I0629 17:31:15.286412 32089 layer_factory.hpp:77] Creating layer bn4b2_branch2b
I0629 17:31:15.286417 32089 net.cpp:86] Creating Layer bn4b2_branch2b
I0629 17:31:15.286422 32089 net.cpp:408] bn4b2_branch2b <- res4b2_branch2b
I0629 17:31:15.286425 32089 net.cpp:369] bn4b2_branch2b -> res4b2_branch2b (in-place)
I0629 17:31:15.286824 32089 net.cpp:124] Setting up bn4b2_branch2b
I0629 17:31:15.286833 32089 net.cpp:131] Top shape: 1 256 38 63 (612864)
I0629 17:31:15.286834 32089 net.cpp:139] Memory required for data: 2325431124
I0629 17:31:15.286840 32089 layer_factory.hpp:77] Creating layer scale4b2_branch2b
I0629 17:31:15.286859 32089 net.cpp:86] Creating Layer scale4b2_branch2b
I0629 17:31:15.286861 32089 net.cpp:408] scale4b2_branch2b <- res4b2_branch2b
I0629 17:31:15.286875 32089 net.cpp:369] scale4b2_branch2b -> res4b2_branch2b (in-place)
I0629 17:31:15.286942 32089 layer_factory.hpp:77] Creating layer scale4b2_branch2b
I0629 17:31:15.287195 32089 net.cpp:124] Setting up scale4b2_branch2b
I0629 17:31:15.287202 32089 net.cpp:131] Top shape: 1 256 38 63 (612864)
I0629 17:31:15.287205 32089 net.cpp:139] Memory required for data: 2327882580
I0629 17:31:15.287210 32089 layer_factory.hpp:77] Creating layer res4b2_branch2b_relu
I0629 17:31:15.287215 32089 net.cpp:86] Creating Layer res4b2_branch2b_relu
I0629 17:31:15.287219 32089 net.cpp:408] res4b2_branch2b_relu <- res4b2_branch2b
I0629 17:31:15.287223 32089 net.cpp:369] res4b2_branch2b_relu -> res4b2_branch2b (in-place)
I0629 17:31:15.287464 32089 net.cpp:124] Setting up res4b2_branch2b_relu
I0629 17:31:15.287473 32089 net.cpp:131] Top shape: 1 256 38 63 (612864)
I0629 17:31:15.287477 32089 net.cpp:139] Memory required for data: 2330334036
I0629 17:31:15.287479 32089 layer_factory.hpp:77] Creating layer res4b2_branch2c
I0629 17:31:15.287487 32089 net.cpp:86] Creating Layer res4b2_branch2c
I0629 17:31:15.287490 32089 net.cpp:408] res4b2_branch2c <- res4b2_branch2b
I0629 17:31:15.287495 32089 net.cpp:382] res4b2_branch2c -> res4b2_branch2c
I0629 17:31:15.290750 32089 net.cpp:124] Setting up res4b2_branch2c
I0629 17:31:15.290761 32089 net.cpp:131] Top shape: 1 1024 38 63 (2451456)
I0629 17:31:15.290776 32089 net.cpp:139] Memory required for data: 2340139860
I0629 17:31:15.290781 32089 layer_factory.hpp:77] Creating layer bn4b2_branch2c
I0629 17:31:15.290786 32089 net.cpp:86] Creating Layer bn4b2_branch2c
I0629 17:31:15.290789 32089 net.cpp:408] bn4b2_branch2c <- res4b2_branch2c
I0629 17:31:15.290796 32089 net.cpp:369] bn4b2_branch2c -> res4b2_branch2c (in-place)
I0629 17:31:15.291214 32089 net.cpp:124] Setting up bn4b2_branch2c
I0629 17:31:15.291221 32089 net.cpp:131] Top shape: 1 1024 38 63 (2451456)
I0629 17:31:15.291224 32089 net.cpp:139] Memory required for data: 2349945684
I0629 17:31:15.291241 32089 layer_factory.hpp:77] Creating layer scale4b2_branch2c
I0629 17:31:15.291249 32089 net.cpp:86] Creating Layer scale4b2_branch2c
I0629 17:31:15.291251 32089 net.cpp:408] scale4b2_branch2c <- res4b2_branch2c
I0629 17:31:15.291256 32089 net.cpp:369] scale4b2_branch2c -> res4b2_branch2c (in-place)
I0629 17:31:15.291352 32089 layer_factory.hpp:77] Creating layer scale4b2_branch2c
I0629 17:31:15.291604 32089 net.cpp:124] Setting up scale4b2_branch2c
I0629 17:31:15.291611 32089 net.cpp:131] Top shape: 1 1024 38 63 (2451456)
I0629 17:31:15.291613 32089 net.cpp:139] Memory required for data: 2359751508
I0629 17:31:15.291618 32089 layer_factory.hpp:77] Creating layer res4b2
I0629 17:31:15.291623 32089 net.cpp:86] Creating Layer res4b2
I0629 17:31:15.291627 32089 net.cpp:408] res4b2 <- res4b1_res4b1_relu_0_split_1
I0629 17:31:15.291631 32089 net.cpp:408] res4b2 <- res4b2_branch2c
I0629 17:31:15.291636 32089 net.cpp:382] res4b2 -> res4b2
I0629 17:31:15.291689 32089 net.cpp:124] Setting up res4b2
I0629 17:31:15.291697 32089 net.cpp:131] Top shape: 1 1024 38 63 (2451456)
I0629 17:31:15.291699 32089 net.cpp:139] Memory required for data: 2369557332
I0629 17:31:15.291702 32089 layer_factory.hpp:77] Creating layer res4b2_relu
I0629 17:31:15.291705 32089 net.cpp:86] Creating Layer res4b2_relu
I0629 17:31:15.291708 32089 net.cpp:408] res4b2_relu <- res4b2
I0629 17:31:15.291714 32089 net.cpp:369] res4b2_relu -> res4b2 (in-place)
I0629 17:31:15.292569 32089 net.cpp:124] Setting up res4b2_relu
I0629 17:31:15.292579 32089 net.cpp:131] Top shape: 1 1024 38 63 (2451456)
I0629 17:31:15.292595 32089 net.cpp:139] Memory required for data: 2379363156
I0629 17:31:15.292598 32089 layer_factory.hpp:77] Creating layer res4b2_res4b2_relu_0_split
I0629 17:31:15.292603 32089 net.cpp:86] Creating Layer res4b2_res4b2_relu_0_split
I0629 17:31:15.292606 32089 net.cpp:408] res4b2_res4b2_relu_0_split <- res4b2
I0629 17:31:15.292611 32089 net.cpp:382] res4b2_res4b2_relu_0_split -> res4b2_res4b2_relu_0_split_0
I0629 17:31:15.292616 32089 net.cpp:382] res4b2_res4b2_relu_0_split -> res4b2_res4b2_relu_0_split_1
I0629 17:31:15.292711 32089 net.cpp:124] Setting up res4b2_res4b2_relu_0_split
I0629 17:31:15.292718 32089 net.cpp:131] Top shape: 1 1024 38 63 (2451456)
I0629 17:31:15.292721 32089 net.cpp:131] Top shape: 1 1024 38 63 (2451456)
I0629 17:31:15.292723 32089 net.cpp:139] Memory required for data: 2398974804
I0629 17:31:15.292726 32089 layer_factory.hpp:77] Creating layer res4b3_branch2a
I0629 17:31:15.292735 32089 net.cpp:86] Creating Layer res4b3_branch2a
I0629 17:31:15.292739 32089 net.cpp:408] res4b3_branch2a <- res4b2_res4b2_relu_0_split_0
I0629 17:31:15.292745 32089 net.cpp:382] res4b3_branch2a -> res4b3_branch2a
I0629 17:31:15.295492 32089 net.cpp:124] Setting up res4b3_branch2a
I0629 17:31:15.295517 32089 net.cpp:131] Top shape: 1 256 38 63 (612864)
I0629 17:31:15.295521 32089 net.cpp:139] Memory required for data: 2401426260
I0629 17:31:15.295524 32089 layer_factory.hpp:77] Creating layer bn4b3_branch2a
I0629 17:31:15.295531 32089 net.cpp:86] Creating Layer bn4b3_branch2a
I0629 17:31:15.295533 32089 net.cpp:408] bn4b3_branch2a <- res4b3_branch2a
I0629 17:31:15.295539 32089 net.cpp:369] bn4b3_branch2a -> res4b3_branch2a (in-place)
I0629 17:31:15.295949 32089 net.cpp:124] Setting up bn4b3_branch2a
I0629 17:31:15.295956 32089 net.cpp:131] Top shape: 1 256 38 63 (612864)
I0629 17:31:15.295958 32089 net.cpp:139] Memory required for data: 2403877716
I0629 17:31:15.295975 32089 layer_factory.hpp:77] Creating layer scale4b3_branch2a
I0629 17:31:15.295982 32089 net.cpp:86] Creating Layer scale4b3_branch2a
I0629 17:31:15.295986 32089 net.cpp:408] scale4b3_branch2a <- res4b3_branch2a
I0629 17:31:15.295990 32089 net.cpp:369] scale4b3_branch2a -> res4b3_branch2a (in-place)
I0629 17:31:15.296072 32089 layer_factory.hpp:77] Creating layer scale4b3_branch2a
I0629 17:31:15.296308 32089 net.cpp:124] Setting up scale4b3_branch2a
I0629 17:31:15.296315 32089 net.cpp:131] Top shape: 1 256 38 63 (612864)
I0629 17:31:15.296317 32089 net.cpp:139] Memory required for data: 2406329172
I0629 17:31:15.296322 32089 layer_factory.hpp:77] Creating layer res4b3_branch2a_relu
I0629 17:31:15.296327 32089 net.cpp:86] Creating Layer res4b3_branch2a_relu
I0629 17:31:15.296330 32089 net.cpp:408] res4b3_branch2a_relu <- res4b3_branch2a
I0629 17:31:15.296334 32089 net.cpp:369] res4b3_branch2a_relu -> res4b3_branch2a (in-place)
I0629 17:31:15.297209 32089 net.cpp:124] Setting up res4b3_branch2a_relu
I0629 17:31:15.297219 32089 net.cpp:131] Top shape: 1 256 38 63 (612864)
I0629 17:31:15.297231 32089 net.cpp:139] Memory required for data: 2408780628
I0629 17:31:15.297235 32089 layer_factory.hpp:77] Creating layer res4b3_branch2b
I0629 17:31:15.297242 32089 net.cpp:86] Creating Layer res4b3_branch2b
I0629 17:31:15.297245 32089 net.cpp:408] res4b3_branch2b <- res4b3_branch2a
I0629 17:31:15.297261 32089 net.cpp:382] res4b3_branch2b -> res4b3_branch2b
I0629 17:31:15.301609 32089 net.cpp:124] Setting up res4b3_branch2b
I0629 17:31:15.301620 32089 net.cpp:131] Top shape: 1 256 38 63 (612864)
I0629 17:31:15.301635 32089 net.cpp:139] Memory required for data: 2411232084
I0629 17:31:15.301640 32089 layer_factory.hpp:77] Creating layer bn4b3_branch2b
I0629 17:31:15.301646 32089 net.cpp:86] Creating Layer bn4b3_branch2b
I0629 17:31:15.301651 32089 net.cpp:408] bn4b3_branch2b <- res4b3_branch2b
I0629 17:31:15.301656 32089 net.cpp:369] bn4b3_branch2b -> res4b3_branch2b (in-place)
I0629 17:31:15.302083 32089 net.cpp:124] Setting up bn4b3_branch2b
I0629 17:31:15.302090 32089 net.cpp:131] Top shape: 1 256 38 63 (612864)
I0629 17:31:15.302104 32089 net.cpp:139] Memory required for data: 2413683540
I0629 17:31:15.302111 32089 layer_factory.hpp:77] Creating layer scale4b3_branch2b
I0629 17:31:15.302117 32089 net.cpp:86] Creating Layer scale4b3_branch2b
I0629 17:31:15.302120 32089 net.cpp:408] scale4b3_branch2b <- res4b3_branch2b
I0629 17:31:15.302124 32089 net.cpp:369] scale4b3_branch2b -> res4b3_branch2b (in-place)
I0629 17:31:15.302209 32089 layer_factory.hpp:77] Creating layer scale4b3_branch2b
I0629 17:31:15.302448 32089 net.cpp:124] Setting up scale4b3_branch2b
I0629 17:31:15.302456 32089 net.cpp:131] Top shape: 1 256 38 63 (612864)
I0629 17:31:15.302459 32089 net.cpp:139] Memory required for data: 2416134996
I0629 17:31:15.302464 32089 layer_factory.hpp:77] Creating layer res4b3_branch2b_relu
I0629 17:31:15.302469 32089 net.cpp:86] Creating Layer res4b3_branch2b_relu
I0629 17:31:15.302472 32089 net.cpp:408] res4b3_branch2b_relu <- res4b3_branch2b
I0629 17:31:15.302477 32089 net.cpp:369] res4b3_branch2b_relu -> res4b3_branch2b (in-place)
I0629 17:31:15.302695 32089 net.cpp:124] Setting up res4b3_branch2b_relu
I0629 17:31:15.302703 32089 net.cpp:131] Top shape: 1 256 38 63 (612864)
I0629 17:31:15.302706 32089 net.cpp:139] Memory required for data: 2418586452
I0629 17:31:15.302708 32089 layer_factory.hpp:77] Creating layer res4b3_branch2c
I0629 17:31:15.302716 32089 net.cpp:86] Creating Layer res4b3_branch2c
I0629 17:31:15.302721 32089 net.cpp:408] res4b3_branch2c <- res4b3_branch2b
I0629 17:31:15.302724 32089 net.cpp:382] res4b3_branch2c -> res4b3_branch2c
I0629 17:31:15.306084 32089 net.cpp:124] Setting up res4b3_branch2c
I0629 17:31:15.306097 32089 net.cpp:131] Top shape: 1 1024 38 63 (2451456)
I0629 17:31:15.306109 32089 net.cpp:139] Memory required for data: 2428392276
I0629 17:31:15.306114 32089 layer_factory.hpp:77] Creating layer bn4b3_branch2c
I0629 17:31:15.306120 32089 net.cpp:86] Creating Layer bn4b3_branch2c
I0629 17:31:15.306123 32089 net.cpp:408] bn4b3_branch2c <- res4b3_branch2c
I0629 17:31:15.306129 32089 net.cpp:369] bn4b3_branch2c -> res4b3_branch2c (in-place)
I0629 17:31:15.306545 32089 net.cpp:124] Setting up bn4b3_branch2c
I0629 17:31:15.306553 32089 net.cpp:131] Top shape: 1 1024 38 63 (2451456)
I0629 17:31:15.306555 32089 net.cpp:139] Memory required for data: 2438198100
I0629 17:31:15.306561 32089 layer_factory.hpp:77] Creating layer scale4b3_branch2c
I0629 17:31:15.306568 32089 net.cpp:86] Creating Layer scale4b3_branch2c
I0629 17:31:15.306571 32089 net.cpp:408] scale4b3_branch2c <- res4b3_branch2c
I0629 17:31:15.306577 32089 net.cpp:369] scale4b3_branch2c -> res4b3_branch2c (in-place)
I0629 17:31:15.306643 32089 layer_factory.hpp:77] Creating layer scale4b3_branch2c
I0629 17:31:15.306877 32089 net.cpp:124] Setting up scale4b3_branch2c
I0629 17:31:15.306885 32089 net.cpp:131] Top shape: 1 1024 38 63 (2451456)
I0629 17:31:15.306887 32089 net.cpp:139] Memory required for data: 2448003924
I0629 17:31:15.306892 32089 layer_factory.hpp:77] Creating layer res4b3
I0629 17:31:15.306897 32089 net.cpp:86] Creating Layer res4b3
I0629 17:31:15.306900 32089 net.cpp:408] res4b3 <- res4b2_res4b2_relu_0_split_1
I0629 17:31:15.306905 32089 net.cpp:408] res4b3 <- res4b3_branch2c
I0629 17:31:15.306910 32089 net.cpp:382] res4b3 -> res4b3
I0629 17:31:15.306951 32089 net.cpp:124] Setting up res4b3
I0629 17:31:15.306960 32089 net.cpp:131] Top shape: 1 1024 38 63 (2451456)
I0629 17:31:15.306962 32089 net.cpp:139] Memory required for data: 2457809748
I0629 17:31:15.306965 32089 layer_factory.hpp:77] Creating layer res4b3_relu
I0629 17:31:15.306969 32089 net.cpp:86] Creating Layer res4b3_relu
I0629 17:31:15.306972 32089 net.cpp:408] res4b3_relu <- res4b3
I0629 17:31:15.306977 32089 net.cpp:369] res4b3_relu -> res4b3 (in-place)
I0629 17:31:15.307824 32089 net.cpp:124] Setting up res4b3_relu
I0629 17:31:15.307835 32089 net.cpp:131] Top shape: 1 1024 38 63 (2451456)
I0629 17:31:15.307849 32089 net.cpp:139] Memory required for data: 2467615572
I0629 17:31:15.307852 32089 layer_factory.hpp:77] Creating layer res4b3_res4b3_relu_0_split
I0629 17:31:15.307857 32089 net.cpp:86] Creating Layer res4b3_res4b3_relu_0_split
I0629 17:31:15.307862 32089 net.cpp:408] res4b3_res4b3_relu_0_split <- res4b3
I0629 17:31:15.307867 32089 net.cpp:382] res4b3_res4b3_relu_0_split -> res4b3_res4b3_relu_0_split_0
I0629 17:31:15.307873 32089 net.cpp:382] res4b3_res4b3_relu_0_split -> res4b3_res4b3_relu_0_split_1
I0629 17:31:15.307963 32089 net.cpp:124] Setting up res4b3_res4b3_relu_0_split
I0629 17:31:15.307971 32089 net.cpp:131] Top shape: 1 1024 38 63 (2451456)
I0629 17:31:15.307974 32089 net.cpp:131] Top shape: 1 1024 38 63 (2451456)
I0629 17:31:15.307976 32089 net.cpp:139] Memory required for data: 2487227220
I0629 17:31:15.307979 32089 layer_factory.hpp:77] Creating layer res4b4_branch2a
I0629 17:31:15.307987 32089 net.cpp:86] Creating Layer res4b4_branch2a
I0629 17:31:15.307991 32089 net.cpp:408] res4b4_branch2a <- res4b3_res4b3_relu_0_split_0
I0629 17:31:15.307994 32089 net.cpp:382] res4b4_branch2a -> res4b4_branch2a
I0629 17:31:15.314726 32089 net.cpp:124] Setting up res4b4_branch2a
I0629 17:31:15.314766 32089 net.cpp:131] Top shape: 1 256 38 63 (612864)
I0629 17:31:15.314774 32089 net.cpp:139] Memory required for data: 2489678676
I0629 17:31:15.314787 32089 layer_factory.hpp:77] Creating layer bn4b4_branch2a
I0629 17:31:15.314803 32089 net.cpp:86] Creating Layer bn4b4_branch2a
I0629 17:31:15.314820 32089 net.cpp:408] bn4b4_branch2a <- res4b4_branch2a
I0629 17:31:15.314838 32089 net.cpp:369] bn4b4_branch2a -> res4b4_branch2a (in-place)
I0629 17:31:15.315721 32089 net.cpp:124] Setting up bn4b4_branch2a
I0629 17:31:15.315737 32089 net.cpp:131] Top shape: 1 256 38 63 (612864)
I0629 17:31:15.315747 32089 net.cpp:139] Memory required for data: 2492130132
I0629 17:31:15.315765 32089 layer_factory.hpp:77] Creating layer scale4b4_branch2a
I0629 17:31:15.315778 32089 net.cpp:86] Creating Layer scale4b4_branch2a
I0629 17:31:15.315786 32089 net.cpp:408] scale4b4_branch2a <- res4b4_branch2a
I0629 17:31:15.315801 32089 net.cpp:369] scale4b4_branch2a -> res4b4_branch2a (in-place)
I0629 17:31:15.315960 32089 layer_factory.hpp:77] Creating layer scale4b4_branch2a
I0629 17:31:15.316469 32089 net.cpp:124] Setting up scale4b4_branch2a
I0629 17:31:15.316484 32089 net.cpp:131] Top shape: 1 256 38 63 (612864)
I0629 17:31:15.316490 32089 net.cpp:139] Memory required for data: 2494581588
I0629 17:31:15.316501 32089 layer_factory.hpp:77] Creating layer res4b4_branch2a_relu
I0629 17:31:15.316514 32089 net.cpp:86] Creating Layer res4b4_branch2a_relu
I0629 17:31:15.316526 32089 net.cpp:408] res4b4_branch2a_relu <- res4b4_branch2a
I0629 17:31:15.316540 32089 net.cpp:369] res4b4_branch2a_relu -> res4b4_branch2a (in-place)
I0629 17:31:15.318266 32089 net.cpp:124] Setting up res4b4_branch2a_relu
I0629 17:31:15.318300 32089 net.cpp:131] Top shape: 1 256 38 63 (612864)
I0629 17:31:15.318306 32089 net.cpp:139] Memory required for data: 2497033044
I0629 17:31:15.318313 32089 layer_factory.hpp:77] Creating layer res4b4_branch2b
I0629 17:31:15.318328 32089 net.cpp:86] Creating Layer res4b4_branch2b
I0629 17:31:15.318336 32089 net.cpp:408] res4b4_branch2b <- res4b4_branch2a
I0629 17:31:15.318348 32089 net.cpp:382] res4b4_branch2b -> res4b4_branch2b
I0629 17:31:15.327366 32089 net.cpp:124] Setting up res4b4_branch2b
I0629 17:31:15.327392 32089 net.cpp:131] Top shape: 1 256 38 63 (612864)
I0629 17:31:15.327399 32089 net.cpp:139] Memory required for data: 2499484500
I0629 17:31:15.327409 32089 layer_factory.hpp:77] Creating layer bn4b4_branch2b
I0629 17:31:15.327425 32089 net.cpp:86] Creating Layer bn4b4_branch2b
I0629 17:31:15.327432 32089 net.cpp:408] bn4b4_branch2b <- res4b4_branch2b
I0629 17:31:15.327443 32089 net.cpp:369] bn4b4_branch2b -> res4b4_branch2b (in-place)
I0629 17:31:15.328268 32089 net.cpp:124] Setting up bn4b4_branch2b
I0629 17:31:15.328282 32089 net.cpp:131] Top shape: 1 256 38 63 (612864)
I0629 17:31:15.328289 32089 net.cpp:139] Memory required for data: 2501935956
I0629 17:31:15.328301 32089 layer_factory.hpp:77] Creating layer scale4b4_branch2b
I0629 17:31:15.328312 32089 net.cpp:86] Creating Layer scale4b4_branch2b
I0629 17:31:15.328318 32089 net.cpp:408] scale4b4_branch2b <- res4b4_branch2b
I0629 17:31:15.328337 32089 net.cpp:369] scale4b4_branch2b -> res4b4_branch2b (in-place)
I0629 17:31:15.328480 32089 layer_factory.hpp:77] Creating layer scale4b4_branch2b
I0629 17:31:15.328940 32089 net.cpp:124] Setting up scale4b4_branch2b
I0629 17:31:15.328954 32089 net.cpp:131] Top shape: 1 256 38 63 (612864)
I0629 17:31:15.328958 32089 net.cpp:139] Memory required for data: 2504387412
I0629 17:31:15.328969 32089 layer_factory.hpp:77] Creating layer res4b4_branch2b_relu
I0629 17:31:15.328979 32089 net.cpp:86] Creating Layer res4b4_branch2b_relu
I0629 17:31:15.328985 32089 net.cpp:408] res4b4_branch2b_relu <- res4b4_branch2b
I0629 17:31:15.328992 32089 net.cpp:369] res4b4_branch2b_relu -> res4b4_branch2b (in-place)
I0629 17:31:15.329452 32089 net.cpp:124] Setting up res4b4_branch2b_relu
I0629 17:31:15.329479 32089 net.cpp:131] Top shape: 1 256 38 63 (612864)
I0629 17:31:15.329485 32089 net.cpp:139] Memory required for data: 2506838868
I0629 17:31:15.329491 32089 layer_factory.hpp:77] Creating layer res4b4_branch2c
I0629 17:31:15.329504 32089 net.cpp:86] Creating Layer res4b4_branch2c
I0629 17:31:15.329510 32089 net.cpp:408] res4b4_branch2c <- res4b4_branch2b
I0629 17:31:15.329522 32089 net.cpp:382] res4b4_branch2c -> res4b4_branch2c
I0629 17:31:15.335592 32089 net.cpp:124] Setting up res4b4_branch2c
I0629 17:31:15.335616 32089 net.cpp:131] Top shape: 1 1024 38 63 (2451456)
I0629 17:31:15.335623 32089 net.cpp:139] Memory required for data: 2516644692
I0629 17:31:15.335633 32089 layer_factory.hpp:77] Creating layer bn4b4_branch2c
I0629 17:31:15.335647 32089 net.cpp:86] Creating Layer bn4b4_branch2c
I0629 17:31:15.335654 32089 net.cpp:408] bn4b4_branch2c <- res4b4_branch2c
I0629 17:31:15.335670 32089 net.cpp:369] bn4b4_branch2c -> res4b4_branch2c (in-place)
I0629 17:31:15.336473 32089 net.cpp:124] Setting up bn4b4_branch2c
I0629 17:31:15.336488 32089 net.cpp:131] Top shape: 1 1024 38 63 (2451456)
I0629 17:31:15.336493 32089 net.cpp:139] Memory required for data: 2526450516
I0629 17:31:15.336506 32089 layer_factory.hpp:77] Creating layer scale4b4_branch2c
I0629 17:31:15.336520 32089 net.cpp:86] Creating Layer scale4b4_branch2c
I0629 17:31:15.336526 32089 net.cpp:408] scale4b4_branch2c <- res4b4_branch2c
I0629 17:31:15.336535 32089 net.cpp:369] scale4b4_branch2c -> res4b4_branch2c (in-place)
I0629 17:31:15.336663 32089 layer_factory.hpp:77] Creating layer scale4b4_branch2c
I0629 17:31:15.337141 32089 net.cpp:124] Setting up scale4b4_branch2c
I0629 17:31:15.337155 32089 net.cpp:131] Top shape: 1 1024 38 63 (2451456)
I0629 17:31:15.337159 32089 net.cpp:139] Memory required for data: 2536256340
I0629 17:31:15.337170 32089 layer_factory.hpp:77] Creating layer res4b4
I0629 17:31:15.337218 32089 net.cpp:86] Creating Layer res4b4
I0629 17:31:15.337225 32089 net.cpp:408] res4b4 <- res4b3_res4b3_relu_0_split_1
I0629 17:31:15.337239 32089 net.cpp:408] res4b4 <- res4b4_branch2c
I0629 17:31:15.337246 32089 net.cpp:382] res4b4 -> res4b4
I0629 17:31:15.337337 32089 net.cpp:124] Setting up res4b4
I0629 17:31:15.337350 32089 net.cpp:131] Top shape: 1 1024 38 63 (2451456)
I0629 17:31:15.337357 32089 net.cpp:139] Memory required for data: 2546062164
I0629 17:31:15.337363 32089 layer_factory.hpp:77] Creating layer res4b4_relu
I0629 17:31:15.337370 32089 net.cpp:86] Creating Layer res4b4_relu
I0629 17:31:15.337376 32089 net.cpp:408] res4b4_relu <- res4b4
I0629 17:31:15.337386 32089 net.cpp:369] res4b4_relu -> res4b4 (in-place)
I0629 17:31:15.338960 32089 net.cpp:124] Setting up res4b4_relu
I0629 17:31:15.338982 32089 net.cpp:131] Top shape: 1 1024 38 63 (2451456)
I0629 17:31:15.338989 32089 net.cpp:139] Memory required for data: 2555867988
I0629 17:31:15.338994 32089 layer_factory.hpp:77] Creating layer res4b4_res4b4_relu_0_split
I0629 17:31:15.339004 32089 net.cpp:86] Creating Layer res4b4_res4b4_relu_0_split
I0629 17:31:15.339010 32089 net.cpp:408] res4b4_res4b4_relu_0_split <- res4b4
I0629 17:31:15.339021 32089 net.cpp:382] res4b4_res4b4_relu_0_split -> res4b4_res4b4_relu_0_split_0
I0629 17:31:15.339037 32089 net.cpp:382] res4b4_res4b4_relu_0_split -> res4b4_res4b4_relu_0_split_1
I0629 17:31:15.339197 32089 net.cpp:124] Setting up res4b4_res4b4_relu_0_split
I0629 17:31:15.339211 32089 net.cpp:131] Top shape: 1 1024 38 63 (2451456)
I0629 17:31:15.339218 32089 net.cpp:131] Top shape: 1 1024 38 63 (2451456)
I0629 17:31:15.339223 32089 net.cpp:139] Memory required for data: 2575479636
I0629 17:31:15.339228 32089 layer_factory.hpp:77] Creating layer res4b5_branch2a
I0629 17:31:15.339242 32089 net.cpp:86] Creating Layer res4b5_branch2a
I0629 17:31:15.339248 32089 net.cpp:408] res4b5_branch2a <- res4b4_res4b4_relu_0_split_0
I0629 17:31:15.339260 32089 net.cpp:382] res4b5_branch2a -> res4b5_branch2a
I0629 17:31:15.344068 32089 net.cpp:124] Setting up res4b5_branch2a
I0629 17:31:15.344090 32089 net.cpp:131] Top shape: 1 256 38 63 (612864)
I0629 17:31:15.344096 32089 net.cpp:139] Memory required for data: 2577931092
I0629 17:31:15.344106 32089 layer_factory.hpp:77] Creating layer bn4b5_branch2a
I0629 17:31:15.344120 32089 net.cpp:86] Creating Layer bn4b5_branch2a
I0629 17:31:15.344126 32089 net.cpp:408] bn4b5_branch2a <- res4b5_branch2a
I0629 17:31:15.344135 32089 net.cpp:369] bn4b5_branch2a -> res4b5_branch2a (in-place)
I0629 17:31:15.344883 32089 net.cpp:124] Setting up bn4b5_branch2a
I0629 17:31:15.344897 32089 net.cpp:131] Top shape: 1 256 38 63 (612864)
I0629 17:31:15.344902 32089 net.cpp:139] Memory required for data: 2580382548
I0629 17:31:15.344914 32089 layer_factory.hpp:77] Creating layer scale4b5_branch2a
I0629 17:31:15.344928 32089 net.cpp:86] Creating Layer scale4b5_branch2a
I0629 17:31:15.344933 32089 net.cpp:408] scale4b5_branch2a <- res4b5_branch2a
I0629 17:31:15.344944 32089 net.cpp:369] scale4b5_branch2a -> res4b5_branch2a (in-place)
I0629 17:31:15.345073 32089 layer_factory.hpp:77] Creating layer scale4b5_branch2a
I0629 17:31:15.345525 32089 net.cpp:124] Setting up scale4b5_branch2a
I0629 17:31:15.345538 32089 net.cpp:131] Top shape: 1 256 38 63 (612864)
I0629 17:31:15.345543 32089 net.cpp:139] Memory required for data: 2582834004
I0629 17:31:15.345553 32089 layer_factory.hpp:77] Creating layer res4b5_branch2a_relu
I0629 17:31:15.345562 32089 net.cpp:86] Creating Layer res4b5_branch2a_relu
I0629 17:31:15.345568 32089 net.cpp:408] res4b5_branch2a_relu <- res4b5_branch2a
I0629 17:31:15.345577 32089 net.cpp:369] res4b5_branch2a_relu -> res4b5_branch2a (in-place)
I0629 17:31:15.347043 32089 net.cpp:124] Setting up res4b5_branch2a_relu
I0629 17:31:15.347062 32089 net.cpp:131] Top shape: 1 256 38 63 (612864)
I0629 17:31:15.347069 32089 net.cpp:139] Memory required for data: 2585285460
I0629 17:31:15.347074 32089 layer_factory.hpp:77] Creating layer res4b5_branch2b
I0629 17:31:15.347088 32089 net.cpp:86] Creating Layer res4b5_branch2b
I0629 17:31:15.347095 32089 net.cpp:408] res4b5_branch2b <- res4b5_branch2a
I0629 17:31:15.347113 32089 net.cpp:382] res4b5_branch2b -> res4b5_branch2b
I0629 17:31:15.354946 32089 net.cpp:124] Setting up res4b5_branch2b
I0629 17:31:15.354969 32089 net.cpp:131] Top shape: 1 256 38 63 (612864)
I0629 17:31:15.354974 32089 net.cpp:139] Memory required for data: 2587736916
I0629 17:31:15.354982 32089 layer_factory.hpp:77] Creating layer bn4b5_branch2b
I0629 17:31:15.354995 32089 net.cpp:86] Creating Layer bn4b5_branch2b
I0629 17:31:15.355002 32089 net.cpp:408] bn4b5_branch2b <- res4b5_branch2b
I0629 17:31:15.355010 32089 net.cpp:369] bn4b5_branch2b -> res4b5_branch2b (in-place)
I0629 17:31:15.355739 32089 net.cpp:124] Setting up bn4b5_branch2b
I0629 17:31:15.355752 32089 net.cpp:131] Top shape: 1 256 38 63 (612864)
I0629 17:31:15.355757 32089 net.cpp:139] Memory required for data: 2590188372
I0629 17:31:15.355769 32089 layer_factory.hpp:77] Creating layer scale4b5_branch2b
I0629 17:31:15.355778 32089 net.cpp:86] Creating Layer scale4b5_branch2b
I0629 17:31:15.355784 32089 net.cpp:408] scale4b5_branch2b <- res4b5_branch2b
I0629 17:31:15.355793 32089 net.cpp:369] scale4b5_branch2b -> res4b5_branch2b (in-place)
I0629 17:31:15.355921 32089 layer_factory.hpp:77] Creating layer scale4b5_branch2b
I0629 17:31:15.356338 32089 net.cpp:124] Setting up scale4b5_branch2b
I0629 17:31:15.356350 32089 net.cpp:131] Top shape: 1 256 38 63 (612864)
I0629 17:31:15.356355 32089 net.cpp:139] Memory required for data: 2592639828
I0629 17:31:15.356364 32089 layer_factory.hpp:77] Creating layer res4b5_branch2b_relu
I0629 17:31:15.356374 32089 net.cpp:86] Creating Layer res4b5_branch2b_relu
I0629 17:31:15.356380 32089 net.cpp:408] res4b5_branch2b_relu <- res4b5_branch2b
I0629 17:31:15.356387 32089 net.cpp:369] res4b5_branch2b_relu -> res4b5_branch2b (in-place)
I0629 17:31:15.356788 32089 net.cpp:124] Setting up res4b5_branch2b_relu
I0629 17:31:15.356806 32089 net.cpp:131] Top shape: 1 256 38 63 (612864)
I0629 17:31:15.356811 32089 net.cpp:139] Memory required for data: 2595091284
I0629 17:31:15.356815 32089 layer_factory.hpp:77] Creating layer res4b5_branch2c
I0629 17:31:15.356827 32089 net.cpp:86] Creating Layer res4b5_branch2c
I0629 17:31:15.356832 32089 net.cpp:408] res4b5_branch2c <- res4b5_branch2b
I0629 17:31:15.356842 32089 net.cpp:382] res4b5_branch2c -> res4b5_branch2c
I0629 17:31:15.363386 32089 net.cpp:124] Setting up res4b5_branch2c
I0629 17:31:15.363409 32089 net.cpp:131] Top shape: 1 1024 38 63 (2451456)
I0629 17:31:15.363415 32089 net.cpp:139] Memory required for data: 2604897108
I0629 17:31:15.363423 32089 layer_factory.hpp:77] Creating layer bn4b5_branch2c
I0629 17:31:15.363435 32089 net.cpp:86] Creating Layer bn4b5_branch2c
I0629 17:31:15.363442 32089 net.cpp:408] bn4b5_branch2c <- res4b5_branch2c
I0629 17:31:15.363452 32089 net.cpp:369] bn4b5_branch2c -> res4b5_branch2c (in-place)
I0629 17:31:15.364190 32089 net.cpp:124] Setting up bn4b5_branch2c
I0629 17:31:15.364203 32089 net.cpp:131] Top shape: 1 1024 38 63 (2451456)
I0629 17:31:15.364208 32089 net.cpp:139] Memory required for data: 2614702932
I0629 17:31:15.364220 32089 layer_factory.hpp:77] Creating layer scale4b5_branch2c
I0629 17:31:15.364231 32089 net.cpp:86] Creating Layer scale4b5_branch2c
I0629 17:31:15.364238 32089 net.cpp:408] scale4b5_branch2c <- res4b5_branch2c
I0629 17:31:15.364244 32089 net.cpp:369] scale4b5_branch2c -> res4b5_branch2c (in-place)
I0629 17:31:15.364369 32089 layer_factory.hpp:77] Creating layer scale4b5_branch2c
I0629 17:31:15.364800 32089 net.cpp:124] Setting up scale4b5_branch2c
I0629 17:31:15.364814 32089 net.cpp:131] Top shape: 1 1024 38 63 (2451456)
I0629 17:31:15.364817 32089 net.cpp:139] Memory required for data: 2624508756
I0629 17:31:15.364852 32089 layer_factory.hpp:77] Creating layer res4b5
I0629 17:31:15.364861 32089 net.cpp:86] Creating Layer res4b5
I0629 17:31:15.364866 32089 net.cpp:408] res4b5 <- res4b4_res4b4_relu_0_split_1
I0629 17:31:15.364873 32089 net.cpp:408] res4b5 <- res4b5_branch2c
I0629 17:31:15.364883 32089 net.cpp:382] res4b5 -> res4b5
I0629 17:31:15.364960 32089 net.cpp:124] Setting up res4b5
I0629 17:31:15.364972 32089 net.cpp:131] Top shape: 1 1024 38 63 (2451456)
I0629 17:31:15.364976 32089 net.cpp:139] Memory required for data: 2634314580
I0629 17:31:15.364980 32089 layer_factory.hpp:77] Creating layer res4b5_relu
I0629 17:31:15.364989 32089 net.cpp:86] Creating Layer res4b5_relu
I0629 17:31:15.364994 32089 net.cpp:408] res4b5_relu <- res4b5
I0629 17:31:15.365003 32089 net.cpp:369] res4b5_relu -> res4b5 (in-place)
I0629 17:31:15.366412 32089 net.cpp:124] Setting up res4b5_relu
I0629 17:31:15.366433 32089 net.cpp:131] Top shape: 1 1024 38 63 (2451456)
I0629 17:31:15.366438 32089 net.cpp:139] Memory required for data: 2644120404
I0629 17:31:15.366443 32089 layer_factory.hpp:77] Creating layer res4b5_res4b5_relu_0_split
I0629 17:31:15.366452 32089 net.cpp:86] Creating Layer res4b5_res4b5_relu_0_split
I0629 17:31:15.366458 32089 net.cpp:408] res4b5_res4b5_relu_0_split <- res4b5
I0629 17:31:15.366470 32089 net.cpp:382] res4b5_res4b5_relu_0_split -> res4b5_res4b5_relu_0_split_0
I0629 17:31:15.366480 32089 net.cpp:382] res4b5_res4b5_relu_0_split -> res4b5_res4b5_relu_0_split_1
I0629 17:31:15.366626 32089 net.cpp:124] Setting up res4b5_res4b5_relu_0_split
I0629 17:31:15.366638 32089 net.cpp:131] Top shape: 1 1024 38 63 (2451456)
I0629 17:31:15.366644 32089 net.cpp:131] Top shape: 1 1024 38 63 (2451456)
I0629 17:31:15.366649 32089 net.cpp:139] Memory required for data: 2663732052
I0629 17:31:15.366653 32089 layer_factory.hpp:77] Creating layer res4b6_branch2a
I0629 17:31:15.366667 32089 net.cpp:86] Creating Layer res4b6_branch2a
I0629 17:31:15.366672 32089 net.cpp:408] res4b6_branch2a <- res4b5_res4b5_relu_0_split_0
I0629 17:31:15.366679 32089 net.cpp:382] res4b6_branch2a -> res4b6_branch2a
I0629 17:31:15.372166 32089 net.cpp:124] Setting up res4b6_branch2a
I0629 17:31:15.372189 32089 net.cpp:131] Top shape: 1 256 38 63 (612864)
I0629 17:31:15.372195 32089 net.cpp:139] Memory required for data: 2666183508
I0629 17:31:15.372202 32089 layer_factory.hpp:77] Creating layer bn4b6_branch2a
I0629 17:31:15.372218 32089 net.cpp:86] Creating Layer bn4b6_branch2a
I0629 17:31:15.372225 32089 net.cpp:408] bn4b6_branch2a <- res4b6_branch2a
I0629 17:31:15.372234 32089 net.cpp:369] bn4b6_branch2a -> res4b6_branch2a (in-place)
I0629 17:31:15.372963 32089 net.cpp:124] Setting up bn4b6_branch2a
I0629 17:31:15.372977 32089 net.cpp:131] Top shape: 1 256 38 63 (612864)
I0629 17:31:15.372982 32089 net.cpp:139] Memory required for data: 2668634964
I0629 17:31:15.372992 32089 layer_factory.hpp:77] Creating layer scale4b6_branch2a
I0629 17:31:15.373004 32089 net.cpp:86] Creating Layer scale4b6_branch2a
I0629 17:31:15.373009 32089 net.cpp:408] scale4b6_branch2a <- res4b6_branch2a
I0629 17:31:15.373018 32089 net.cpp:369] scale4b6_branch2a -> res4b6_branch2a (in-place)
I0629 17:31:15.373145 32089 layer_factory.hpp:77] Creating layer scale4b6_branch2a
I0629 17:31:15.373600 32089 net.cpp:124] Setting up scale4b6_branch2a
I0629 17:31:15.373615 32089 net.cpp:131] Top shape: 1 256 38 63 (612864)
I0629 17:31:15.373620 32089 net.cpp:139] Memory required for data: 2671086420
I0629 17:31:15.373628 32089 layer_factory.hpp:77] Creating layer res4b6_branch2a_relu
I0629 17:31:15.373636 32089 net.cpp:86] Creating Layer res4b6_branch2a_relu
I0629 17:31:15.373641 32089 net.cpp:408] res4b6_branch2a_relu <- res4b6_branch2a
I0629 17:31:15.373651 32089 net.cpp:369] res4b6_branch2a_relu -> res4b6_branch2a (in-place)
I0629 17:31:15.375032 32089 net.cpp:124] Setting up res4b6_branch2a_relu
I0629 17:31:15.375051 32089 net.cpp:131] Top shape: 1 256 38 63 (612864)
I0629 17:31:15.375056 32089 net.cpp:139] Memory required for data: 2673537876
I0629 17:31:15.375061 32089 layer_factory.hpp:77] Creating layer res4b6_branch2b
I0629 17:31:15.375075 32089 net.cpp:86] Creating Layer res4b6_branch2b
I0629 17:31:15.375082 32089 net.cpp:408] res4b6_branch2b <- res4b6_branch2a
I0629 17:31:15.375092 32089 net.cpp:382] res4b6_branch2b -> res4b6_branch2b
I0629 17:31:15.383591 32089 net.cpp:124] Setting up res4b6_branch2b
I0629 17:31:15.383642 32089 net.cpp:131] Top shape: 1 256 38 63 (612864)
I0629 17:31:15.383651 32089 net.cpp:139] Memory required for data: 2675989332
I0629 17:31:15.383673 32089 layer_factory.hpp:77] Creating layer bn4b6_branch2b
I0629 17:31:15.383700 32089 net.cpp:86] Creating Layer bn4b6_branch2b
I0629 17:31:15.383715 32089 net.cpp:408] bn4b6_branch2b <- res4b6_branch2b
I0629 17:31:15.383728 32089 net.cpp:369] bn4b6_branch2b -> res4b6_branch2b (in-place)
I0629 17:31:15.384712 32089 net.cpp:124] Setting up bn4b6_branch2b
I0629 17:31:15.384743 32089 net.cpp:131] Top shape: 1 256 38 63 (612864)
I0629 17:31:15.384752 32089 net.cpp:139] Memory required for data: 2678440788
I0629 17:31:15.384768 32089 layer_factory.hpp:77] Creating layer scale4b6_branch2b
I0629 17:31:15.384783 32089 net.cpp:86] Creating Layer scale4b6_branch2b
I0629 17:31:15.384793 32089 net.cpp:408] scale4b6_branch2b <- res4b6_branch2b
I0629 17:31:15.384805 32089 net.cpp:369] scale4b6_branch2b -> res4b6_branch2b (in-place)
I0629 17:31:15.384984 32089 layer_factory.hpp:77] Creating layer scale4b6_branch2b
I0629 17:31:15.385548 32089 net.cpp:124] Setting up scale4b6_branch2b
I0629 17:31:15.385566 32089 net.cpp:131] Top shape: 1 256 38 63 (612864)
I0629 17:31:15.385571 32089 net.cpp:139] Memory required for data: 2680892244
I0629 17:31:15.385583 32089 layer_factory.hpp:77] Creating layer res4b6_branch2b_relu
I0629 17:31:15.385594 32089 net.cpp:86] Creating Layer res4b6_branch2b_relu
I0629 17:31:15.385601 32089 net.cpp:408] res4b6_branch2b_relu <- res4b6_branch2b
I0629 17:31:15.385612 32089 net.cpp:369] res4b6_branch2b_relu -> res4b6_branch2b (in-place)
I0629 17:31:15.386138 32089 net.cpp:124] Setting up res4b6_branch2b_relu
I0629 17:31:15.386162 32089 net.cpp:131] Top shape: 1 256 38 63 (612864)
I0629 17:31:15.386169 32089 net.cpp:139] Memory required for data: 2683343700
I0629 17:31:15.386179 32089 layer_factory.hpp:77] Creating layer res4b6_branch2c
I0629 17:31:15.386203 32089 net.cpp:86] Creating Layer res4b6_branch2c
I0629 17:31:15.386209 32089 net.cpp:408] res4b6_branch2c <- res4b6_branch2b
I0629 17:31:15.386224 32089 net.cpp:382] res4b6_branch2c -> res4b6_branch2c
I0629 17:31:15.393074 32089 net.cpp:124] Setting up res4b6_branch2c
I0629 17:31:15.393108 32089 net.cpp:131] Top shape: 1 1024 38 63 (2451456)
I0629 17:31:15.393115 32089 net.cpp:139] Memory required for data: 2693149524
I0629 17:31:15.393126 32089 layer_factory.hpp:77] Creating layer bn4b6_branch2c
I0629 17:31:15.393151 32089 net.cpp:86] Creating Layer bn4b6_branch2c
I0629 17:31:15.393160 32089 net.cpp:408] bn4b6_branch2c <- res4b6_branch2c
I0629 17:31:15.393189 32089 net.cpp:369] bn4b6_branch2c -> res4b6_branch2c (in-place)
I0629 17:31:15.394151 32089 net.cpp:124] Setting up bn4b6_branch2c
…
I0629 17:31:15.813483 32089 net.cpp:408] scale4b22_branch2b <- res4b22_branch2b
I0629 17:31:15.813491 32089 net.cpp:369] scale4b22_branch2b -> res4b22_branch2b (in-place)
I0629 17:31:15.813649 32089 layer_factory.hpp:77] Creating layer scale4b22_branch2b
I0629 17:31:15.814095 32089 net.cpp:124] Setting up scale4b22_branch2b
I0629 17:31:15.814119 32089 net.cpp:131] Top shape: 1 256 38 63 (612864)
I0629 17:31:15.814124 32089 net.cpp:139] Memory required for data: 4092930900
I0629 17:31:15.814133 32089 layer_factory.hpp:77] Creating layer res4b22_branch2b_relu
I0629 17:31:15.814141 32089 net.cpp:86] Creating Layer res4b22_branch2b_relu
I0629 17:31:15.814147 32089 net.cpp:408] res4b22_branch2b_relu <- res4b22_branch2b
I0629 17:31:15.814157 32089 net.cpp:369] res4b22_branch2b_relu -> res4b22_branch2b (in-place)
I0629 17:31:15.814577 32089 net.cpp:124] Setting up res4b22_branch2b_relu
I0629 17:31:15.814613 32089 net.cpp:131] Top shape: 1 256 38 63 (612864)
I0629 17:31:15.814618 32089 net.cpp:139] Memory required for data: 4095382356
I0629 17:31:15.814632 32089 layer_factory.hpp:77] Creating layer res4b22_branch2c
I0629 17:31:15.814643 32089 net.cpp:86] Creating Layer res4b22_branch2c
I0629 17:31:15.814649 32089 net.cpp:408] res4b22_branch2c <- res4b22_branch2b
I0629 17:31:15.814661 32089 net.cpp:382] res4b22_branch2c -> res4b22_branch2c
I0629 17:31:15.820319 32089 net.cpp:124] Setting up res4b22_branch2c
I0629 17:31:15.820348 32089 net.cpp:131] Top shape: 1 1024 38 63 (2451456)
I0629 17:31:15.820353 32089 net.cpp:139] Memory required for data: 4105188180
I0629 17:31:15.820359 32089 layer_factory.hpp:77] Creating layer bn4b22_branch2c
I0629 17:31:15.820379 32089 net.cpp:86] Creating Layer bn4b22_branch2c
I0629 17:31:15.820384 32089 net.cpp:408] bn4b22_branch2c <- res4b22_branch2c
I0629 17:31:15.820403 32089 net.cpp:369] bn4b22_branch2c -> res4b22_branch2c (in-place)
I0629 17:31:15.821281 32089 net.cpp:124] Setting up bn4b22_branch2c
I0629 17:31:15.821297 32089 net.cpp:131] Top shape: 1 1024 38 63 (2451456)
I0629 17:31:15.821313 32089 net.cpp:139] Memory required for data: 4114994004
I0629 17:31:15.821326 32089 layer_factory.hpp:77] Creating layer scale4b22_branch2c
I0629 17:31:15.821348 32089 net.cpp:86] Creating Layer scale4b22_branch2c
I0629 17:31:15.821365 32089 net.cpp:408] scale4b22_branch2c <- res4b22_branch2c
I0629 17:31:15.821380 32089 net.cpp:369] scale4b22_branch2c -> res4b22_branch2c (in-place)
I0629 17:31:15.821560 32089 layer_factory.hpp:77] Creating layer scale4b22_branch2c
I0629 17:31:15.822072 32089 net.cpp:124] Setting up scale4b22_branch2c
I0629 17:31:15.822098 32089 net.cpp:131] Top shape: 1 1024 38 63 (2451456)
I0629 17:31:15.822103 32089 net.cpp:139] Memory required for data: 4124799828
I0629 17:31:15.822113 32089 layer_factory.hpp:77] Creating layer res4b22
I0629 17:31:15.822120 32089 net.cpp:86] Creating Layer res4b22
I0629 17:31:15.822126 32089 net.cpp:408] res4b22 <- res4b21_res4b21_relu_0_split_1
I0629 17:31:15.822131 32089 net.cpp:408] res4b22 <- res4b22_branch2c
I0629 17:31:15.822140 32089 net.cpp:382] res4b22 -> res4b22
I0629 17:31:15.822218 32089 net.cpp:124] Setting up res4b22
I0629 17:31:15.822233 32089 net.cpp:131] Top shape: 1 1024 38 63 (2451456)
I0629 17:31:15.822237 32089 net.cpp:139] Memory required for data: 4134605652
I0629 17:31:15.822242 32089 layer_factory.hpp:77] Creating layer res4b22_relu
I0629 17:31:15.822248 32089 net.cpp:86] Creating Layer res4b22_relu
I0629 17:31:15.822253 32089 net.cpp:408] res4b22_relu <- res4b22
I0629 17:31:15.822263 32089 net.cpp:369] res4b22_relu -> res4b22 (in-place)
I0629 17:31:15.823453 32089 net.cpp:124] Setting up res4b22_relu
I0629 17:31:15.823482 32089 net.cpp:131] Top shape: 1 1024 38 63 (2451456)
I0629 17:31:15.823488 32089 net.cpp:139] Memory required for data: 4144411476
I0629 17:31:15.823493 32089 layer_factory.hpp:77] Creating layer res4b22_res4b22_relu_0_split
I0629 17:31:15.823500 32089 net.cpp:86] Creating Layer res4b22_res4b22_relu_0_split
I0629 17:31:15.823505 32089 net.cpp:408] res4b22_res4b22_relu_0_split <- res4b22
I0629 17:31:15.823523 32089 net.cpp:382] res4b22_res4b22_relu_0_split -> res4b22_res4b22_relu_0_split_0
I0629 17:31:15.823532 32089 net.cpp:382] res4b22_res4b22_relu_0_split -> res4b22_res4b22_relu_0_split_1
I0629 17:31:15.823674 32089 net.cpp:124] Setting up res4b22_res4b22_relu_0_split
I0629 17:31:15.823691 32089 net.cpp:131] Top shape: 1 1024 38 63 (2451456)
I0629 17:31:15.823698 32089 net.cpp:131] Top shape: 1 1024 38 63 (2451456)
I0629 17:31:15.823701 32089 net.cpp:139] Memory required for data: 4164023124
I0629 17:31:15.823706 32089 layer_factory.hpp:77] Creating layer rpn_conv/3x3
I0629 17:31:15.823724 32089 net.cpp:86] Creating Layer rpn_conv/3x3
I0629 17:31:15.823740 32089 net.cpp:408] rpn_conv/3x3 <- res4b22_res4b22_relu_0_split_0
I0629 17:31:15.823755 32089 net.cpp:382] rpn_conv/3x3 -> rpn/output
I0629 17:31:16.001368 32089 net.cpp:124] Setting up rpn_conv/3x3
I0629 17:31:16.001406 32089 net.cpp:131] Top shape: 1 512 38 63 (1225728)
I0629 17:31:16.001410 32089 net.cpp:139] Memory required for data: 4168926036
I0629 17:31:16.001418 32089 layer_factory.hpp:77] Creating layer rpn_relu/3x3
I0629 17:31:16.001428 32089 net.cpp:86] Creating Layer rpn_relu/3x3
I0629 17:31:16.001433 32089 net.cpp:408] rpn_relu/3x3 <- rpn/output
I0629 17:31:16.001442 32089 net.cpp:369] rpn_relu/3x3 -> rpn/output (in-place)
I0629 17:31:16.002343 32089 net.cpp:124] Setting up rpn_relu/3x3
I0629 17:31:16.002353 32089 net.cpp:131] Top shape: 1 512 38 63 (1225728)
I0629 17:31:16.002365 32089 net.cpp:139] Memory required for data: 4173828948
I0629 17:31:16.002368 32089 layer_factory.hpp:77] Creating layer rpn/output_rpn_relu/3x3_0_split
I0629 17:31:16.002375 32089 net.cpp:86] Creating Layer rpn/output_rpn_relu/3x3_0_split
I0629 17:31:16.002378 32089 net.cpp:408] rpn/output_rpn_relu/3x3_0_split <- rpn/output
I0629 17:31:16.002382 32089 net.cpp:382] rpn/output_rpn_relu/3x3_0_split -> rpn/output_rpn_relu/3x3_0_split_0
I0629 17:31:16.002398 32089 net.cpp:382] rpn/output_rpn_relu/3x3_0_split -> rpn/output_rpn_relu/3x3_0_split_1
I0629 17:31:16.002486 32089 net.cpp:124] Setting up rpn/output_rpn_relu/3x3_0_split
I0629 17:31:16.002493 32089 net.cpp:131] Top shape: 1 512 38 63 (1225728)
I0629 17:31:16.002497 32089 net.cpp:131] Top shape: 1 512 38 63 (1225728)
I0629 17:31:16.002499 32089 net.cpp:139] Memory required for data: 4183634772
I0629 17:31:16.002501 32089 layer_factory.hpp:77] Creating layer rpn_cls_score
I0629 17:31:16.002511 32089 net.cpp:86] Creating Layer rpn_cls_score
I0629 17:31:16.002514 32089 net.cpp:408] rpn_cls_score <- rpn/output_rpn_relu/3x3_0_split_0
I0629 17:31:16.002521 32089 net.cpp:382] rpn_cls_score -> rpn_cls_score
I0629 17:31:16.005623 32089 net.cpp:124] Setting up rpn_cls_score
I0629 17:31:16.005647 32089 net.cpp:131] Top shape: 1 24 38 63 (57456)
I0629 17:31:16.005650 32089 net.cpp:139] Memory required for data: 4183864596
I0629 17:31:16.005656 32089 layer_factory.hpp:77] Creating layer rpn_cls_score_rpn_cls_score_0_split
I0629 17:31:16.005661 32089 net.cpp:86] Creating Layer rpn_cls_score_rpn_cls_score_0_split
I0629 17:31:16.005663 32089 net.cpp:408] rpn_cls_score_rpn_cls_score_0_split <- rpn_cls_score
I0629 17:31:16.005667 32089 net.cpp:382] rpn_cls_score_rpn_cls_score_0_split -> rpn_cls_score_rpn_cls_score_0_split_0
I0629 17:31:16.005673 32089 net.cpp:382] rpn_cls_score_rpn_cls_score_0_split -> rpn_cls_score_rpn_cls_score_0_split_1
I0629 17:31:16.005769 32089 net.cpp:124] Setting up rpn_cls_score_rpn_cls_score_0_split
I0629 17:31:16.005779 32089 net.cpp:131] Top shape: 1 24 38 63 (57456)
I0629 17:31:16.005781 32089 net.cpp:131] Top shape: 1 24 38 63 (57456)
I0629 17:31:16.005784 32089 net.cpp:139] Memory required for data: 4184324244
I0629 17:31:16.005786 32089 layer_factory.hpp:77] Creating layer rpn_bbox_pred
I0629 17:31:16.005795 32089 net.cpp:86] Creating Layer rpn_bbox_pred
I0629 17:31:16.005798 32089 net.cpp:408] rpn_bbox_pred <- rpn/output_rpn_relu/3x3_0_split_1
I0629 17:31:16.005802 32089 net.cpp:382] rpn_bbox_pred -> rpn_bbox_pred
I0629 17:31:16.009160 32089 net.cpp:124] Setting up rpn_bbox_pred
I0629 17:31:16.009171 32089 net.cpp:131] Top shape: 1 48 38 63 (114912)
I0629 17:31:16.009189 32089 net.cpp:139] Memory required for data: 4184783892
I0629 17:31:16.009204 32089 layer_factory.hpp:77] Creating layer rpn_bbox_pred_rpn_bbox_pred_0_split
I0629 17:31:16.009212 32089 net.cpp:86] Creating Layer rpn_bbox_pred_rpn_bbox_pred_0_split
I0629 17:31:16.009214 32089 net.cpp:408] rpn_bbox_pred_rpn_bbox_pred_0_split <- rpn_bbox_pred
I0629 17:31:16.009219 32089 net.cpp:382] rpn_bbox_pred_rpn_bbox_pred_0_split -> rpn_bbox_pred_rpn_bbox_pred_0_split_0
I0629 17:31:16.009224 32089 net.cpp:382] rpn_bbox_pred_rpn_bbox_pred_0_split -> rpn_bbox_pred_rpn_bbox_pred_0_split_1
I0629 17:31:16.009310 32089 net.cpp:124] Setting up rpn_bbox_pred_rpn_bbox_pred_0_split
I0629 17:31:16.009316 32089 net.cpp:131] Top shape: 1 48 38 63 (114912)
I0629 17:31:16.009320 32089 net.cpp:131] Top shape: 1 48 38 63 (114912)
I0629 17:31:16.009321 32089 net.cpp:139] Memory required for data: 4185703188
I0629 17:31:16.009325 32089 layer_factory.hpp:77] Creating layer rpn_cls_score_reshape
I0629 17:31:16.009340 32089 net.cpp:86] Creating Layer rpn_cls_score_reshape
I0629 17:31:16.009343 32089 net.cpp:408] rpn_cls_score_reshape <- rpn_cls_score_rpn_cls_score_0_split_0
I0629 17:31:16.009347 32089 net.cpp:382] rpn_cls_score_reshape -> rpn_cls_score_reshape
I0629 17:31:16.009392 32089 net.cpp:124] Setting up rpn_cls_score_reshape
I0629 17:31:16.009400 32089 net.cpp:131] Top shape: 1 2 456 63 (57456)
I0629 17:31:16.009402 32089 net.cpp:139] Memory required for data: 4185933012
I0629 17:31:16.009405 32089 layer_factory.hpp:77] Creating layer rpn_cls_score_reshape_rpn_cls_score_reshape_0_split
I0629 17:31:16.009409 32089 net.cpp:86] Creating Layer rpn_cls_score_reshape_rpn_cls_score_reshape_0_split
I0629 17:31:16.009413 32089 net.cpp:408] rpn_cls_score_reshape_rpn_cls_score_reshape_0_split <- rpn_cls_score_reshape
I0629 17:31:16.009416 32089 net.cpp:382] rpn_cls_score_reshape_rpn_cls_score_reshape_0_split -> rpn_cls_score_reshape_rpn_cls_score_reshape_0_split_0
I0629 17:31:16.009421 32089 net.cpp:382] rpn_cls_score_reshape_rpn_cls_score_reshape_0_split -> rpn_cls_score_reshape_rpn_cls_score_reshape_0_split_1
I0629 17:31:16.009485 32089 net.cpp:124] Setting up rpn_cls_score_reshape_rpn_cls_score_reshape_0_split
I0629 17:31:16.009491 32089 net.cpp:131] Top shape: 1 2 456 63 (57456)
I0629 17:31:16.009495 32089 net.cpp:131] Top shape: 1 2 456 63 (57456)
I0629 17:31:16.009496 32089 net.cpp:139] Memory required for data: 4186392660
I0629 17:31:16.009500 32089 layer_factory.hpp:77] Creating layer rpn-data
I0629 17:31:16.031231 32089 net.cpp:86] Creating Layer rpn-data
I0629 17:31:16.031256 32089 net.cpp:408] rpn-data <- rpn_cls_score_rpn_cls_score_0_split_1
I0629 17:31:16.031268 32089 net.cpp:408] rpn-data <- gt_boxes_input-data_2_split_0
I0629 17:31:16.031277 32089 net.cpp:408] rpn-data <- im_info_input-data_1_split_0
I0629 17:31:16.031286 32089 net.cpp:408] rpn-data <- data_input-data_0_split_1
I0629 17:31:16.031296 32089 net.cpp:382] rpn-data -> rpn_labels
I0629 17:31:16.031311 32089 net.cpp:382] rpn-data -> rpn_bbox_targets
I0629 17:31:16.031324 32089 net.cpp:382] rpn-data -> rpn_bbox_inside_weights
I0629 17:31:16.031337 32089 net.cpp:382] rpn-data -> rpn_bbox_outside_weights
I0629 17:31:16.037609 32089 net.cpp:124] Setting up rpn-data
I0629 17:31:16.037632 32089 net.cpp:131] Top shape: 1 1 456 63 (28728)
I0629 17:31:16.037639 32089 net.cpp:131] Top shape: 1 48 38 63 (114912)
I0629 17:31:16.037645 32089 net.cpp:131] Top shape: 1 48 38 63 (114912)
I0629 17:31:16.037650 32089 net.cpp:131] Top shape: 1 48 38 63 (114912)
I0629 17:31:16.037655 32089 net.cpp:139] Memory required for data: 4187886516
I0629 17:31:16.037660 32089 layer_factory.hpp:77] Creating layer rpn_loss_cls
I0629 17:31:16.037679 32089 net.cpp:86] Creating Layer rpn_loss_cls
I0629 17:31:16.037686 32089 net.cpp:408] rpn_loss_cls <- rpn_cls_score_reshape_rpn_cls_score_reshape_0_split_0
I0629 17:31:16.037694 32089 net.cpp:408] rpn_loss_cls <- rpn_labels
…
I0629 17:31:16.042685 32089 net.cpp:131] Top shape: (1)
I0629 17:31:16.042690 32089 net.cpp:134]     with loss weight 1
I0629 17:31:16.042699 32089 net.cpp:139] Memory required for data: 4187886524
I0629 17:31:16.042704 32089 layer_factory.hpp:77] Creating layer rpn_cls_prob
I0629 17:31:16.042716 32089 net.cpp:86] Creating Layer rpn_cls_prob
I0629 17:31:16.042722 32089 net.cpp:408] rpn_cls_prob <- rpn_cls_score_reshape_rpn_cls_score_reshape_0_split_1
I0629 17:31:16.042732 32089 net.cpp:382] rpn_cls_prob -> rpn_cls_prob
I0629 17:31:16.044441 32089 net.cpp:124] Setting up rpn_cls_prob
I0629 17:31:16.044461 32089 net.cpp:131] Top shape: 1 2 456 63 (57456)
I0629 17:31:16.044467 32089 net.cpp:139] Memory required for data: 4188116348
I0629 17:31:16.044472 32089 layer_factory.hpp:77] Creating layer rpn_cls_prob_reshape
I0629 17:31:16.044484 32089 net.cpp:86] Creating Layer rpn_cls_prob_reshape
I0629 17:31:16.044490 32089 net.cpp:408] rpn_cls_prob_reshape <- rpn_cls_prob
I0629 17:31:16.044499 32089 net.cpp:382] rpn_cls_prob_reshape -> rpn_cls_prob_reshape
I0629 17:31:16.044579 32089 net.cpp:124] Setting up rpn_cls_prob_reshape
I0629 17:31:16.044591 32089 net.cpp:131] Top shape: 1 24 38 63 (57456)
I0629 17:31:16.044596 32089 net.cpp:139] Memory required for data: 4188346172
I0629 17:31:16.044600 32089 layer_factory.hpp:77] Creating layer proposal
I0629 17:31:16.046186 32089 net.cpp:86] Creating Layer proposal
I0629 17:31:16.046206 32089 net.cpp:408] proposal <- rpn_cls_prob_reshape
I0629 17:31:16.046216 32089 net.cpp:408] proposal <- rpn_bbox_pred_rpn_bbox_pred_0_split_1
I0629 17:31:16.046222 32089 net.cpp:408] proposal <- im_info_input-data_1_split_1
I0629 17:31:16.046231 32089 net.cpp:382] proposal -> rpn_rois
I0629 17:31:16.074493 32089 net.cpp:124] Setting up proposal
I0629 17:31:16.074533 32089 net.cpp:131] Top shape: 1 5 (5)
I0629 17:31:16.074540 32089 net.cpp:139] Memory required for data: 4188346192
I0629 17:31:16.074553 32089 layer_factory.hpp:77] Creating layer roi-data
I0629 17:31:16.090947 32089 net.cpp:86] Creating Layer roi-data
I0629 17:31:16.090965 32089 net.cpp:408] roi-data <- rpn_rois
I0629 17:31:16.090972 32089 net.cpp:408] roi-data <- gt_boxes_input-data_2_split_1
I0629 17:31:16.090981 32089 net.cpp:382] roi-data -> rois
I0629 17:31:16.090992 32089 net.cpp:382] roi-data -> labels
I0629 17:31:16.091001 32089 net.cpp:382] roi-data -> bbox_targets
I0629 17:31:16.091011 32089 net.cpp:382] roi-data -> bbox_inside_weights
I0629 17:31:16.091017 32089 net.cpp:382] roi-data -> bbox_outside_weights
I0629 17:31:16.091027 32089 net.cpp:382] roi-data -> attr_labels
I0629 17:31:16.092499 32089 net.cpp:124] Setting up roi-data
I0629 17:31:16.092519 32089 net.cpp:131] Top shape: 64 5 1 1 (320)
I0629 17:31:16.092525 32089 net.cpp:131] Top shape: 64 1 1 1 (64)
I0629 17:31:16.092531 32089 net.cpp:131] Top shape: 64 6404 1 1 (409856)
I0629 17:31:16.092537 32089 net.cpp:131] Top shape: 64 6404 1 1 (409856)
I0629 17:31:16.092542 32089 net.cpp:131] Top shape: 64 6404 1 1 (409856)
I0629 17:31:16.092547 32089 net.cpp:131] Top shape: 32 16 (512)
I0629 17:31:16.092551 32089 net.cpp:139] Memory required for data: 4193268048
I0629 17:31:16.092556 32089 layer_factory.hpp:77] Creating layer labels_roi-data_1_split
I0629 17:31:16.092564 32089 net.cpp:86] Creating Layer labels_roi-data_1_split
I0629 17:31:16.092569 32089 net.cpp:408] labels_roi-data_1_split <- labels
I0629 17:31:16.092577 32089 net.cpp:382] labels_roi-data_1_split -> labels_roi-data_1_split_0
I0629 17:31:16.092587 32089 net.cpp:382] labels_roi-data_1_split -> labels_roi-data_1_split_1
I0629 17:31:16.092695 32089 net.cpp:124] Setting up labels_roi-data_1_split
I0629 17:31:16.092707 32089 net.cpp:131] Top shape: 64 1 1 1 (64)
I0629 17:31:16.092713 32089 net.cpp:131] Top shape: 64 1 1 1 (64)
I0629 17:31:16.092716 32089 net.cpp:139] Memory required for data: 4193268560
I0629 17:31:16.092721 32089 layer_factory.hpp:77] Creating layer roi_pool5
I0629 17:31:16.092730 32089 net.cpp:86] Creating Layer roi_pool5
I0629 17:31:16.092736 32089 net.cpp:408] roi_pool5 <- res4b22_res4b22_relu_0_split_1
I0629 17:31:16.092743 32089 net.cpp:408] roi_pool5 <- rois
I0629 17:31:16.092751 32089 net.cpp:382] roi_pool5 -> roipool5
I0629 17:31:16.092759 32089 roi_pooling_layer.cpp:25] Spatial scale: 0.0625
I0629 17:31:16.092865 32089 net.cpp:124] Setting up roi_pool5
I0629 17:31:16.092876 32089 net.cpp:131] Top shape: 64 1024 14 14 (12845056)
I0629 17:31:16.092880 32089 net.cpp:139] Memory required for data: 4244648784
I0629 17:31:16.092885 32089 layer_factory.hpp:77] Creating layer roipool5_roi_pool5_0_split
I0629 17:31:16.092891 32089 net.cpp:86] Creating Layer roipool5_roi_pool5_0_split
I0629 17:31:16.092896 32089 net.cpp:408] roipool5_roi_pool5_0_split <- roipool5
I0629 17:31:16.092903 32089 net.cpp:382] roipool5_roi_pool5_0_split -> roipool5_roi_pool5_0_split_0
I0629 17:31:16.092912 32089 net.cpp:382] roipool5_roi_pool5_0_split -> roipool5_roi_pool5_0_split_1
I0629 17:31:16.093008 32089 net.cpp:124] Setting up roipool5_roi_pool5_0_split
I0629 17:31:16.093019 32089 net.cpp:131] Top shape: 64 1024 14 14 (12845056)
I0629 17:31:16.093024 32089 net.cpp:131] Top shape: 64 1024 14 14 (12845056)
I0629 17:31:16.093027 32089 net.cpp:139] Memory required for data: 4347409232
I0629 17:31:16.093032 32089 layer_factory.hpp:77] Creating layer res5a_branch1
I0629 17:31:16.093044 32089 net.cpp:86] Creating Layer res5a_branch1
I0629 17:31:16.093049 32089 net.cpp:408] res5a_branch1 <- roipool5_roi_pool5_0_split_0
I0629 17:31:16.093055 32089 net.cpp:382] res5a_branch1 -> res5a_branch1
I0629 17:31:16.103351 32089 net.cpp:124] Setting up res5a_branch1
I0629 17:31:16.103374 32089 net.cpp:131] Top shape: 64 2048 14 14 (25690112)
I0629 17:31:16.103379 32089 net.cpp:139] Memory required for data: 4450169680
I0629 17:31:16.103389 32089 layer_factory.hpp:77] Creating layer bn5a_branch1
I0629 17:31:16.103404 32089 net.cpp:86] Creating Layer bn5a_branch1
I0629 17:31:16.103410 32089 net.cpp:408] bn5a_branch1 <- res5a_branch1
I0629 17:31:16.103417 32089 net.cpp:369] bn5a_branch1 -> res5a_branch1 (in-place)
I0629 17:31:16.105334 32089 net.cpp:124] Setting up bn5a_branch1
I0629 17:31:16.105352 32089 net.cpp:131] Top shape: 64 2048 14 14 (25690112)
I0629 17:31:16.105357 32089 net.cpp:139] Memory required for data: 4552930128
I0629 17:31:16.105370 32089 layer_factory.hpp:77] Creating layer scale5a_branch1
I0629 17:31:16.105381 32089 net.cpp:86] Creating Layer scale5a_branch1
I0629 17:31:16.105386 32089 net.cpp:408] scale5a_branch1 <- res5a_branch1
I0629 17:31:16.105392 32089 net.cpp:369] scale5a_branch1 -> res5a_branch1 (in-place)
I0629 17:31:16.105490 32089 layer_factory.hpp:77] Creating layer scale5a_branch1
I0629 17:31:16.105826 32089 net.cpp:124] Setting up scale5a_branch1
I0629 17:31:16.105837 32089 net.cpp:131] Top shape: 64 2048 14 14 (25690112)
I0629 17:31:16.105841 32089 net.cpp:139] Memory required for data: 4655690576
I0629 17:31:16.105849 32089 layer_factory.hpp:77] Creating layer res5a_branch2a
I0629 17:31:16.105860 32089 net.cpp:86] Creating Layer res5a_branch2a
I0629 17:31:16.105866 32089 net.cpp:408] res5a_branch2a <- roipool5_roi_pool5_0_split_1
I0629 17:31:16.105875 32089 net.cpp:382] res5a_branch2a -> res5a_branch2a
I0629 17:31:16.111382 32089 net.cpp:124] Setting up res5a_branch2a
I0629 17:31:16.111402 32089 net.cpp:131] Top shape: 64 512 14 14 (6422528)
I0629 17:31:16.111405 32089 net.cpp:139] Memory required for data: 4681380688
I0629 17:31:16.111413 32089 layer_factory.hpp:77] Creating layer bn5a_branch2a
I0629 17:31:16.111423 32089 net.cpp:86] Creating Layer bn5a_branch2a
I0629 17:31:16.111428 32089 net.cpp:408] bn5a_branch2a <- res5a_branch2a
I0629 17:31:16.111435 32089 net.cpp:369] bn5a_branch2a -> res5a_branch2a (in-place)
I0629 17:31:16.112350 32089 net.cpp:124] Setting up bn5a_branch2a
I0629 17:31:16.112372 32089 net.cpp:131] Top shape: 64 512 14 14 (6422528)
I0629 17:31:16.112380 32089 net.cpp:139] Memory required for data: 4707070800
I0629 17:31:16.112401 32089 layer_factory.hpp:77] Creating layer scale5a_branch2a
I0629 17:31:16.112419 32089 net.cpp:86] Creating Layer scale5a_branch2a
I0629 17:31:16.112433 32089 net.cpp:408] scale5a_branch2a <- res5a_branch2a
I0629 17:31:16.112445 32089 net.cpp:369] scale5a_branch2a -> res5a_branch2a (in-place)
I0629 17:31:16.112663 32089 layer_factory.hpp:77] Creating layer scale5a_branch2a
I0629 17:31:16.113479 32089 net.cpp:124] Setting up scale5a_branch2a
I0629 17:31:16.113502 32089 net.cpp:131] Top shape: 64 512 14 14 (6422528)
I0629 17:31:16.113509 32089 net.cpp:139] Memory required for data: 4732760912
I0629 17:31:16.113525 32089 layer_factory.hpp:77] Creating layer res5a_branch2a_relu
I0629 17:31:16.113541 32089 net.cpp:86] Creating Layer res5a_branch2a_relu
I0629 17:31:16.113553 32089 net.cpp:408] res5a_branch2a_relu <- res5a_branch2a
I0629 17:31:16.113564 32089 net.cpp:369] res5a_branch2a_relu -> res5a_branch2a (in-place)
I0629 17:31:16.115690 32089 net.cpp:124] Setting up res5a_branch2a_relu
I0629 17:31:16.115721 32089 net.cpp:131] Top shape: 64 512 14 14 (6422528)
I0629 17:31:16.115730 32089 net.cpp:139] Memory required for data: 4758451024
I0629 17:31:16.115741 32089 layer_factory.hpp:77] Creating layer res5a_branch2b
I0629 17:31:16.115763 32089 net.cpp:86] Creating Layer res5a_branch2b
I0629 17:31:16.115773 32089 net.cpp:408] res5a_branch2b <- res5a_branch2a
I0629 17:31:16.115790 32089 net.cpp:382] res5a_branch2b -> res5a_branch2b
I0629 17:31:16.125128 32089 net.cpp:124] Setting up res5a_branch2b
I0629 17:31:16.125155 32089 net.cpp:131] Top shape: 64 512 14 14 (6422528)
I0629 17:31:16.125159 32089 net.cpp:139] Memory required for data: 4784141136
I0629 17:31:16.125164 32089 layer_factory.hpp:77] Creating layer bn5a_branch2b
I0629 17:31:16.125171 32089 net.cpp:86] Creating Layer bn5a_branch2b
I0629 17:31:16.125175 32089 net.cpp:408] bn5a_branch2b <- res5a_branch2b
I0629 17:31:16.125197 32089 net.cpp:369] bn5a_branch2b -> res5a_branch2b (in-place)
I0629 17:31:16.125735 32089 net.cpp:124] Setting up bn5a_branch2b
I0629 17:31:16.125743 32089 net.cpp:131] Top shape: 64 512 14 14 (6422528)
I0629 17:31:16.125757 32089 net.cpp:139] Memory required for data: 4809831248
I0629 17:31:16.125773 32089 layer_factory.hpp:77] Creating layer scale5a_branch2b
I0629 17:31:16.125780 32089 net.cpp:86] Creating Layer scale5a_branch2b
I0629 17:31:16.125784 32089 net.cpp:408] scale5a_branch2b <- res5a_branch2b
I0629 17:31:16.125789 32089 net.cpp:369] scale5a_branch2b -> res5a_branch2b (in-place)
I0629 17:31:16.125900 32089 layer_factory.hpp:77] Creating layer scale5a_branch2b
I0629 17:31:16.126142 32089 net.cpp:124] Setting up scale5a_branch2b
I0629 17:31:16.126149 32089 net.cpp:131] Top shape: 64 512 14 14 (6422528)
I0629 17:31:16.126152 32089 net.cpp:139] Memory required for data: 4835521360
I0629 17:31:16.126157 32089 layer_factory.hpp:77] Creating layer res5a_branch2b_relu
I0629 17:31:16.126163 32089 net.cpp:86] Creating Layer res5a_branch2b_relu
I0629 17:31:16.126166 32089 net.cpp:408] res5a_branch2b_relu <- res5a_branch2b
I0629 17:31:16.126170 32089 net.cpp:369] res5a_branch2b_relu -> res5a_branch2b (in-place)
I0629 17:31:16.126438 32089 net.cpp:124] Setting up res5a_branch2b_relu
I0629 17:31:16.126446 32089 net.cpp:131] Top shape: 64 512 14 14 (6422528)
I0629 17:31:16.126449 32089 net.cpp:139] Memory required for data: 4861211472
I0629 17:31:16.126452 32089 layer_factory.hpp:77] Creating layer res5a_branch2c
I0629 17:31:16.126459 32089 net.cpp:86] Creating Layer res5a_branch2c
I0629 17:31:16.126463 32089 net.cpp:408] res5a_branch2c <- res5a_branch2b
I0629 17:31:16.126468 32089 net.cpp:382] res5a_branch2c -> res5a_branch2c
I0629 17:31:16.133725 32089 net.cpp:124] Setting up res5a_branch2c
I0629 17:31:16.133751 32089 net.cpp:131] Top shape: 64 2048 14 14 (25690112)
I0629 17:31:16.133754 32089 net.cpp:139] Memory required for data: 4963971920
I0629 17:31:16.133759 32089 layer_factory.hpp:77] Creating layer bn5a_branch2c
I0629 17:31:16.133766 32089 net.cpp:86] Creating Layer bn5a_branch2c
I0629 17:31:16.133769 32089 net.cpp:408] bn5a_branch2c <- res5a_branch2c
I0629 17:31:16.133774 32089 net.cpp:369] bn5a_branch2c -> res5a_branch2c (in-place)
I0629 17:31:16.134202 32089 net.cpp:124] Setting up bn5a_branch2c
I0629 17:31:16.134209 32089 net.cpp:131] Top shape: 64 2048 14 14 (25690112)
I0629 17:31:16.134223 32089 net.cpp:139] Memory required for data: 5066732368
I0629 17:31:16.134230 32089 layer_factory.hpp:77] Creating layer scale5a_branch2c
I0629 17:31:16.134237 32089 net.cpp:86] Creating Layer scale5a_branch2c
I0629 17:31:16.134239 32089 net.cpp:408] scale5a_branch2c <- res5a_branch2c
I0629 17:31:16.134244 32089 net.cpp:369] scale5a_branch2c -> res5a_branch2c (in-place)
I0629 17:31:16.134327 32089 layer_factory.hpp:77] Creating layer scale5a_branch2c
I0629 17:31:16.134569 32089 net.cpp:124] Setting up scale5a_branch2c
I0629 17:31:16.134577 32089 net.cpp:131] Top shape: 64 2048 14 14 (25690112)
I0629 17:31:16.134579 32089 net.cpp:139] Memory required for data: 5169492816
I0629 17:31:16.134596 32089 layer_factory.hpp:77] Creating layer res5a
I0629 17:31:16.134601 32089 net.cpp:86] Creating Layer res5a
I0629 17:31:16.134605 32089 net.cpp:408] res5a <- res5a_branch1
I0629 17:31:16.134608 32089 net.cpp:408] res5a <- res5a_branch2c
I0629 17:31:16.134613 32089 net.cpp:382] res5a -> res5a
I0629 17:31:16.134656 32089 net.cpp:124] Setting up res5a
I0629 17:31:16.134663 32089 net.cpp:131] Top shape: 64 2048 14 14 (25690112)
I0629 17:31:16.134665 32089 net.cpp:139] Memory required for data: 5272253264
I0629 17:31:16.134668 32089 layer_factory.hpp:77] Creating layer res5a_relu
I0629 17:31:16.134673 32089 net.cpp:86] Creating Layer res5a_relu
I0629 17:31:16.134676 32089 net.cpp:408] res5a_relu <- res5a
I0629 17:31:16.134680 32089 net.cpp:369] res5a_relu -> res5a (in-place)
I0629 17:31:16.135583 32089 net.cpp:124] Setting up res5a_relu
I0629 17:31:16.135606 32089 net.cpp:131] Top shape: 64 2048 14 14 (25690112)
I0629 17:31:16.135608 32089 net.cpp:139] Memory required for data: 5375013712
I0629 17:31:16.135612 32089 layer_factory.hpp:77] Creating layer res5a_res5a_relu_0_split
I0629 17:31:16.135617 32089 net.cpp:86] Creating Layer res5a_res5a_relu_0_split
I0629 17:31:16.135622 32089 net.cpp:408] res5a_res5a_relu_0_split <- res5a
I0629 17:31:16.135627 32089 net.cpp:382] res5a_res5a_relu_0_split -> res5a_res5a_relu_0_split_0
I0629 17:31:16.135633 32089 net.cpp:382] res5a_res5a_relu_0_split -> res5a_res5a_relu_0_split_1
I0629 17:31:16.135742 32089 net.cpp:124] Setting up res5a_res5a_relu_0_split
I0629 17:31:16.135751 32089 net.cpp:131] Top shape: 64 2048 14 14 (25690112)
I0629 17:31:16.135753 32089 net.cpp:131] Top shape: 64 2048 14 14 (25690112)
I0629 17:31:16.135756 32089 net.cpp:139] Memory required for data: 5580534608
I0629 17:31:16.135758 32089 layer_factory.hpp:77] Creating layer res5b_branch2a
I0629 17:31:16.135766 32089 net.cpp:86] Creating Layer res5b_branch2a
I0629 17:31:16.135771 32089 net.cpp:408] res5b_branch2a <- res5a_res5a_relu_0_split_0
I0629 17:31:16.135776 32089 net.cpp:382] res5b_branch2a -> res5b_branch2a
I0629 17:31:16.142824 32089 net.cpp:124] Setting up res5b_branch2a
I0629 17:31:16.142849 32089 net.cpp:131] Top shape: 64 512 14 14 (6422528)
I0629 17:31:16.142853 32089 net.cpp:139] Memory required for data: 5606224720
I0629 17:31:16.142869 32089 layer_factory.hpp:77] Creating layer bn5b_branch2a
I0629 17:31:16.142879 32089 net.cpp:86] Creating Layer bn5b_branch2a
I0629 17:31:16.142882 32089 net.cpp:408] bn5b_branch2a <- res5b_branch2a
I0629 17:31:16.142889 32089 net.cpp:369] bn5b_branch2a -> res5b_branch2a (in-place)
I0629 17:31:16.143357 32089 net.cpp:124] Setting up bn5b_branch2a
I0629 17:31:16.143364 32089 net.cpp:131] Top shape: 64 512 14 14 (6422528)
I0629 17:31:16.143378 32089 net.cpp:139] Memory required for data: 5631914832
I0629 17:31:16.143384 32089 layer_factory.hpp:77] Creating layer scale5b_branch2a
I0629 17:31:16.143391 32089 net.cpp:86] Creating Layer scale5b_branch2a
I0629 17:31:16.143395 32089 net.cpp:408] scale5b_branch2a <- res5b_branch2a
I0629 17:31:16.143400 32089 net.cpp:369] scale5b_branch2a -> res5b_branch2a (in-place)
I0629 17:31:16.143493 32089 layer_factory.hpp:77] Creating layer scale5b_branch2a
I0629 17:31:16.143743 32089 net.cpp:124] Setting up scale5b_branch2a
I0629 17:31:16.143751 32089 net.cpp:131] Top shape: 64 512 14 14 (6422528)
I0629 17:31:16.143754 32089 net.cpp:139] Memory required for data: 5657604944
I0629 17:31:16.143759 32089 layer_factory.hpp:77] Creating layer res5b_branch2a_relu
I0629 17:31:16.143764 32089 net.cpp:86] Creating Layer res5b_branch2a_relu
I0629 17:31:16.143769 32089 net.cpp:408] res5b_branch2a_relu <- res5b_branch2a
I0629 17:31:16.143772 32089 net.cpp:369] res5b_branch2a_relu -> res5b_branch2a (in-place)
I0629 17:31:16.144693 32089 net.cpp:124] Setting up res5b_branch2a_relu
I0629 17:31:16.144704 32089 net.cpp:131] Top shape: 64 512 14 14 (6422528)
I0629 17:31:16.144717 32089 net.cpp:139] Memory required for data: 5683295056
I0629 17:31:16.144721 32089 layer_factory.hpp:77] Creating layer res5b_branch2b
I0629 17:31:16.144729 32089 net.cpp:86] Creating Layer res5b_branch2b
I0629 17:31:16.144732 32089 net.cpp:408] res5b_branch2b <- res5b_branch2a
I0629 17:31:16.144738 32089 net.cpp:382] res5b_branch2b -> res5b_branch2b
I0629 17:31:16.151123 32089 net.cpp:124] Setting up res5b_branch2b
I0629 17:31:16.151147 32089 net.cpp:131] Top shape: 64 512 14 14 (6422528)
I0629 17:31:16.151150 32089 net.cpp:139] Memory required for data: 5708985168
I0629 17:31:16.151167 32089 layer_factory.hpp:77] Creating layer bn5b_branch2b
I0629 17:31:16.151175 32089 net.cpp:86] Creating Layer bn5b_branch2b
I0629 17:31:16.151180 32089 net.cpp:408] bn5b_branch2b <- res5b_branch2b
I0629 17:31:16.151190 32089 net.cpp:369] bn5b_branch2b -> res5b_branch2b (in-place)
I0629 17:31:16.151876 32089 net.cpp:124] Setting up bn5b_branch2b
I0629 17:31:16.151897 32089 net.cpp:131] Top shape: 64 512 14 14 (6422528)
I0629 17:31:16.151914 32089 net.cpp:139] Memory required for data: 5734675280
I0629 17:31:16.151926 32089 layer_factory.hpp:77] Creating layer scale5b_branch2b
I0629 17:31:16.151937 32089 net.cpp:86] Creating Layer scale5b_branch2b
I0629 17:31:16.151943 32089 net.cpp:408] scale5b_branch2b <- res5b_branch2b
I0629 17:31:16.151952 32089 net.cpp:369] scale5b_branch2b -> res5b_branch2b (in-place)
I0629 17:31:16.152091 32089 layer_factory.hpp:77] Creating layer scale5b_branch2b
I0629 17:31:16.152550 32089 net.cpp:124] Setting up scale5b_branch2b
I0629 17:31:16.152559 32089 net.cpp:131] Top shape: 64 512 14 14 (6422528)
I0629 17:31:16.152571 32089 net.cpp:139] Memory required for data: 5760365392
I0629 17:31:16.152582 32089 layer_factory.hpp:77] Creating layer res5b_branch2b_relu
I0629 17:31:16.152591 32089 net.cpp:86] Creating Layer res5b_branch2b_relu
I0629 17:31:16.152595 32089 net.cpp:408] res5b_branch2b_relu <- res5b_branch2b
I0629 17:31:16.152600 32089 net.cpp:369] res5b_branch2b_relu -> res5b_branch2b (in-place)
I0629 17:31:16.153971 32089 net.cpp:124] Setting up res5b_branch2b_relu
I0629 17:31:16.153986 32089 net.cpp:131] Top shape: 64 512 14 14 (6422528)
I0629 17:31:16.153991 32089 net.cpp:139] Memory required for data: 5786055504
I0629 17:31:16.153997 32089 layer_factory.hpp:77] Creating layer res5b_branch2c
I0629 17:31:16.154011 32089 net.cpp:86] Creating Layer res5b_branch2c
I0629 17:31:16.154014 32089 net.cpp:408] res5b_branch2c <- res5b_branch2b
I0629 17:31:16.154024 32089 net.cpp:382] res5b_branch2c -> res5b_branch2c
I0629 17:31:16.159399 32089 net.cpp:124] Setting up res5b_branch2c
I0629 17:31:16.159421 32089 net.cpp:131] Top shape: 64 2048 14 14 (25690112)
I0629 17:31:16.159425 32089 net.cpp:139] Memory required for data: 5888815952
I0629 17:31:16.159430 32089 layer_factory.hpp:77] Creating layer bn5b_branch2c
I0629 17:31:16.159447 32089 net.cpp:86] Creating Layer bn5b_branch2c
I0629 17:31:16.159451 32089 net.cpp:408] bn5b_branch2c <- res5b_branch2c
I0629 17:31:16.159456 32089 net.cpp:369] bn5b_branch2c -> res5b_branch2c (in-place)
I0629 17:31:16.159903 32089 net.cpp:124] Setting up bn5b_branch2c
I0629 17:31:16.159910 32089 net.cpp:131] Top shape: 64 2048 14 14 (25690112)
I0629 17:31:16.159922 32089 net.cpp:139] Memory required for data: 5991576400
I0629 17:31:16.159929 32089 layer_factory.hpp:77] Creating layer scale5b_branch2c
I0629 17:31:16.159934 32089 net.cpp:86] Creating Layer scale5b_branch2c
I0629 17:31:16.159937 32089 net.cpp:408] scale5b_branch2c <- res5b_branch2c
I0629 17:31:16.159951 32089 net.cpp:369] scale5b_branch2c -> res5b_branch2c (in-place)
I0629 17:31:16.160024 32089 layer_factory.hpp:77] Creating layer scale5b_branch2c
I0629 17:31:16.160269 32089 net.cpp:124] Setting up scale5b_branch2c
I0629 17:31:16.160277 32089 net.cpp:131] Top shape: 64 2048 14 14 (25690112)
I0629 17:31:16.160279 32089 net.cpp:139] Memory required for data: 6094336848
I0629 17:31:16.160285 32089 layer_factory.hpp:77] Creating layer res5b
I0629 17:31:16.160292 32089 net.cpp:86] Creating Layer res5b
I0629 17:31:16.160296 32089 net.cpp:408] res5b <- res5a_res5a_relu_0_split_1
I0629 17:31:16.160300 32089 net.cpp:408] res5b <- res5b_branch2c
I0629 17:31:16.160303 32089 net.cpp:382] res5b -> res5b
I0629 17:31:16.160348 32089 net.cpp:124] Setting up res5b
I0629 17:31:16.160356 32089 net.cpp:131] Top shape: 64 2048 14 14 (25690112)
I0629 17:31:16.160358 32089 net.cpp:139] Memory required for data: 6197097296
I0629 17:31:16.160362 32089 layer_factory.hpp:77] Creating layer res5b_relu
I0629 17:31:16.160367 32089 net.cpp:86] Creating Layer res5b_relu
I0629 17:31:16.160369 32089 net.cpp:408] res5b_relu <- res5b
I0629 17:31:16.160374 32089 net.cpp:369] res5b_relu -> res5b (in-place)
I0629 17:31:16.161311 32089 net.cpp:124] Setting up res5b_relu
I0629 17:31:16.161324 32089 net.cpp:131] Top shape: 64 2048 14 14 (25690112)
I0629 17:31:16.161327 32089 net.cpp:139] Memory required for data: 6299857744
I0629 17:31:16.161330 32089 layer_factory.hpp:77] Creating layer res5b_res5b_relu_0_split
I0629 17:31:16.161336 32089 net.cpp:86] Creating Layer res5b_res5b_relu_0_split
I0629 17:31:16.161340 32089 net.cpp:408] res5b_res5b_relu_0_split <- res5b
I0629 17:31:16.161345 32089 net.cpp:382] res5b_res5b_relu_0_split -> res5b_res5b_relu_0_split_0
I0629 17:31:16.161352 32089 net.cpp:382] res5b_res5b_relu_0_split -> res5b_res5b_relu_0_split_1
I0629 17:31:16.161451 32089 net.cpp:124] Setting up res5b_res5b_relu_0_split
I0629 17:31:16.161458 32089 net.cpp:131] Top shape: 64 2048 14 14 (25690112)
I0629 17:31:16.161463 32089 net.cpp:131] Top shape: 64 2048 14 14 (25690112)
I0629 17:31:16.161464 32089 net.cpp:139] Memory required for data: 6505378640
I0629 17:31:16.161466 32089 layer_factory.hpp:77] Creating layer res5c_branch2a
I0629 17:31:16.161474 32089 net.cpp:86] Creating Layer res5c_branch2a
I0629 17:31:16.161478 32089 net.cpp:408] res5c_branch2a <- res5b_res5b_relu_0_split_0
I0629 17:31:16.161483 32089 net.cpp:382] res5c_branch2a -> res5c_branch2a
I0629 17:31:16.166970 32089 net.cpp:124] Setting up res5c_branch2a
I0629 17:31:16.166993 32089 net.cpp:131] Top shape: 64 512 14 14 (6422528)
I0629 17:31:16.166996 32089 net.cpp:139] Memory required for data: 6531068752
I0629 17:31:16.167007 32089 layer_factory.hpp:77] Creating layer bn5c_branch2a
I0629 17:31:16.167014 32089 net.cpp:86] Creating Layer bn5c_branch2a
I0629 17:31:16.167018 32089 net.cpp:408] bn5c_branch2a <- res5c_branch2a
I0629 17:31:16.167023 32089 net.cpp:369] bn5c_branch2a -> res5c_branch2a (in-place)
I0629 17:31:16.167618 32089 net.cpp:124] Setting up bn5c_branch2a
I0629 17:31:16.167641 32089 net.cpp:131] Top shape: 64 512 14 14 (6422528)
I0629 17:31:16.167645 32089 net.cpp:139] Memory required for data: 6556758864
I0629 17:31:16.167655 32089 layer_factory.hpp:77] Creating layer scale5c_branch2a
I0629 17:31:16.167665 32089 net.cpp:86] Creating Layer scale5c_branch2a
I0629 17:31:16.167667 32089 net.cpp:408] scale5c_branch2a <- res5c_branch2a
I0629 17:31:16.167675 32089 net.cpp:369] scale5c_branch2a -> res5c_branch2a (in-place)
I0629 17:31:16.167781 32089 layer_factory.hpp:77] Creating layer scale5c_branch2a
I0629 17:31:16.168085 32089 net.cpp:124] Setting up scale5c_branch2a
I0629 17:31:16.168102 32089 net.cpp:131] Top shape: 64 512 14 14 (6422528)
I0629 17:31:16.168105 32089 net.cpp:139] Memory required for data: 6582448976
I0629 17:31:16.168109 32089 layer_factory.hpp:77] Creating layer res5c_branch2a_relu
I0629 17:31:16.168125 32089 net.cpp:86] Creating Layer res5c_branch2a_relu
I0629 17:31:16.168128 32089 net.cpp:408] res5c_branch2a_relu <- res5c_branch2a
I0629 17:31:16.168143 32089 net.cpp:369] res5c_branch2a_relu -> res5c_branch2a (in-place)
I0629 17:31:16.168409 32089 net.cpp:124] Setting up res5c_branch2a_relu
I0629 17:31:16.168418 32089 net.cpp:131] Top shape: 64 512 14 14 (6422528)
I0629 17:31:16.168421 32089 net.cpp:139] Memory required for data: 6608139088
I0629 17:31:16.168423 32089 layer_factory.hpp:77] Creating layer res5c_branch2b
I0629 17:31:16.168431 32089 net.cpp:86] Creating Layer res5c_branch2b
I0629 17:31:16.168434 32089 net.cpp:408] res5c_branch2b <- res5c_branch2a
I0629 17:31:16.168442 32089 net.cpp:382] res5c_branch2b -> res5c_branch2b
I0629 17:31:16.175225 32089 net.cpp:124] Setting up res5c_branch2b
I0629 17:31:16.175249 32089 net.cpp:131] Top shape: 64 512 14 14 (6422528)
I0629 17:31:16.175252 32089 net.cpp:139] Memory required for data: 6633829200
I0629 17:31:16.175256 32089 layer_factory.hpp:77] Creating layer bn5c_branch2b
I0629 17:31:16.175264 32089 net.cpp:86] Creating Layer bn5c_branch2b
I0629 17:31:16.175268 32089 net.cpp:408] bn5c_branch2b <- res5c_branch2b
I0629 17:31:16.175273 32089 net.cpp:369] bn5c_branch2b -> res5c_branch2b (in-place)
I0629 17:31:16.175796 32089 net.cpp:124] Setting up bn5c_branch2b
I0629 17:31:16.175803 32089 net.cpp:131] Top shape: 64 512 14 14 (6422528)
I0629 17:31:16.175817 32089 net.cpp:139] Memory required for data: 6659519312
I0629 17:31:16.175824 32089 layer_factory.hpp:77] Creating layer scale5c_branch2b
I0629 17:31:16.175832 32089 net.cpp:86] Creating Layer scale5c_branch2b
I0629 17:31:16.175834 32089 net.cpp:408] scale5c_branch2b <- res5c_branch2b
I0629 17:31:16.175838 32089 net.cpp:369] scale5c_branch2b -> res5c_branch2b (in-place)
I0629 17:31:16.175935 32089 layer_factory.hpp:77] Creating layer scale5c_branch2b
I0629 17:31:16.176196 32089 net.cpp:124] Setting up scale5c_branch2b
I0629 17:31:16.176204 32089 net.cpp:131] Top shape: 64 512 14 14 (6422528)
I0629 17:31:16.176206 32089 net.cpp:139] Memory required for data: 6685209424
I0629 17:31:16.176213 32089 layer_factory.hpp:77] Creating layer res5c_branch2b_relu
I0629 17:31:16.176218 32089 net.cpp:86] Creating Layer res5c_branch2b_relu
I0629 17:31:16.176221 32089 net.cpp:408] res5c_branch2b_relu <- res5c_branch2b
I0629 17:31:16.176225 32089 net.cpp:369] res5c_branch2b_relu -> res5c_branch2b (in-place)
I0629 17:31:16.177147 32089 net.cpp:124] Setting up res5c_branch2b_relu
I0629 17:31:16.177157 32089 net.cpp:131] Top shape: 64 512 14 14 (6422528)
I0629 17:31:16.177171 32089 net.cpp:139] Memory required for data: 6710899536
I0629 17:31:16.177175 32089 layer_factory.hpp:77] Creating layer res5c_branch2c
I0629 17:31:16.177217 32089 net.cpp:86] Creating Layer res5c_branch2c
I0629 17:31:16.177220 32089 net.cpp:408] res5c_branch2c <- res5c_branch2b
I0629 17:31:16.177227 32089 net.cpp:382] res5c_branch2c -> res5c_branch2c
I0629 17:31:16.183930 32089 net.cpp:124] Setting up res5c_branch2c
I0629 17:31:16.183955 32089 net.cpp:131] Top shape: 64 2048 14 14 (25690112)
I0629 17:31:16.183959 32089 net.cpp:139] Memory required for data: 6813659984
I0629 17:31:16.183964 32089 layer_factory.hpp:77] Creating layer bn5c_branch2c
I0629 17:31:16.183969 32089 net.cpp:86] Creating Layer bn5c_branch2c
I0629 17:31:16.183974 32089 net.cpp:408] bn5c_branch2c <- res5c_branch2c
I0629 17:31:16.183979 32089 net.cpp:369] bn5c_branch2c -> res5c_branch2c (in-place)
I0629 17:31:16.184460 32089 net.cpp:124] Setting up bn5c_branch2c
I0629 17:31:16.184468 32089 net.cpp:131] Top shape: 64 2048 14 14 (25690112)
I0629 17:31:16.184480 32089 net.cpp:139] Memory required for data: 6916420432
I0629 17:31:16.184487 32089 layer_factory.hpp:77] Creating layer scale5c_branch2c
I0629 17:31:16.184494 32089 net.cpp:86] Creating Layer scale5c_branch2c
I0629 17:31:16.184497 32089 net.cpp:408] scale5c_branch2c <- res5c_branch2c
I0629 17:31:16.184500 32089 net.cpp:369] scale5c_branch2c -> res5c_branch2c (in-place)
I0629 17:31:16.184579 32089 layer_factory.hpp:77] Creating layer scale5c_branch2c
I0629 17:31:16.184828 32089 net.cpp:124] Setting up scale5c_branch2c
I0629 17:31:16.184836 32089 net.cpp:131] Top shape: 64 2048 14 14 (25690112)
I0629 17:31:16.184839 32089 net.cpp:139] Memory required for data: 7019180880
I0629 17:31:16.184844 32089 layer_factory.hpp:77] Creating layer res5c
I0629 17:31:16.184849 32089 net.cpp:86] Creating Layer res5c
I0629 17:31:16.184852 32089 net.cpp:408] res5c <- res5b_res5b_relu_0_split_1
I0629 17:31:16.184855 32089 net.cpp:408] res5c <- res5c_branch2c
I0629 17:31:16.184861 32089 net.cpp:382] res5c -> res5c
I0629 17:31:16.184924 32089 net.cpp:124] Setting up res5c
I0629 17:31:16.184931 32089 net.cpp:131] Top shape: 64 2048 14 14 (25690112)
I0629 17:31:16.184934 32089 net.cpp:139] Memory required for data: 7121941328
I0629 17:31:16.184937 32089 layer_factory.hpp:77] Creating layer res5c_relu
I0629 17:31:16.184942 32089 net.cpp:86] Creating Layer res5c_relu
I0629 17:31:16.184944 32089 net.cpp:408] res5c_relu <- res5c
I0629 17:31:16.184952 32089 net.cpp:369] res5c_relu -> res5c (in-place)
I0629 17:31:16.185221 32089 net.cpp:124] Setting up res5c_relu
I0629 17:31:16.185232 32089 net.cpp:131] Top shape: 64 2048 14 14 (25690112)
I0629 17:31:16.185235 32089 net.cpp:139] Memory required for data: 7224701776
I0629 17:31:16.185238 32089 layer_factory.hpp:77] Creating layer pool5
I0629 17:31:16.185245 32089 net.cpp:86] Creating Layer pool5
I0629 17:31:16.185248 32089 net.cpp:408] pool5 <- res5c
I0629 17:31:16.185255 32089 net.cpp:382] pool5 -> pool5
I0629 17:31:16.186218 32089 net.cpp:124] Setting up pool5
I0629 17:31:16.186240 32089 net.cpp:131] Top shape: 64 2048 1 1 (131072)
I0629 17:31:16.186244 32089 net.cpp:139] Memory required for data: 7225226064
I0629 17:31:16.186247 32089 layer_factory.hpp:77] Creating layer pool5_pool5_0_split
I0629 17:31:16.186254 32089 net.cpp:86] Creating Layer pool5_pool5_0_split
I0629 17:31:16.186256 32089 net.cpp:408] pool5_pool5_0_split <- pool5
I0629 17:31:16.186262 32089 net.cpp:382] pool5_pool5_0_split -> pool5_pool5_0_split_0
I0629 17:31:16.186267 32089 net.cpp:382] pool5_pool5_0_split -> pool5_pool5_0_split_1
I0629 17:31:16.186272 32089 net.cpp:382] pool5_pool5_0_split -> pool5_pool5_0_split_2
I0629 17:31:16.186394 32089 net.cpp:124] Setting up pool5_pool5_0_split
I0629 17:31:16.186401 32089 net.cpp:131] Top shape: 64 2048 1 1 (131072)
I0629 17:31:16.186404 32089 net.cpp:131] Top shape: 64 2048 1 1 (131072)
I0629 17:31:16.186408 32089 net.cpp:131] Top shape: 64 2048 1 1 (131072)
I0629 17:31:16.186410 32089 net.cpp:139] Memory required for data: 7226798928
I0629 17:31:16.186413 32089 layer_factory.hpp:77] Creating layer foreground_pool5
I0629 17:31:16.186419 32089 net.cpp:86] Creating Layer foreground_pool5
I0629 17:31:16.186424 32089 net.cpp:408] foreground_pool5 <- pool5_pool5_0_split_0
I0629 17:31:16.186429 32089 net.cpp:382] foreground_pool5 -> foreground_pool5
I0629 17:31:16.186435 32089 net.cpp:382] foreground_pool5 -> background_pool5
I0629 17:31:16.186518 32089 net.cpp:124] Setting up foreground_pool5
I0629 17:31:16.186524 32089 net.cpp:131] Top shape: 32 2048 1 1 (65536)
I0629 17:31:16.186528 32089 net.cpp:131] Top shape: 32 2048 1 1 (65536)
I0629 17:31:16.186530 32089 net.cpp:139] Memory required for data: 7227323216
I0629 17:31:16.186532 32089 layer_factory.hpp:77] Creating layer pool5_flat
I0629 17:31:16.186554 32089 net.cpp:86] Creating Layer pool5_flat
I0629 17:31:16.186558 32089 net.cpp:408] pool5_flat <- foreground_pool5
I0629 17:31:16.186563 32089 net.cpp:382] pool5_flat -> pool5_flat
I0629 17:31:16.186609 32089 net.cpp:124] Setting up pool5_flat
I0629 17:31:16.186616 32089 net.cpp:131] Top shape: 32 2048 (65536)
I0629 17:31:16.186619 32089 net.cpp:139] Memory required for data: 7227585360
I0629 17:31:16.186621 32089 layer_factory.hpp:77] Creating layer cls_score
I0629 17:31:16.186628 32089 net.cpp:86] Creating Layer cls_score
I0629 17:31:16.186631 32089 net.cpp:408] cls_score <- pool5_pool5_0_split_1
I0629 17:31:16.186636 32089 net.cpp:382] cls_score -> cls_score
I0629 17:31:16.287700 32089 net.cpp:124] Setting up cls_score
I0629 17:31:16.287731 32089 net.cpp:131] Top shape: 64 1601 (102464)
I0629 17:31:16.287734 32089 net.cpp:139] Memory required for data: 7227995216
I0629 17:31:16.287742 32089 layer_factory.hpp:77] Creating layer bbox_pred
I0629 17:31:16.287752 32089 net.cpp:86] Creating Layer bbox_pred
I0629 17:31:16.287757 32089 net.cpp:408] bbox_pred <- pool5_pool5_0_split_2
I0629 17:31:16.287765 32089 net.cpp:382] bbox_pred -> bbox_pred
I0629 17:31:16.768105 32089 net.cpp:124] Setting up bbox_pred
I0629 17:31:16.768147 32089 net.cpp:131] Top shape: 64 6404 (409856)
I0629 17:31:16.768152 32089 net.cpp:139] Memory required for data: 7229634640
I0629 17:31:16.768168 32089 layer_factory.hpp:77] Creating layer foreground_labels
I0629 17:31:16.768187 32089 net.cpp:86] Creating Layer foreground_labels
I0629 17:31:16.768194 32089 net.cpp:408] foreground_labels <- labels_roi-data_1_split_0
I0629 17:31:16.768208 32089 net.cpp:382] foreground_labels -> foreground_labels
I0629 17:31:16.768249 32089 net.cpp:382] foreground_labels -> background_labels
I0629 17:31:16.768440 32089 net.cpp:124] Setting up foreground_labels
I0629 17:31:16.768455 32089 net.cpp:131] Top shape: 32 1 1 1 (32)
I0629 17:31:16.768460 32089 net.cpp:131] Top shape: 32 1 1 1 (32)
I0629 17:31:16.768467 32089 net.cpp:139] Memory required for data: 7229634896
I0629 17:31:16.768471 32089 layer_factory.hpp:77] Creating layer silence
I0629 17:31:16.768479 32089 net.cpp:86] Creating Layer silence
I0629 17:31:16.768482 32089 net.cpp:408] silence <- background_pool5
I0629 17:31:16.768486 32089 net.cpp:408] silence <- background_labels
I0629 17:31:16.768491 32089 net.cpp:124] Setting up silence
I0629 17:31:16.768493 32089 net.cpp:139] Memory required for data: 7229634896
I0629 17:31:16.768496 32089 layer_factory.hpp:77] Creating layer cls_embedding
I0629 17:31:16.768501 32089 net.cpp:86] Creating Layer cls_embedding
I0629 17:31:16.768506 32089 net.cpp:408] cls_embedding <- foreground_labels
I0629 17:31:16.768509 32089 net.cpp:382] cls_embedding -> cls_embedding
I0629 17:31:16.781730 32089 net.cpp:124] Setting up cls_embedding
I0629 17:31:16.781754 32089 net.cpp:131] Top shape: 32 1 1 256 (8192)
I0629 17:31:16.781756 32089 net.cpp:139] Memory required for data: 7229667664
I0629 17:31:16.781761 32089 layer_factory.hpp:77] Creating layer cls_embedding_flat
I0629 17:31:16.781767 32089 net.cpp:86] Creating Layer cls_embedding_flat
I0629 17:31:16.781770 32089 net.cpp:408] cls_embedding_flat <- cls_embedding
I0629 17:31:16.781775 32089 net.cpp:382] cls_embedding_flat -> cls_embedding_flat
I0629 17:31:16.781847 32089 net.cpp:124] Setting up cls_embedding_flat
I0629 17:31:16.781853 32089 net.cpp:131] Top shape: 32 256 (8192)
I0629 17:31:16.781855 32089 net.cpp:139] Memory required for data: 7229700432
I0629 17:31:16.781858 32089 layer_factory.hpp:77] Creating layer concat_pool5
I0629 17:31:16.781873 32089 net.cpp:86] Creating Layer concat_pool5
I0629 17:31:16.781878 32089 net.cpp:408] concat_pool5 <- pool5_flat
I0629 17:31:16.781893 32089 net.cpp:408] concat_pool5 <- cls_embedding_flat
I0629 17:31:16.781898 32089 net.cpp:382] concat_pool5 -> concat_pool5
I0629 17:31:16.781956 32089 net.cpp:124] Setting up concat_pool5
I0629 17:31:16.781963 32089 net.cpp:131] Top shape: 32 2304 (73728)
I0629 17:31:16.781966 32089 net.cpp:139] Memory required for data: 7229995344
I0629 17:31:16.781970 32089 layer_factory.hpp:77] Creating layer fc_attr
I0629 17:31:16.781985 32089 net.cpp:86] Creating Layer fc_attr
I0629 17:31:16.781990 32089 net.cpp:408] fc_attr <- concat_pool5
I0629 17:31:16.781993 32089 net.cpp:382] fc_attr -> fc_attr
I0629 17:31:16.818413 32089 net.cpp:124] Setting up fc_attr
I0629 17:31:16.818428 32089 net.cpp:131] Top shape: 32 512 (16384)
I0629 17:31:16.818441 32089 net.cpp:139] Memory required for data: 7230060880
I0629 17:31:16.818447 32089 layer_factory.hpp:77] Creating layer relu_attr
I0629 17:31:16.818456 32089 net.cpp:86] Creating Layer relu_attr
I0629 17:31:16.818460 32089 net.cpp:408] relu_attr <- fc_attr
I0629 17:31:16.818464 32089 net.cpp:369] relu_attr -> fc_attr (in-place)
I0629 17:31:16.818902 32089 net.cpp:124] Setting up relu_attr
I0629 17:31:16.818910 32089 net.cpp:131] Top shape: 32 512 (16384)
I0629 17:31:16.818913 32089 net.cpp:139] Memory required for data: 7230126416
I0629 17:31:16.818917 32089 layer_factory.hpp:77] Creating layer attr_score
I0629 17:31:16.818924 32089 net.cpp:86] Creating Layer attr_score
I0629 17:31:16.818928 32089 net.cpp:408] attr_score <- fc_attr
I0629 17:31:16.818945 32089 net.cpp:382] attr_score -> attr_score
I0629 17:31:16.826068 32089 net.cpp:124] Setting up attr_score
I0629 17:31:16.826081 32089 net.cpp:131] Top shape: 32 401 (12832)
I0629 17:31:16.826094 32089 net.cpp:139] Memory required for data: 7230177744
I0629 17:31:16.826099 32089 layer_factory.hpp:77] Creating layer loss_cls
I0629 17:31:16.826107 32089 net.cpp:86] Creating Layer loss_cls
I0629 17:31:16.826110 32089 net.cpp:408] loss_cls <- cls_score
I0629 17:31:16.826114 32089 net.cpp:408] loss_cls <- labels_roi-data_1_split_1
I0629 17:31:16.826118 32089 net.cpp:382] loss_cls -> loss_cls
…
